storage/GridCity/model.pt (torch_old, 630081 bytes, 16 tensors)

weight_ih f4 [300, 75]
00000000: 1cdd 543d 2bbd 94bd d26c 18bd d7e3 5e3d
00000010: 47a1 cfbd 1f3f 8a3d 9f95 fdbc 945f 463d
00000020: 3d1c eb3b bd06 28bc 5375 143d b08f ffba
00000030: 0f55 103d 71a8 41bd 6fc9 d43a b56c b5bb
00000040: 70ca b43c b607 303c d575 da3d 0b65 403d
00000050: c782 0dbd 8452 6abd 0dfb ed3a 4c01 a7bc
00000060: db11 6c3b dfbd 803b 9a48 f13d aa74 ea3d
00000070: eb6b 5ebd 268b 033e 5ff6 343d 21ce f83d
00000080: 2c5d a03d dcac adbd 4f5b 55bd 2b9b 56bd
00000090: c430 f53d 93fe e33c c1f4 163e daca 5bbd
000000a0: 7769 de3d 0535 38bd 572e a03d ec57 d8bb
000000b0: 926a 0b3b 6d20 683d 53a4 41bd 5732 983d
000000c0: 1d6a dcbb 18bd 8bbc 32d8 e9bd 2ff0 9bbd
000000d0: cd40 263d 8fab 2d3d 688c eb3d 9d81 8a3d
000000e0: a450 0bbd daba d4bd c885 6c3d 9dd1 b53c
000000f0: 245e a4bd 43a7 693d ae91 8f3d be9d 163e
00000100: 0990 84bd 01fe 66bc 3cf3 a63b cad0 793c
00000110: c87b 3bbd 4047 02be d7fa 553d aa55 e6bc
00000120: 6519 583c 4f25 953a b44b 1b3d 5f20 013b
00000130: 853d 133c 3e48 df3c d7e3 01be 72a1 803d
00000140: 076a 04bd 4443 0dbd 56a6 253d 3ba0 fcba
00000150: 4e06 f63d 52fe 9fbd d4f0 8bbd f867 d13d
00000160: 80d4 5d3c dfbb c73d e73c a93d 9f73 0bbd
00000170: d878 433d 0dcf 2d3d 011b 34bd e2ed afbd
00000180: b586 a53d d21e ef3b c294 64bd 875c d5bc
00000190: a90e 8d3d 6c02 383d 938d b13d 304c 503d
000001a0: 98a7 bdbd 5754 d1bd 457a 2c3e 1a41 a13c
000001b0: 9d77 003e b724 31bd dd44 a73c d062 c83d
000001c0: d13c 9d3d e095 07be 9089 6c3c 323e ba3d
000001d0: 78b1 043e 7155 f23d 53eb 41bd 4b69 63bd
000001e0: 1f35 89bd 3ad8 e33c 9100 393e 8e95 3ebd
000001f0: b92c a73d 0cbe 2bbd ffd9 00be e8c5 03bd
00000200: e0e2 453d 688b db3d 79e5 c7bc 56b0 c13c
00000210: 13c5 d33d b946 943d b578 dc3d 2683 4e3d
00000220: ec08 333d 9854 f43c 8f62 bebd 9d96 c6bd
00000230: 0f97 a5bd 0163 a1bc 61fc b2bd 5cc3 453d
00000240: 51da e8bb 0719 7fbd ff1d b83d e940 ad3d
00000250: 298e 5b3d fc41 9f3d 9157 6dbd 252c 8d3d
00000260: 55af c9bc 627c ccbc f8a5 e2bd 19b8 b2bd
00000270: 17d9 99bd c986 9fbd 5a27 a53d 506d 703a
00000280: fc2e a1bd 6b13 acbb b37e 873c 058e 803d
00000290: 4a39 05bd 4f68 333d a740 98bc 5c66 9ebc
000002a0: cba7 82bd 2f77 03bd f843 31bd 154f 413d
000002b0: 6763 993b 56a3 043d 2369 d13d f3b2 d83d
000002c0: 5c1b 7e3d 44e9 d0bc d073 4fbc 95d4 bd3d
000002d0: d490 06bd f5ba 1fbd 768f bfbd 6136 b53c
000002e0: ad9e 2fbe a274 b43d 89c1 21be c33f 06be
000002f0: e6e7 7d3d 5bbd 7fbd 6adf 153d ded8 70bd
00000300: feba 5fbd 023b a43c 799d ef3b 8be0 e0bd
00000310: f6a7 3c3d 1cb3 673d eba4 0f3e 2dde 0ebe
00000320: 7569 813d 6d2b 87bd f1ec ff3d d426 02bd
00000330: 2c72 8e3d 44e5 0e3d c367 cbba e7cc 09bc
00000340: abf3 0e3d ce94 053e 9cb8 96ba 5580 f53b
00000350: d5b8 d4bd 67d0 1b3e 442e ce3d 0e99 c53d
00000360: bd5b 1a3d 82ff a3bd d3a4 b4bc 2a07 143e
00000370: d473 d2bd 4814 f03d 4ff0 3dbd 2666 1dbd
00000380: ec38 673d 60e5 76bd 66f5 afbc 7306 853d
00000390: f633 8d3d 37cb 0e3e 27be 113d ccf4 00bd
000003a0: ad6f 1a3e 2216 ccbc 899d 173d 5f58 083c
000003b0: 030a c3bd 2677 be3c 99ba 8c3c e4f3 c1bd
000003c0: 739f 9abd eedb 2c3c 5f36 4a3d 45b1 23bd
000003d0: d9a9 d5bc a64d 62bc 61c0 08be fc7b 03be
000003e0: 0aa7 06be d758 9d3d ae08 753d b261 50bd
000003f0: 8855 fb3b d1a6 e23c 92fb bcbb 1b27 aebd
0.05196868 -0.072626434 -0.037213154 0.054416504 -0.10138183 0.06750321 -0.030955134 0.048430994
0.007174997 -0.010255513 0.0362447 -0.0019497778 0.03523737 -0.04727978 0.0016234348 -0.0055366405
0.022069186 0.010744026 0.10667006 0.046971362 -0.034548547 -0.0572076 0.0018156484 -0.02038636
0.0036021385 0.0039288844 0.11781426 0.11448033 -0.054302137 0.1284605 0.04418027 0.12148691
0.07830271 -0.08480236 -0.05208903 -0.052394073 0.11972192 0.027831351 0.14741804 -0.05366025
0.108599596 -0.04497244 0.078213386 -0.006602278 0.0021273238 0.05667155 -0.047275852 0.074314766
-0.006726517 -0.01705794 -0.11418189 -0.07614171 0.040589143 0.04239994 0.1150139 0.06763003
-0.03401245 -0.103872016 0.05774477 0.022194678 -0.080257684 0.05704428 0.07010208 0.14708611
-0.06472785 -0.014098645 0.0050949138 0.015247533 -0.045772344 -0.12722492 0.052241173 -0.02811702
0.013189648 0.0011378917 0.037913993 0.0019703133 0.008986835 0.027256127 -0.1268457 0.06280793
-0.032327678 -0.034487978 0.040441833 -0.0019273827 0.12012921 -0.078121796 -0.06833044 0.102249086
0.0135394335 0.097526304 0.08263569 -0.03404581 0.047722667 0.042433787 -0.043971065 -0.085902944
0.08082334 0.0072973752 -0.05580593 -0.026045097 0.06887562 0.044924185 0.08669581 0.050853908
-0.092604816 -0.10221165 0.16843517 0.019684363 0.12545629 -0.043247905 0.020418579 0.09784472
0.076776154 -0.13240767 0.014437094 0.09093894 0.12958324 0.11832703 -0.047343563 -0.055520337
-0.06699585 0.027813066 0.18066622 -0.046529345 0.08162827 -0.04192929 -0.12583159 -0.03217116
0.048312068 0.10719949 -0.024401413 0.023643654 0.10340323 0.07240052 0.107652105 0.05041804
0.04370968 0.029825494 -0.09296142 -0.09696696 -0.08085453 -0.019700529 -0.08739544 0.048282012
-0.0071061035 -0.062279727 0.08990096 0.08459646 0.05360237 0.077762574 -0.057944838 0.068931855
-0.024619738 -0.024961654 -0.11066812 -0.0872652 -0.0751211 -0.0778938 0.08064146 0.0009171562
-0.0787029 -0.0052513382 0.016539907 0.06277088 -0.03252534 0.04380065 -0.018585516 -0.019335918
-0.0637966 -0.032096084 -0.04327771 0.04719456 0.004681039 0.03238233 0.10225131 0.10581007
0.06203781 -0.025501855 -0.012661889 0.092690624 -0.032852963 -0.038996655 -0.09353535 0.022120656
-0.17150374 0.088113084 -0.15796484 -0.1311026 0.061988734 -0.062436443 0.036590017 -0.05880057
-0.05462169 0.020047668 0.0073124734 -0.10980328 0.046058618 0.056567296 0.14027755 -0.13951941
0.063189425 -0.0660008 0.12496365 -0.03177531 0.0695537 0.034886613 -0.0015518594 -0.008410669
0.03490035 0.13045046 -0.001149911 0.007492105 -0.103868164 0.15216218 0.10067418 0.096483335
0.037685145 -0.080077186 -0.02205125 0.14455858 -0.10275999 0.11722618 -0.046371754 -0.038427494
0.05645077 -0.060277343 -0.02147932 0.06495371 0.068946764 0.13944708 0.035581734 -0.031483456
0.15081663 -0.024912897 0.03701547 0.008321851 -0.09523394 0.023250174 0.01717882 -0.094703466
-0.07549944 0.010550482 0.04936826 -0.03996398 -0.026081966 -0.013812458 -0.13354637 -0.12840265
-0.13149658 0.076829605 0.05982273 -0.05087442 0.007670108 0.027667435 -0.005767294 -0.085035525

weight_hh f4 [300, 75]
00000000: d77f dfbd 0b40 97bd ec0a 673d a937 68bc
00000010: a261 bb3d 41c6 87bd cfca 35bd 68b8 db3c
00000020: c60a 9f3d dcac 39bd 0944 d13c 5b78 ea3c
00000030: 5508 3e3d 1f21 953b 467a efbd dc82 e03d
00000040: 6b7f 32bd 1d12 a1bd 9a25 ccbc 19ea b83d
00000050: c3f8 efbc a072 b13d ab87 923d f192 a7bc
00000060: 2713 e3bc fce8 21bc 006b 0ebd 2af4 72bd
00000070: 2ade e7bd 504d 723d 981c 963d 4142 4cbd
00000080: ca4f c1bd 772a f3bc 587f 213d 4405 ab3c
00000090: ee67 bc3d 4867 923c 3743 6bbd df42 0a3d
000000a0: b855 e93c 5dab 20bd 114b 9abd cf23 c63d
000000b0: 7604 b3bd 8e0a b5bd 662f de3d 520a 663d
000000c0: 2704 9b3d 8eac 78bd 4e58 a7bd d4a6 133e
000000d0: 5d90 483d 1b34 e83d 668c edbd 5401 ceba
000000e0: f6fd 04be 90ef c13d 44c4 863c 55a6 ad3d
000000f0: ee0b de3d 355a d0bd 564b 043e 9cfd ff3b
00000100: d730 fdbd 2408 98bd 0628 3b3d 42a7 6bbd
00000110: b55b b63b cd0b 283d 23ee c73d d215 e8bd
00000120: 4ea0 ce3d 521c b73d 7bc7 9bbd b765 c9bd
00000130: 0689 75bd 1409 80bd 6eba 063c db06 e03d
00000140: c866 a5bd c1de 2bbd d1d9 073d f506 fcbd
00000150: 8aae 00be 6215 a43c 1321 81bd ec5d 81bc
00000160: c2c8 89bc 571b 7b3c a3a7 303d ca33 d4bd
00000170: 45dd 40bc 8ca8 b0bc 0a85 6cbd 410b 9f3d
00000180: b18e ad3c bac9 443d 27dc 143d c0eb 88bd
00000190: f85c 56bb ac7c c6bd 04a8 febd c2e5 23bb
000001a0: d788 973d 1f67 75bd db2f 073e 1c8d 6e3d
000001b0: 6816 d23d 3051 09be 04cd a73d 4a8d 1e3c
000001c0: 91c1 acbd 6da8 fe3c d7e8 8bbd a611 233d
000001d0: f7d4 c7ba bb99 043e ab76 c23c b629 34bd
000001e0: 4693 adbc 5c49 c93d aa3f fa3d 6705 743d
000001f0: 687c 3b3d b2ce 94bd 1ad3 253e 0fbd 57bd
00000200: 5186 5ebd c2f1 04bd 5f68 2dbd dea6 f43d
00000210: 5c94 b33d 344d 963d a8fd 01bd d02e fa3c
00000220: b662 8c3b 037d ccbd 2525 f13d bdc2 97bd
00000230: 7414 ad3d f3dd 81bd 9ba1 86bd 00c4 0dbb
00000240: 9729 b73d 4c29 b23d 53d1 25bd f670 ce3d
00000250: 4c31 163e 4311 493b caa4 da3d c3e4 083d
00000260: 9e3d 18be 023d 923d f47a 6b3d 0c5a 023d
00000270: 6434 a33d 304b ae3d f7a9 ecbd 5a49 533d
00000280: 5882 053e e2fd b4bc bc74 91bc 3383 a7bd
00000290: c2c3 5abd 2140 84bb 1396 febd 095e 65bd
000002a0: 8f63 2abd ac8e f93c a7ff ef3d f80b 133d
000002b0: 82ec 6cbd a453 9bbd ef72 903d a677 0cbd
000002c0: d18d 073e f732 43bd 5956 41bb 8fc0 36bd
000002d0: e575 9e3c 0ec4 8f3d ab60 5cbd 02c5 6f3d
000002e0: b564 05be b4ce b1bd be84 a43d ef0b fdbd
000002f0: baec 24be d585 bd3d 663e 50bb 9cec 6dbd
00000300: 90e1 b73d aa6e 123e 2622 f6bd 8fa0 033c
00000310: 5305 393d 2b0c 033e 75be 83bc 4823 723c
00000320: 124f 1f3e eacc 9ebd 89cb 9d3d 747b 9abb
00000330: 831f b13d ab6c c1bd fa8a 783d fa23 d63d
00000340: 8dd1 8fbd 6cd6 87bd f2f2 683d 5eff 05bd
00000350: 833e 1ebd 1f77 afbd 6b54 04bb ed29 003e
00000360: 6979 003d 1328 bc3b 4957 883d bebb 763d
00000370: 23cc d6bd 80c2 83ba 9aed bd3c e799 50bc
00000380: 432d 053e c3e2 7e3d fc6b 093b ee7c 223d
00000390: 4abc f93d dbac 1ebd 8aa7 bb3d ca91 c73d
000003a0: 2ad4 c93d 6b5c 193c be5a a23d 0bdc ef3c
000003b0: 2ee1 a73d ceb9 db3d 9aa7 6c3d f0e8 f3bc
000003c0: 23f8 04bd 29e1 013e 100f aabc 611c d53d
000003d0: 1f02 3ebd fc41 b4bd 0d25 2bbd 2159 5d3d
000003e0: 82a7 813d 9409 f63d 3531 863d 1240 b6bc
000003f0: 0dd3 96bc 27a3 ae3d 36b4 e23d 3fda 28bd
-0.109130554 -0.07385262 0.0564069 -0.014173427 0.09149481 -0.06629611 -0.044382866 0.02682133
0.07765727 -0.045330867 0.025545137 0.028621843 0.046394665 0.0045510675 -0.11693244 0.109624594
-0.043578546 -0.07864783 -0.024920274 0.090290256 -0.029293424 0.08664441 0.07154783 -0.02045581
-0.027719093 -0.009882208 -0.034770012 -0.059314884 -0.11321671 0.059155762 0.073296726 -0.049867872
-0.09439047 -0.029683335 0.039428085 0.020876534 0.091995105 0.017871514 -0.057437148 0.03375518
0.028483257 -0.039225925 -0.07533849 0.09674799 -0.08741085 -0.08839904 0.10848884 0.056162186
0.07569151 -0.060711436 -0.0817114 0.14419109 0.0489658 0.11338063 -0.115990445 -0.0015716949
-0.12987503 0.09469521 0.016451009 0.08478991 0.10842119 -0.101734556 0.12919363 0.007812215
-0.12362831 -0.07423428 0.045692466 -0.057532556 0.0055651315 0.04102688 0.09762218 -0.11332287
0.100891694 0.089409485 -0.07606407 -0.09833854 -0.05994513 -0.062517315 0.008223159 0.109388076
-0.080762446 -0.04196048 0.03316671 -0.123060144 -0.12566581 0.020029727 -0.063051365 -0.015791856
-0.016819362 0.015326343 0.04312862 -0.103614405 -0.011771505 -0.021564744 -0.057744063 0.077658184
0.021186205 0.048043944 0.036342766 -0.06685591 -0.0032709222 -0.09691748 -0.1243439 -0.0025008772
0.07399147 -0.059912797 0.13201849 0.05824004 0.1025818 -0.13409877 0.081934005 0.009677241
-0.08435357 0.031086171 -0.0683152 0.039811753 -0.0015245964 0.12949269 0.023738226 -0.04398509
-0.02118839 0.09828445 0.12219174 0.059575465 0.04577294 -0.072659865 0.1619381 -0.052670535
-0.054327313 -0.03245712 -0.042335864 0.1194589 0.08768532 0.07338944 -0.031736046 0.0305399
0.004284228 -0.099847816 0.11774663 -0.0741019 0.08451167 -0.063411616 -0.065737925 -0.0021631718
0.089434795 0.08699283 -0.04048283 0.10080139 0.14667243 0.0030680455 0.10675962 0.03342129
-0.14867255 0.071405426 0.057490304 0.031824157 0.07968977 0.08510435 -0.11555856 0.051583625
0.13038003 -0.022093717 -0.017755859 -0.08179321 -0.053409345 -0.004035965 -0.12430968 -0.055997882
-0.041598853 0.030463539 0.11718684 0.035900086 -0.05784274 -0.075843126 0.07053172 -0.034293793
0.13237692 -0.047656026 -0.002950093 -0.044617232 0.019343326 0.07019816 -0.053803127 0.05853749
-0.13026698 -0.086820036 0.08033131 -0.12355792 -0.16105929 0.09254042 -0.0031775474 -0.058086976
0.089785695 0.14300027 -0.12018232 0.008033886 0.045171093 0.1279761 -0.016082028 0.0147789195
0.15557507 -0.07753928 0.07704837 -0.004714424 0.086485885 -0.09444555 0.060679413 0.10456081
-0.070223905 -0.066326946 0.056872316 -0.03271424 -0.038633835 -0.085676424 -0.0020191919 0.12515993
0.031365786 0.005742082 0.06657273 0.06023764 -0.10488155 -0.0010052472 0.023184586 -0.012732006
0.13005547 0.062227976 0.0020968905 0.039669923 0.121941164 -0.038739067 0.09162815 0.09744604
0.0985492 0.009360413 0.07927464 0.02927973 0.081972465 0.10728799 0.057777025 -0.02977416
-0.032463204 0.12683548 -0.020759135 0.104058035 -0.04638874 -0.08801648 -0.04178338 0.054040078
0.06330778 0.12013546 0.06552354 -0.022247348 -0.018411184 0.085272126 0.11069529 -0.04122376

bias_ih f4 [300]
00000000: 5e8d 403b ba08 ad3d 9f4c c1bc e247 253d
00000010: 1cff 1b3d 6088 8d3d 035c e93c 14d9 90bd
00000020: e4a9 0ebd 6e69 92bd e96b c23c e800 403d
00000030: 4fd7 d3bd 740f 963d 5947 9fbd 6c2e 693d
00000040: 770b 0dbd 7eaf 63bd 7048 b93d 4035 853d
00000050: ea2a 013e 07fa 48ba 77ae 9f3d 8629 6a3d
00000060: dd19 3e3d 332c 4bbd df3a 333d 2ce5 233d
00000070: c9eb cbbd c391 3a3d 9e75 703d 891a 123d
00000080: 0238 573d 9249 b7ba 947f 84bc 3104 3b3b
00000090: 25dd c93d c74d fb3d b427 8b3d 700c bc3d
000000a0: 9762 cbbd 685e e8bd 1202 abbd b949 493c
000000b0: 5359 593c e175 c63d 5e00 8e3d 3b6d 3c3d
000000c0: 85bd b03a 7bc2 ff3d 3032 0bbd 2e62 4ebd
000000d0: 1a74 9abd b3ae a6bd 6995 723d 6107 3c3c
000000e0: 9706 6fbd 1711 9dbd a488 ba3d b6f2 d33d
000000f0: c612 bcbd 0d56 573d fd7b 06bd c48d 73bc
00000100: 7716 f53a 148c da3d ed9c c6bd eb52 90bd
00000110: 760f f63d 549c 51bd 271b be3c a839 ad3d
00000120: 766f 88bd d95f 003e 0121 c4bd ce45 84bd
00000130: 08f9 8b3d 0dcf e43c 2c75 f53d c54b aabd
00000140: f340 46bd 51c5 003e ecec 9c3d fcd8 a23d
00000150: 76e3 da3d deac ecbd 9218 6bbd a1a5 d23d
00000160: 66fe 883d 9909 e33d a59c 9dbd 93da d13d
00000170: d9c5 4e3d 1d83 01bc 03ac d4bb dfc1 1c3e
00000180: f4c7 01bd fd7b 9fbd 50e1 89bc ba01 1fbb
00000190: 8b79 a43d c430 c8bd 1532 403d e955 0f3d
000001a0: 39f6 a43c d8ea bc3c d973 01bd ee47 9dbd
000001b0: eba9 b43d 60d7 fd3d 2dc6 3ebd 9c11 b43c
000001c0: 7a7d 2a3d 051a c2bd 2b7d c03b da4a 1fbd
000001d0: a560 93bc 84d0 07be 8b73 61bd 723a 4abd
000001e0: 898f 67bc 22be 4bbd 981b 38bd 4526 453d
000001f0: c9d9 72bd 6cf6 fbbc c8aa 763d dd03 b0bd
00000200: 9dc1 30bd e144 823d 86bd 74bc 05c3 133e
00000210: b645 98bd 5da7 ee3d 08bc a5bd 7bb1 02bc
00000220: 8528 aebd 546f 053e 9c96 433c ecc2 b93c
00000230: 8d23 5cbd ddfa e03c fdbf 0cbd 0311 f9bd
00000240: 9d40 b8bd 4534 bebd 1beb b4bc 965b 8fbc
00000250: f40a e9bb f0f2 9fbd 52fd b7bd 5c37 9abd
00000260: 0076 7abd b477 003d ff79 a03d 56a7 0abc
00000270: 93db 97bd 24ab 923d fe4c bcbc 8cf8 3abd
00000280: e49c cdbd 75b3 ae3d 18d2 083d 0b8d f5bd
00000290: c171 b33d cedb 29bd 2d3e 4ebd 3f46 433c
000002a0: e773 7fbd b48b 1d3d 9943 91bd 9e6a debd
000002b0: 2c5e 1dbd 039f fabc 496b 6c3b 3a39 dfbd
000002c0: 17c7 cdbd 6449 cebd 0ae2 b93d 2cc8 5d3d
000002d0: ee13 c13d f565 f3bd 9eda 763c 65ac 21bd
000002e0: a7c8 c73d 68ea 473d 7b3a 463c 57bf 043c
000002f0: 72ce 66bd 2c10 113d 2c1e 83bc f9f9 ad3d
00000300: 01ab 61bb d605 e23d db31 d43d cdb4 b8bc
00000310: 1bff 5c3d 32a5 ec3d 58a8 ebbc 7ff4 f13d
00000320: aeeb fabd 3c15 403c 8c49 ccbc 5bb8 f33d
00000330: ce83 aa3d 1826 d53d 386d 7fbd 47c7 d6bd
00000340: bbae c33c 84a4 7fbd 372e d5bd 20d9 c43d
00000350: 4708 333d f384 8bbb d2eb c33c 81b2 29bd
00000360: cb3c be3d 651f 61bb 6a72 cabd 5672 8f3c
00000370: 4bbe 79bd e8a5 9bbd 83e2 03bd 1f8d d83d
00000380: 5e0a a3bd 4ab0 163d cefe fd3b edb4 8d3c
00000390: 17fe 8bbd cac2 83bd c4ae 323d fb7c 833d
000003a0: 94d3 3f3d 5814 8dbd 0be4 c23d f4dd 383d
000003b0: a971 30bd 8078 943d 5bf1 5fbd 55e1 55bd
000003c0: 35d1 2e39 98b5 f1ba 225c 65bc acb0 8bbd
000003d0: c62e a2bd 3f6e ae3d 4091 4b3d e9cd 063c
000003e0: 99ee f5bd 1b9c 8dbd 2a71 42bd 5391 803d
000003f0: 3751 223d 9d0f 89bd 956b 89bc 3436 d6ba
0.0029381136 0.0844893 -0.023596106 0.040351756 0.038085088 0.06910777 0.028486257 -0.07072654
-0.03482999 -0.07149015 0.023733096 0.046875864 -0.10343801 0.07327166 -0.0777728 0.056929037
-0.03443476 -0.055587284 0.090470195 0.06504297 0.12614027 -0.00076666515 0.077969484 0.057168506
0.046411384 -0.0496027 0.043757316 0.040013477 -0.09957082 0.045549165 0.05870592 0.035669837
0.052543648 -0.0013983718 -0.016174115 0.0028536434 0.09856633 0.12270694 0.06794682 0.0918206
-0.09930914 -0.113461316 -0.08350004 0.012285643 0.013265925 0.09690452 0.06933664 0.046002608
0.0013484216 0.12488266 -0.03398341 -0.0503866 -0.07541676 -0.0813879 0.05922452 0.011476369
-0.058355894 -0.07669275 0.091080934 0.10349028 -0.09183268 0.0525723 -0.03283309 -0.0148653425
0.0018698712 0.10671249 -0.096979 -0.07047065 0.12014668 -0.051174477 0.023206307 0.08458263
-0.066618845 0.12536563 -0.095766075 -0.06458627 0.06834608 0.02793076 0.119852394 -0.08315233
-0.048401784 0.1257527 0.07662377 0.07951543 0.10687916 -0.11556409 -0.05739648 0.102854975
0.06689148 0.11085815 -0.07695893 0.10246768 0.05048165 -0.007904795 -0.006490232 0.15308331
-0.03168483 -0.07787321 -0.01683107 -0.0024262504 0.08030995 -0.09774926 0.046922762 0.03499404
0.02013694 0.023061201 -0.03160462 -0.07679735 0.08821472 0.12394595 -0.046575714 0.021981053
0.04162357 -0.09477619 0.005874296 -0.038889743 -0.01799042 -0.13263136 -0.05504183 -0.049372144
-0.014133343 -0.04974187 -0.04494819 0.0481322 -0.059289727 -0.030757152 0.060221463 -0.08594487
-0.043153394 0.06360794 -0.014937764 0.14429863 -0.07435171 0.11653016 -0.08092505 -0.007976885
-0.08503822 0.1303075 0.011937764 0.022675954 -0.05374484 0.027463371 -0.03436278 -0.12161448
-0.08996699 -0.09287313 -0.022084763 -0.017499726 -0.0071119014 -0.078100085 -0.08983864 -0.0753009
-0.06114769 0.031364158 0.07835769 -0.008462748 -0.07414927 0.07161549 -0.022985931 -0.04564719
-0.1003969 0.085303225 0.033403486 -0.119897924 0.08761931 -0.041469388 -0.050352264 0.011918603
-0.062366392 0.03846331 -0.07092971 -0.10860179 -0.038419887 -0.0305934 0.003607469 -0.10899587
-0.10047739 -0.10072592 0.09076317 0.054145977 0.094276294 -0.11884681 0.015066771 -0.03947105
0.09755068 0.04880753 0.012098904 0.00810226 -0.056349225 0.035415813 -0.016005598 0.08494944
-0.0034434202 0.11036269 0.10361072 -0.02254715 0.053954225 0.11554946 -0.028766796 0.11814212
-0.122519836 0.011723813 -0.024937414 0.119003974 0.08325921 0.104076564 -0.06236002 -0.10487228
0.023887029 -0.062412754 -0.104092054 0.09611726 0.043709066 -0.004257792 0.023916159 -0.04143
0.09288939 -0.0034350988 -0.09885104 0.017510574 -0.060972493 -0.076000035 -0.03219844 0.10573792
-0.07960962 0.036789216 0.0077513224 0.017298186 -0.06835573 -0.064336374 0.0436237 0.064203225
0.046832636 -0.06888646 0.09516152 0.045133546 -0.043077145 0.07249546 -0.054673534 -0.052216846
0.00016671869 -0.001844096 -0.013999017 -0.06820807 -0.079190776 0.085171215 0.049699068 0.008227804
-0.120083995 -0.069145404 -0.047471203 0.062777184 0.039628234 -0.06692431 -0.016774932 -0.0016343058

bias_hh f4 [300]
00000000: 96a4 c93b c11c 743d e5d8 99bd f34a 6abd
00000010: 8a07 b53d 7d89 85bd 4c33 363d e5ea f5bc
00000020: 1108 853d 546a c4bd 296b 0f3e 9007 903d
00000030: 7888 a0bd 8ca4 2d3d f901 193d 7a52 0bbc
00000040: 7a2d 203d 3469 733d c85e c23b 4e9c 393d
00000050: 41fc c93d 89e9 dd3d ec9e bf3c 5d2f 5abd
00000060: 48fc 963d 0533 da3d 9cb7 2cbd dfd3 87bc
00000070: 6e9c ecbd 84f4 c1bd cd6c d0bd 9a0b a3bd
00000080: 8d79 ad3d a20e febc 21cb b0bd d0ef d63d
00000090: ed19 69bd afd5 843d 3d20 d53d ee8d a53d
000000a0: 4c57 14bc e7cf af3c da6f 693d bd73 2e3d
000000b0: 2dbd 233d a6f9 903d 377a cfbd 0167 a8bd
000000c0: 1892 c43d 3881 213d 9490 b7bd 9071 083d
000000d0: 7c49 dfbc 4934 50bb 2810 4d3d 1514 0e3d
000000e0: 9a8a 6cbd e176 4f3d 165f 91bb 9671 84bd
000000f0: 0c74 9bbc 01c3 55bd 9004 d83d c760 e83d
00000100: 9906 853d fde8 c3bc 7b2e af3c 3e53 c8bd
00000110: f569 ca3d 480e 76bc 6968 2f38 8fdc bd3d
00000120: 1107 a13c 02f5 f03d 734d b5bd e4cc 8b3d
00000130: 15b5 b03d 4de8 e13c 3901 1fbd f01b ed3d
00000140: 1569 69bc f45a a63c a114 573d 9079 aa3d
00000150: d595 833c b160 7b3c e68d e0bd d72e 2a3d
00000160: 2b0f 7c3d a447 dc3d f036 803d d649 8e3d
00000170: 23bf 07bd 79bb 9fbb c249 3dbd 106f 2e3d
00000180: c696 acbd 4fb6 56bc ee5f 8c3d 10ec b3bd
00000190: 0bb4 d93c eb94 5cbd 6023 a03d c4fe 9dbd
000001a0: 1ba4 23bd 1782 d1bd 5101 52bd 35ca 8d3d
000001b0: d8d1 c83b a85f b5bd 0f48 adbd 957e 9d3d
000001c0: 87eb 5fbd 3531 833d f240 c2bd 41e0 98bd
000001d0: 5f9f a23c eb03 c03d efb4 8dbd 4cb1 4a3c
000001e0: 0ac1 7b3d 33fa 0d3b 7b38 10bb 0659 603d
000001f0: c6b4 2dbd 79e5 7fbd f073 c4bc 1f45 40bd
00000200: 74c7 ed3c 70d0 a7bd 182f 3fbd dd6c 853d
00000210: aba2 dd3b 7fcb c23d 99f7 abbd ba40 a83d
00000220: 3bbd 583d ae20 1b3e ebe9 6f3d ccdd b83d
00000230: 7f1d 5fbd c554 d63d d223 13bd 9530 ddbd
00000240: 143d 48bd 6982 b1bd d765 6abd 49d7 153c
00000250: 44b2 96bd f127 083d 9bcc 313d 4a1b ef3d
00000260: 0a68 c0bd 0c70 c8bd 5d67 e83c b19f 70bd
00000270: 5a6f 993c ee87 c83c 2a81 8f3d f22d 4d3d
00000280: b53d f8bd 8fb2 86bd a208 e13d de0b b8bd
00000290: 63fa a63d cd89 96bd 3796 bd3d eb57 81bd
000002a0: 9f01 d13c ed1c 9dbd fe46 92bc a550 9b3d
000002b0: 8097 be3d 64e1 6bbc 8194 a43c ede5 67bd
000002c0: 93e7 013b 6785 dcbd 3bd4 fdbb 26a9 65bd
000002d0: 3ab1 efbd 8e3d c23d 4a2c 873d e5e5 2a3d
000002e0: 0404 78bd 34f1 0ebe e0d9 b23d c30d 153d
000002f0: f97d eebd 57b7 9bbd 9e45 71bd c78b 573d
00000300: f2c8 c6bc 4840 29bb 9384 8f3d d58f 0f3c
00000310: b7ad 273d fe92 43bd 3ff8 8b3d 891d b03c
00000320: f609 32bd 6af0 eb3d d55a e2bb fb58 d1bc
00000330: 590f 353d 2cb6 88bc c555 c23d bf4d ed3d
00000340: 37ec 16bc 05b5 e2bc 9b5e d03d 8997 babd
00000350: 6e13 8b3d 2767 9cbd e559 73bd 76b8 b7bd
00000360: 63a9 c63d 769c 7d3d b343 58bd ddc4 2b3d
00000370: a8a8 9abd 4da8 cb3b bff9 7a3d 9576 cfbd
00000380: 2813 debc facf bf3d 87d2 9d3d 93a1 ce3d
00000390: bf2a e73c 5a95 363d a74c 2c3c 831e 9abd
000003a0: e082 36bd 3854 c53d d518 313d 2ddb ae3d
000003b0: 8d72 743d dd7e bd3a 5c55 703d f743 8c3d
000003c0: 0b42 9abd 63a9 7bbc 39c0 3cbc 741c 783d
000003d0: 336c be3d 4ecd 883d 58d5 0cbd de1e a73d
000003e0: 817b b73d a6e2 9a3d 101f 393d 25fe 943c
000003f0: 0845 d43c 1193 ea3c ebc4 353c bd38 e1bd
0.0061536534 0.059597734 -0.075120725 -0.057200383 0.088393286 -0.065203644 0.044482514 -0.030019233
0.06495679 -0.09590593 0.14005722 0.070326924 -0.07838529 0.042393252 0.037355397 -0.008503551
0.03910587 0.0594265 0.005931709 0.04531508 0.09862567 0.10835559 0.02339121 -0.053267825
0.073723376 0.106542625 -0.04216729 -0.01658052 -0.11553274 -0.09470466 -0.10177002 -0.07961197
0.084704496 -0.031012837 -0.08632494 0.10494959 -0.05690949 0.064860694 0.104065396 0.080837116
-0.009054016 0.02146144 0.056991436 0.042590845 0.039975334 0.07078867 -0.101307325 -0.082227714
0.09598178 0.039429873 -0.08963123 0.033311427 -0.02725672 -0.0031769446 0.050064236 0.03468712
-0.05774937 0.05065048 -0.004436384 -0.06466977 -0.018976234 -0.052187923 0.10547745 0.11346584
0.06495399 -0.023914808 0.021384468 -0.09781502 0.09883491 -0.015018053 4.182049e-05 0.09270584
0.01965669 0.117654815 -0.08852663 0.06826189 0.08628289 0.02757659 -0.038819525 0.11577594
-0.014246245 0.020307042 0.052509908 0.083239675 0.016062656 0.015342877 -0.10964565 0.041548576
0.061537903 0.10755852 0.062604785 0.06947677 -0.033141267 -0.0048746434 -0.04621292 0.042586386
-0.08427195 -0.013104989 0.06854235 -0.0878526 0.026575109 -0.053852957 0.07819247 -0.07714608
-0.039951425 -0.10229891 -0.051270787 0.069233336 0.006128531 -0.088561356 -0.0846101 0.07690159
-0.054667976 0.0640587 -0.094850436 -0.07464648 0.019851385 0.09375747 -0.06919276 0.012371372
0.061463393 0.0021664023 -0.0022006321 0.0547724 -0.042408727 -0.0624747 -0.023981065 -0.04694092
0.02902577 -0.08194053 -0.04667577 0.06514905 0.0067637763 0.0951147 -0.08396835 0.082154706
0.05291484 0.15149185 0.05857269 0.090266794 -0.05447149 0.10465387 -0.035922833 -0.10800282
-0.048886374 -0.08667452 -0.05722603 0.009145566 -0.0735822 0.033241216 0.043408018 0.11675127
-0.09394844 -0.09786996 0.0283696 -0.058746044 0.018729854 0.024478879 0.07007058 0.050092645
-0.12121145 -0.06577026 0.10987975 -0.089866385 0.08153226 -0.07350502 0.09257167 -0.06315597
0.025513468 -0.07671533 -0.017856117 0.07583741 0.0930624 -0.014396999 0.020090343 -0.05661576
0.0019821867 -0.10767632 -0.007746247 -0.056069516 -0.11703725 0.09484397 0.06600244 0.04172315
-0.060550705 -0.13959199 0.087329626 0.036390077 -0.11645121 -0.07603329 -0.058904283 0.052623536
-0.02426574 -0.0025825668 0.070077084 0.00876232 0.04093715 -0.047747605 0.068344586 0.021498458
-0.04346653 0.11520465 -0.0069078007 -0.025555125 0.04420409 -0.016688429 0.094890155 0.115870945
-0.009211591 -0.027674207 0.101742946 -0.09110934 0.06790815 -0.07636862 -0.059411902 -0.0897073
0.09700277 0.06191679 -0.052798938 0.04193579 -0.075517 0.0062151314 0.061273333 -0.101300396
-0.027108744 0.0936584 0.077061705 0.100894116 0.028218625 0.044576026 0.010516322 -0.07525351
-0.044558406 0.09635204 0.043236572 0.08537898 0.059679557 0.0014457364 0.058675155 0.06848901
-0.07532128 -0.015360209 -0.011520439 0.06057401 0.09297981 0.06679784 -0.034383148 0.08160184
0.089591034 0.07562761 0.04519564 0.018187592 0.025911823 0.02863458 0.011094312 -0.1099715

weight f4 [500, 32]
00000000: ab02 ccbf 945b 08bf 41cf 033f 7693 303d
00000010: 0f3c c13f 3a98 98be 2b2a 25bf dc2a ef3d
00000020: 359e 1c3f e551 a83e e241 90bf 3dbd c63d
00000030: eda4 7b3f 2a19 813f 3675 b23f f61c 84be
00000040: 3562 b23e 1116 e93f 1bc8 1440 ae93 b53f
00000050: b059 f6be f8a4 0ec0 21af 6b3e caea 113e
00000060: 59fa 943e f78b b03f 0646 fe3d e732 d13f
00000070: a6e1 50bf d57f 79be ff1c b1bf ef91 d5bf
00000080: 9514 41bf d3c2 c63f f747 903f 43e7 b43f
00000090: d98a 02bf a6dc b83d 7e74 cbbc e0df aabf
000000a0: 10cd 56bf dd7f 0c3e 2e21 f43f a37a 7c3f
000000b0: 2916 363d 7050 a4be ed29 853e 5f91 c03f
000000c0: f90d b1bf 2fb7 87bd 4cf7 7fbf 5097 fb3d
000000d0: cf0c 35bf 272c 9f3f caa9 5b3f 8882 95bf
000000e0: a861 35be d29e e73f 6341 21bf 5a32 91bf
000000f0: ca1c 95bf 2e95 3fbf e4b0 22bf c12c 0d3f
00000100: 9899 a83f 187d dfbf 9b90 8ebd 2f7f 6d3e
00000110: c15e 4c3e ba1a a83e 8612 3ebf c3c2 b4be
00000120: f9cd e3bd d4cb 6abd edb2 3abf 6683 53bf
00000130: 4da8 2c3d 68f0 153f 0443 5a3f 3959 a0bd
00000140: 5f7d 10bf cbde e2bd 538a 73bf b71a 713e
00000150: d5e5 c83d 9b8e 283f 487e 8abe 8908 733f
00000160: ba0e de3c 3bf0 dd3e 1cb7 333f e149 ae3f
00000170: 4846 a7be 40e2 a73f c782 3e3f bbd3 263f
00000180: 1909 e53f 32d0 1ebc b928 ecbe 0adc 25bd
00000190: 0831 b9bf d861 02be 4409 f9bf ecf7 0dbf
000001a0: bef0 253f fe7d 2f3f dea6 dd3e a047 183f
000001b0: 7d83 b9be ba88 2a3f c173 33bf 081b 4b3f
000001c0: 2474 d73d 4f67 82bf f3ef 953f 7946 f63f
000001d0: b906 b13e 1b7c cfbe 3f47 b3bf 12ad f5bd
000001e0: 49a6 6a3f 3ea4 a63f 5eaa 863e af1a 1fc0
000001f0: 715f 8c3e fee3 50bf 4461 febf 58eb 98be
00000200: 9d26 05c0 a900 883f 3c80 c9be b289 7c3f
00000210: 7def 2ebf 84dd 2cbf ab51 fb3d 9381 1e40
00000220: 0dc9 58bf b9f6 883f 072a d8bf 0724 2cbf
00000230: 3b12 81bf c0cb babe 4352 aebd 6d85 c6bf
00000240: 0f3f 243f 88a6 74bf d620 d63e c93c 68bf
00000250: c418 b1bf 0739 aebf b5ab 213f 1c88 223d
00000260: d2d6 0540 5705 4b3f 22d0 b1bd 0971 86be
00000270: 1dec f13f 3f0b 333f 9edf 2a3f 45b6 99bf
00000280: 4fc0 743e 34eb d8be 169f 773f 08e4 903d
00000290: 0c10 ba3f 579d 823f 259b f43f e11d 4b3e
000002a0: 4915 b73e c9ed fc3e b51c 46bf 88e7 cfbf
000002b0: 4d3a 4c3f 84f4 003f 84eb f83e fe94 383d
000002c0: 7972 f53f fa83 c53e 9440 d73e a149 87bf
000002d0: 1aa0 433f 551a 7ebf 0f5b 7dbf 4441 37bf
000002e0: b810 4b3f 0932 873f 8e0a 85bf c885 d7be
000002f0: dca8 133e 83b2 b8bf 0380 8f3e 87cc e93f
00000300: 0b58 3e3f cb5a b6be 16b5 6a3f 82e3 623c
00000310: 9fff 28bf 0dc7 d5bd 8ece 34bf 5eb2 0e3f
00000320: a469 1a40 c968 c8be cd37 a4bf c954 643f
00000330: 3986 adbf ea3d 9dbe 3878 c2be 6b37 a93f
00000340: 5c3d 62bf adb3 773c 2c66 913f ccbe afbe
00000350: 2bb8 5dbf 4d9c 083f 3b46 11bf c606 823f
00000360: 6fb1 5b3e f9f1 89bf 534e 8cbe 1422 b73e
00000370: 066c ea3f b8e2 a2bf 7c5a 3e3f 6710 99bf
00000380: 964c 653f 66bc de3e 7216 1c40 ac12 653f
00000390: 65f0 a3bd 00df be3f a62e 9c3e 6873 853d
000003a0: 2ef7 42bf e0d9 27bf 4cd3 31be 03b4 133f
000003b0: a676 03c0 c78c f03e cbf9 3f3d 32cb a73f
000003c0: eb01 0bbf dfd9 c0bf 9bb7 2f3e dd9c 523e
000003d0: f0c2 36be 0c59 a43f 9d51 063d dd5e 9dbf
000003e0: 42a1 51bf ccf2 4a3d 70fd 2bbf ced4 653f
000003f0: 7189 c2be 3aa1 52bf 5f42 99bf 173f 043e
-1.5938314 -0.5326474 0.5148812 0.04310938 1.5096453 -0.2980364 -0.6451747 0.11678097
0.61178905 0.3287498 -1.1270106 0.09704063 0.9829853 1.0085804 1.394202 -0.25803345
0.3484055 1.8209859 2.3247135 1.4185693 -0.481153 -2.228819 0.23016025 0.14249721
0.2909725 1.3792714 0.124157 1.6343659 -0.8159431 -0.2436517 -1.3836974 -1.668516
-0.7542203 1.5528206 1.1271962 1.4133075 -0.50993115 0.0902646 -0.024835821 -1.3349571
-0.8390665 0.13720651 1.9072626 0.9862463 0.044454727 -0.3209262 0.2600855 1.5044364
-1.3832389 -0.066267364 -0.9998672 0.1228472 -0.7072267 1.2435349 0.8580595 -1.168046
-0.17713034 1.8095343 -0.629904 -1.1343491 -1.1649411 -0.74837005 -0.63551164 0.55146414
1.3171873 -1.746005 -0.06961175 0.23193048 0.19958021 0.3283289 -0.74247015 -0.3530484
-0.111232705 -0.057323292 -0.7292927 -0.82622373 0.04215269 0.58569956 0.8525851 -0.07829518
-0.564413 -0.11077651 -0.9513294 0.23545347 0.09809462 0.658426 -0.2704947 0.949349
0.027106632 0.43347344 0.7020128 1.3616296 -0.32670808 1.3115921 0.744183 0.65166825
1.7893401 -0.009693192 -0.4612482 -0.04049305 -1.4468088 -0.12732637 -1.9455953 -0.55456424
0.6482047 0.68551624 0.43291372 0.5948429 -0.3623313 0.6661488 -0.700985 0.7933812
0.10520199 -1.0187777 1.1713852 1.9240257 0.3457544 -0.40524372 -1.4006118 -0.11995901
0.9165998 1.3018873 0.26301855 -2.4860036 0.27416566 -0.8159789 -1.9873433 -0.29867053
-2.0804818 1.0625201 -0.39355648 0.98647606 -0.6833418 -0.67525506 0.12271436 2.4766586
-0.8468178 1.0700294 -1.6887826 -0.67242473 -1.0083688 -0.36483574 -0.08511784 -1.5509468
0.6415872 -0.95566607 0.41821927 -0.9071775 -1.3835683 -1.3611153 0.6315263 0.039680585
2.0912366 0.7930502 -0.08682276 -0.26258114 1.8900181 0.69939035 0.6674746 -1.2008749
0.23901485 -0.42366946 0.9672712 0.070747435 1.4536147 1.0204266 1.9109846 0.19835617
0.35758427 0.49400166 -0.77387553 -1.6242533 0.7977646 0.503731 0.48617184 0.045063965
1.9175559 0.38577253 0.42041457 -1.0569345 0.7641617 -0.9925893 -0.9896707 -0.7158396
0.79322386 1.0562145 -1.0393846 -0.42094254 0.14419883 -1.4429477 0.28027353 1.8265542
0.7435309 -0.35616145 0.91682565 0.013848187 -0.66015047 -0.104383565 -0.7062768 0.55740917
2.4126978 -0.39142445 -1.2829529 0.8919187 -1.3556587 -0.307113 -0.37982345 1.3220037
-0.88374877 0.015118522 1.1359305 -0.34325254 -0.86609143 0.53363496 -0.5674779 1.0158317
0.21454404 -1.0776969 -0.27403507 0.35768187 1.8314216 -1.2725439 0.7435682 -1.1958131
0.89569986 0.43503112 2.43887 0.89481616 -0.08004836 1.4911804 0.3050434 0.065161526
-0.76158416 -0.65566826 -0.1736576 0.5769655 -2.0541167 0.46982405 0.04686908 1.3108885
-0.542998 -1.5066489 0.17159884 0.20567651 -0.178478 1.2839675 0.032792676 -1.2294575
-0.81886685 0.049547955 -0.6718359 0.8977784 -0.37995484 -0.8227726 -1.197338 0.12914692

weight_ih_l0 f4 [384, 32]
00000000: fe6d 00bd 8694 833d 9250 64bd 163f b0bd
00000010: c233 e3bc 8978 693d 0c23 953c 5cb4 83bd
00000020: 6ee1 3c3d bab3 2dbc e78d 453c 6494 35bc
00000030: 8faf a2bd a339 073d 6c1b 92bd eb9e 92bc
00000040: 1d86 803d f94a d4bd 7208 f93c d4a0 c7bc
00000050: bb51 993d 9303 eabc 8774 073d e99b f03c
00000060: c973 77bd 14d6 483d ed36 5cbd 3932 fe3c
00000070: daae 82bd 6a95 afbd e965 b4bb 730d af3d
00000080: 0925 15bd 91d1 e33b 24ba 093c 9501 8f3d
00000090: 3fab 19bb b162 643d 23b7 fdbc 8db0 843b
000000a0: d714 52bc 674b 63bc b43a c53d aac7 19bd
000000b0: c813 d83c 54fe 463d 9d84 49bd f099 55bd
000000c0: fe59 af3c ecc2 f73c e11f 18bc 16ef dabc
000000d0: cab5 f2bc 885d 583d 7976 153b 6c1e 9f3d
000000e0: 76b1 423d c31a b53b 1443 33bb 8ae1 87bd
000000f0: aa90 a83d 1da8 29bb c20a d33c 20b4 9dbd
00000100: 3f75 2a3d 6a3d dcbb 3b15 453d adfc 29bd
00000110: 6fb1 9fbd 0bd7 20ba 9be0 573d 1971 723d
00000120: 8226 6dbd aa59 7bbd d60e b23d 751b 27bc
00000130: 0908 983d 874e 82bd db2d a73b 60c9 d7bb
00000140: 8dfa 523d df2a 533d 0c1d bb3c bd76 88bd
00000150: c2f4 523c 28fd f0bc f7e9 a23d 37a6 f03b
00000160: 9431 abbc ae85 163d 7231 9c3c 262b 50bc
00000170: 41cd 9f3d 2f85 973d 1eae 833d 9632 f53b
00000180: 8adc 8d3c 98fa 8fbc a944 a1ba b5d3 0dba
00000190: f611 e2bc c355 8dbc c225 883d 1ba1 ccbc
000001a0: a638 87bd 7af1 9a3d 7a9f 96bc 2fd3 4abd
000001b0: 4d86 2ebd c49b 12bd 6bf3 d4bc 2316 91bd
000001c0: bf2b fdbc 505f 983d 0827 83bd 667c 463d
000001d0: a690 88bd c993 cb3b 28ea 8c3d c9ae 693d
000001e0: ebfb 9a3d f1a3 6abd c451 aebd c387 923d
000001f0: b6e8 19bd 7e2d b6bd 8555 89bd d138 65bd
00000200: b4dd 343d 2761 233d 565c e8bc 2255 87bd
00000210: 4b63 b8bd e3b0 a9bd c2ac a0bb 33ba d6bc
00000220: ef98 2a3d 52c7 d4bc 9473 3abd 2dad d1bc
00000230: d1dc 74bb 6192 0ebb 9d8d 983d 85c3 573c
00000240: 0c04 8e3b 0af3 1abd 1b76 5c3d 3db4 a53c
00000250: abac c7bd 8e45 1dbd bc4c 36bd 7d8a 8ebc
00000260: 7a45 29bd 2be7 cdbc 5fdb 9b3d 8b22 393c
00000270: 3cab af3d 5647 42bd f3d9 09bd 01db de3c
00000280: 7f46 4cbc 448f 2bbd 0535 253b f98e f1bb
00000290: 512d 34bd 60b5 75bd 60d2 1abc 2132 87bd
000002a0: 735d e73c c499 86bd 59b1 283d 6cb0 283c
000002b0: 7137 8c3d 8539 64bd 317b 55bd 4776 86bc
000002c0: cb15 17bc 2774 833d e330 2dbd 50ae 54bd
000002d0: 8026 173d 820c b2bd 7aba d0bb 127b b43c
000002e0: ec4a 2f3c 0bd6 f2bc 54de 423b 9ad8 e3bc
000002f0: 21c9 943c bb96 323d b603 633d 2b27 42bd
00000300: 1d69 77bd b9cc 7f3d f51f a43d 0295 62bd
00000310: 3065 7a3d 3f92 7b3b 9006 08bd 46eb 03bd
00000320: 3aac e63c 2846 a8bd a238 e33c 7ad4 a93c
00000330: 6eca 8dbd 4204 9e3d 3375 a1bd 9724 18bd
00000340: c826 9abc c247 583d 9954 083d 1392 9f3d
00000350: 935e 183d cb4e 673c 8c46 453d ae81 ae3d
00000360: 4a9f 88bd afb6 903c 1e5f 79bc f13a 243d
00000370: 2fd9 273b 95b0 dc3c 55ad 0cbd 74e4 2f3d
00000380: 50ca 9dbd 5870 8b3d 7c7b fc3b 45fb 903d
00000390: 4f04 ad3c 2b0b aa3d 30c1 77bc d73e 37bd
000003a0: 48e8 e5bc ba78 02bd b2e1 85bc 091d 25bc
000003b0: db07 973c 5234 053c 4d7a 883d 426f be3c
000003c0: b707 823d 80b5 803d ed3b b2bd 7450 a33d
000003d0: 305c 223b 4a9e 24bd 235d ad3c 0b93 85bd
000003e0: a142 5cbd e87b 1fbd 3da9 51bd 66eb 87bc
000003f0: 83c0 003d 5d08 3bbb 4b99 003d 1c77 5dbd
-0.031354897 0.06424813 -0.0557409 -0.08605783 -0.027734641 0.056999717 0.018205188 -0.06430885
0.046113424 -0.010601932 0.012057758 -0.011082742 -0.079436414 0.03301395 -0.071341366 -0.017898044
0.0627558 -0.103658624 0.030399535 -0.024368681 0.07486292 -0.028566157 0.033070114 0.029371219
-0.060413156 0.049032286 -0.05376332 0.031029807 -0.063810065 -0.0857342 -0.0055053127 0.08547487
-0.036412273 0.0069524725 0.008406196 0.069827236 -0.0023448018 0.055758182 -0.030971115 0.004049367
-0.012822351 -0.013872958 0.09630337 -0.03754393 0.02637662 0.04858239 -0.049198736 -0.05214876
0.021405216 0.030244313 -0.009284944 -0.026725333 -0.0296277 0.052823573 0.002280621 0.077694744
0.04753252 0.005526872 -0.0027353214 -0.06634815 0.082307175 -0.0025887557 0.025761966 -0.07700372
0.04161572 -0.0067211883 0.04811595 -0.041500736 -0.07797515 -0.00061355595 0.052704435 0.05918989
-0.057898052 -0.061364807 0.08694236 -0.010199417 0.074234076 -0.06362634 0.005101902 -0.006585285
0.051508475 0.051554557 0.022840999 -0.066632725 0.012875738 -0.02941759 0.079547815 0.007344033
-0.020897664 0.03674858 0.019066546 -0.0127056 0.07802821 0.0739845 0.064296946 0.007482837
0.017317075 -0.017575547 -0.0012303788 -0.000541027 -0.027596455 -0.017252808 0.06647827 -0.024979165
-0.06602602 0.07565589 -0.018386591 -0.049517807 -0.042608548 -0.03579308 -0.025994977 -0.070843
-0.030904649 0.074400544 -0.06403929 0.04845848 -0.066682145 0.0062126857 0.06880599 0.057051454
0.07567581 -0.057285253 -0.08511689 0.07154801 -0.037575446 -0.08895396 -0.06705765 -0.055962387
0.044156745 0.039887574 -0.028364342 -0.06608035 -0.09003314 -0.082856916 -0.004903407 -0.026211834
0.041649755 -0.02597395 -0.04552038 -0.025595272 -0.0037363062 -0.002175473 0.074488856 0.013169174
0.0043339785 -0.037829436 0.05382357 0.020227546 -0.09749731 -0.03839641 -0.044506773 -0.01740002
-0.041326024 -0.025134644 0.07610201 0.01129974 0.08577582 -0.047431313 -0.03365512 0.027204039
-0.012467979 -0.041884676 0.0025208604 -0.00737178 -0.04398853 -0.059987426 -0.009449571 -0.06601358
0.028242802 -0.06572297 0.041184757 0.0102959685 0.06846512 -0.055718917 -0.052119438 -0.01641382
-0.009221504 0.06418639 -0.04228295 -0.05192405 0.03690195 -0.08693792 -0.006369886 0.02203134
0.010699015 -0.02964308 0.0029734569 -0.027813245 0.018162312 0.04360078 0.05542346 -0.047400635
-0.06040298 0.062451098 0.08013908 -0.055317886 0.061131656 0.003838673 -0.033209383 -0.032206796
0.028158296 -0.08216506 0.027736966 0.0207312 -0.06923376 0.07715656 -0.07883682 -0.03714427
-0.01881732 0.05280281 0.033283804 0.07791533 0.037199568 0.014117907 0.048162982 0.08520828
-0.06671007 0.017665235 -0.015220432 0.040095273 0.002561163 0.02693967 -0.03434499 0.04294248
-0.07704604 0.06808537 0.00770515 0.07079176 0.021120219 0.08302911 -0.015121743 -0.044737663
-0.028064862 -0.031853415 -0.016342971 -0.010077723 0.018436363 0.00813015 0.06663952 0.023246411
0.06349128 0.062846184 -0.08702836 0.079743296 0.0024774186 -0.04019002 0.021162575 -0.06522187
-0.05377448 -0.038936526 -0.05118679 -0.016591739 0.031433593 -0.002853892 0.03139619 -0.05406867

weight_hh_l0 f4 [384, 128]
00000000: cd4a bc3d 3545 42bd 9049 463d 1747 6a3d
00000010: 530e 343d 9bea 11bd b621 993d a052 92bd
00000020: 6a91 7b3d 7def 2b3d 10ed efbb 3004 883c
00000030: e848 923d 52e2 6b3d 8df6 4dbd 73ae a2bd
00000040: 6bff 4a3c 3669 0fbd a987 afbc 2d56 27bd
00000050: f3d4 103d 38ea 383c cd82 7c3c 31e4 a53d
00000060: 2d27 80bc 5e0e a93d 4d41 2bbc 3c5e 993d
00000070: 86ec 913a d862 5ebd 441e 01bd 4660 1d3d
00000080: 449a b23b 8b02 adbc 5628 823c 434a a2bb
00000090: b6e1 d53a 5c82 8fbb 6a0d 783d 25db afbd
000000a0: c5b2 9b3d 160a c7bc f770 adbc 7057 973d
000000b0: 43de 87bd 68ae b7bc 255a 833c 426c 82bd
000000c0: c3dc 93bd 360a 283d 8d6f 89bd 4dbd 403d
000000d0: 4b43 fa3b 635a 8e3d 5c13 af3d ffb7 b5bd
000000e0: 34aa 81bd bc29 833d dcbe 643d d2b5 cf3c
000000f0: 4427 52bd 4b3c 4dbd e125 f6bc 750e 8ebd
00000100: 5f6f 403d 631b 3b3d 8fa2 82bd bd9f 9e3d
00000110: d9f3 29bb 0084 89bd b110 59bd e291 553d
00000120: d253 0e3d 9b86 2cbd 2a80 1b3d 77d8 dc3c
00000130: d989 7ebd 5ca0 803d 10b4 a3bd 11d3 983d
00000140: 0c92 54bc b998 95bd 159a ba3d 3fa1 75bd
00000150: 552b 64bc d359 993d 3832 9ebc 5bb4 c73c
00000160: bba5 383d 8c15 b03d 94b1 733d 1f1b 71bd
00000170: 0dbf 1bbd 12c1 97bd 9647 b73b 037f 5ebd
00000180: f076 8dbc d3ce a2bd 018e 62bd b206 333b
00000190: 9c96 6abd e3cd f03c 5c40 483d ccd3 2d3d
000001a0: 95fc 78bb c4ce 6bbd cf27 73bc 5e26 503d
000001b0: 45c0 343d 5db7 4fbd bb08 a13d 970a abbd
000001c0: 0f30 6cbd a343 9c3d 4bc9 9b3d 91a1 a0bd
000001d0: 9c01 0bbd 406e 653d 1cd0 4c3c f981 e8bb
000001e0: d0b1 74bd 828c 2b3d 8abd 8d3d 6e4a 76bd
000001f0: 0114 7c3d aaa6 a33d 9751 a53d aa73 8bbd
00000200: 8338 58bc 8071 3cbd a8b5 873d d759 863d
00000210: 4d0c 9b3d 3014 7dbd 37db 53bd dbc8 a0bd
00000220: 4a87 773d afd2 e53c eadf 0fbd 1d13 7c3d
00000230: ecf3 c53d 3e96 acbd 5a4f a2bd c180 35bd
00000240: 05f0 3bbc 4571 c5bc 2812 883d cc86 2dbb
00000250: 6063 86bd 647c b0bd e858 d73c e93e 39bd
00000260: cefb 1f3d fc76 943d f0bc 623d 5ff6 8abd
00000270: ce2f eb3c fc30 83bc 83e4 b73c 7ea4 483d
00000280: 77bd 393c 46bc 9bbd 7068 88bd f0e6 8abd
00000290: b3a4 9abd b812 993d 1599 b1bd c929 4abd
000002a0: c745 b43d 8572 b1bc 4706 7b3c 6a14 d43c
000002b0: b8fc 19bc 7386 283c 3ff0 003d 35ef d13c
000002c0: bcdd 793d f4b1 e9bc f3c0 493c 5f8a 733d
000002d0: c407 8f3d c4d0 f9bc 1e2a 9dbd 9bf3 ce3b
000002e0: 690f bebd aaa5 a1bd ef14 833d ec95 30bc
000002f0: 39e8 b33d 9138 9dbd c01d 99bc dbde a73d
00000300: f758 83bd eee0 5f3c fe5a 22bd d3e2 aabd
00000310: 7edc 853d 3713 a3bd b398 3fbd 328c c33d
00000320: 012f 3c3d f259 07bc 0092 90bd c01c 143d
00000330: 30a8 523d a022 99bd eba6 a1bc 36b3 58bd
00000340: 99a3 c13d f6e2 b9bc 5eb5 ecbc 1360 e6bc
00000350: a410 da3c 5779 88bd adf3 283d e921 093d
00000360: fdd8 463c 45b6 ac3c bfbf 86bd 3ae7 4ebd
00000370: 6e90 b4bd 40e1 b13d 8798 2c3d 1d36 7abd
00000380: bd9a 3c3d f138 bb3d 8b4f 3a3d 9ba8 8bbd
00000390: 43c4 113d db0f 0b3d ae2d 16bc 2375 5dbd
000003a0: 92e4 e43c 5e1a 8cbc 2347 4abd 2a9e 8d3d
000003b0: 22d6 3ebd d4fe 07bd aa66 5ebd 052e 86bd
000003c0: e8db 8dbd ccdc a43c 9349 6bbd 438c 1ebd
000003d0: 1b6b 90bd febd 6e3d c4b7 a53d be5b 56bc
000003e0: 8527 833d cdd8 f2bc cf9e 13bd 4347 8db9
000003f0: f2ef 9d3d a975 6b3c 4ce7 71bd bbb2 233d
0.091939546 -0.047429282 0.04841 0.057196703 0.043958973 -0.035624128 0.07477133 -0.07144666
0.061417975 0.04197644 -0.007321961 0.01660356 0.07142812 0.057588883 -0.050283957 -0.0794343
0.012389998 -0.035012446 -0.021426992 -0.040853668 0.035359334 0.011286311 0.015412045 0.08100165
-0.01564368 0.082546934 -0.010452581 0.07488677 0.0011133112 -0.054293483 -0.031523004 0.03842189
0.005450519 -0.021119377 0.015888374 -0.0049527003 0.0016317877 -0.0043795537 0.060559668 -0.085867204
0.07602457 -0.024296802 -0.02117203 0.07389724 -0.0663419 -0.02242203 0.016034195 -0.06368305
-0.07219841 0.041025363 -0.0671073 0.04705553 0.0076374165 0.06950834 0.085486144 -0.08872985
-0.06331292 0.064044446 0.05584608 0.025355253 -0.051306978 -0.050106328 -0.030047359 -0.06936351
0.04698121 0.045680415 -0.06378662 0.077453114 -0.0025932698 -0.0671463 -0.052994434 0.052141078
0.034747906 -0.042120557 0.037964024 0.026958687 -0.06214318 0.06280586 -0.079933286 0.07462133
-0.012974273 -0.0730452 0.0911142 -0.05996823 -0.013926347 0.07487836 -0.019311056 0.024377992
0.045079928 0.0859786 0.059495524 -0.058863755 -0.038023997 -0.07409872 0.0055932505 -0.054320347
-0.017268628 -0.07949605 -0.055311207 0.0027317223 -0.05727254 0.02939505 0.048889503 0.042438313
-0.0037992347 -0.057570234 -0.014841034 0.05081784 0.044128675 -0.05071198 0.07862993 -0.08351629
-0.05766302 0.07630088 0.07606753 -0.07843316 -0.03393708 0.056013346 0.012500789 -0.007095572
-0.059739888 0.041882046 0.06920917 -0.060129575 0.061542515 0.07990773 0.08072203 -0.068091705
-0.013197067 -0.04600668 0.06626445 0.06560104 0.075707056 -0.06178683 -0.05172273 -0.0785081
0.060431756 0.028054563 -0.03512565 0.061541665 0.09665665 -0.08427094 -0.07925291 -0.044312242
-0.011470799 -0.024101863 0.06644088 -0.002647805 -0.06561923 -0.08617476 0.026287511 -0.04522601
0.0390585 0.07249257 0.055355966 -0.06785273 0.028709318 -0.016014569 0.02244783 0.048984997
0.011336676 -0.0760427 -0.06660545 -0.06782329 -0.07550945 0.074742734 -0.08671776 -0.049356256
0.088023715 -0.021661052 0.015321321 0.02588864 -0.009398632 0.010285961 0.031479117 0.025626758
0.061002478 -0.028527237 0.012314069 0.059458133 0.06983903 -0.030495055 -0.07674049 0.006315661
-0.09280283 -0.07892926 0.06400477 -0.010777932 0.08784527 -0.07676805 -0.018690944 0.08196803
-0.06413453 0.013664467 -0.03963756 -0.083440445 0.06536196 -0.07962649 -0.046776485 0.095482245
0.045943264 -0.008261191 -0.07059097 0.03616023 0.051429927 -0.07477307 -0.019732913 -0.052905284
0.09455032 -0.022691231 -0.028895076 -0.028121984 0.026619263 -0.06663769 0.041248012 0.033479605
0.012136695 0.021083007 -0.065795414 -0.050513484 -0.0881661 0.08685541 0.04213765 -0.061086763
0.046046007 0.0914172 0.045486014 -0.06819268 0.03558756 0.033950668 -0.009166164 -0.05406679
0.027941022 -0.017102417 -0.049384248 0.06914933 -0.04659093 -0.033202007 -0.054297127 -0.06551746
-0.069267094 0.020124815 -0.057443213 -0.038707983 -0.07051679 0.05828666 0.08091691 -0.0130833965
0.06404022 -0.029644394 -0.036040124 -0.0002694671 0.077117816 0.014371314 -0.059058473 0.039965373

bias_ih_l0 f4 [384]
00000000: a884 33bd 2f19 9a3d df72 353d 374b 813c
00000010: 0538 043c d143 853d 6918 70bd 7372 133d
00000020: 97da 38bd 4519 393d 7611 6abd a6d6 913d
00000030: 914c 4d3d e99e 813c a7ef 613d b40f 553d
00000040: 8d23 c5bd 3ff2 683d 2c18 a8bd 8a54 83bc
00000050: 77c4 2d3c 08c7 6f3b acb1 873d 8457 6d3d
00000060: cdb9 85bd ed4f 573c e73b aebd ed34 9a3d
00000070: 9d77 173d d45d 613d 22ac 6b3b 4dcf 7dbc
00000080: 1287 03bc 8320 4b3d 4b4c 55bd 54f9 91bd
00000090: c5f6 9dbd ee16 943d 3e50 30ba eebc ff3c
000000a0: d7c2 e43c 04a6 1dbd 4e25 5bbd 9397 613d
000000b0: ba65 56bd 403f babd 6ec9 73bc 9dd3 0cbd
000000c0: 552c a1bc 1332 ebbc b789 85bc cf8d 1f3b
000000d0: 27e7 813d b875 6ebd db16 a3bc 432b 28bd
000000e0: b8ca 1b3d 7f15 8c3d dd56 733c f72f e63c
000000f0: 100b 45bd 6bfe 4dbd a014 8b3d 2c4c 683d
00000100: a5c9 50bd 1c7c 0dbd 25c2 4abd e493 66bd
00000110: 3942 4ebd bb79 6d3c 4f42 c83c 2f08 21bd
00000120: 8ba7 67bd 3512 9c3d 58d2 b93c 0f51 5f3d
00000130: ab3d 363d eb60 443a 59fa af3c 6d6f 97bc
00000140: 7313 bdbd 2113 abbd 5755 a3bd 3205 343c
00000150: 3ab1 5c3c 5237 c5bc f83c 0a3d 93c6 99bd
00000160: 7501 db3c dd4f 1abc bd92 bebd 7f46 75bc
00000170: 8642 4ebc f919 463d 7041 98bd c1ba 71bd
00000180: b372 3abd 4732 b23d ec96 da3c df48 3bbd
00000190: 08f9 ee3c 4ac4 f7bc 8346 debc 7a59 593c
000001a0: 0c38 37bd 9b3f 513d 4f36 283d e5e4 b3bd
000001b0: f640 acbc 33a2 963c efb9 33bd 6d0b b63d
000001c0: 434e 553d 9978 fa39 07dd 24bd 13d1 c13c
000001d0: 61f2 9d3d b26f b5ba 9d63 97bd f03b 33bd
000001e0: b14a 91bd 91f2 0a3d e8d8 573d 1eb3 233d
000001f0: e8ab 9c3d c876 96bc a2d1 3b3d 7225 3c3d
00000200: bd1e 68bd 2929 42bd c94a 6cbb a449 d63c
00000210: e3be fa3c 644f 803d ef41 0c3d c317 96bd
00000220: 1c84 713c 6ad2 88bb 4b7a 8ebd ae1f d53c
00000230: 85d3 7cbd be58 91bd b306 c1bd e637 6f3c
00000240: 5a9a 113b c7d8 9e3d 81aa 133c 2087 ddbc
00000250: c792 2b3d 7641 6abd 6246 f7bc 57de f7bc
00000260: fd2d 98bd 4697 5c3d e8bc 563d c56b 95bd
00000270: 7300 4a3d c6c3 96bc fe77 1fbd b53e 943d
00000280: 1967 b73c c17a feb8 82a4 8a3d 56c1 97bd
00000290: 6162 2f3d 77f2 3b3d c3cb 813d 815b 87bd
000002a0: 51d0 5c3c 3999 693c ca1e a6b9 03ed abbd
000002b0: 986a 393c aec4 90bd c84e e83c 6dfe 593d
000002c0: e4d5 c33c 5720 4abd 7307 efbc 748e 99bd
000002d0: 2f0b 863d b53b 6d3d 2c1f e83c 403a 32bd
000002e0: a731 d83d 00b8 89bd 2f34 cc3c 15d8 a43d
000002f0: 3544 45bd e790 67bd 91a7 b53d 2d00 76bd
00000300: d158 7cbd ed3f b5bd 0782 fe3b 2ab5 cfbc
00000310: de79 f5bc 3dcb 163d 9509 633c c15f 973d
00000320: 0410 a4bc a4c1 253d fd63 afbc e940 873d
00000330: 4923 f03c 6005 973c c13d c83b a8d3 153c
00000340: 79ff 35bd e5f8 d3ba 9256 64bd 88e1 9f3d
00000350: 4d04 a8bb 2361 b43d 6779 cc3c 2381 09bd
00000360: 53be a3bc 1b81 7e3d e3f4 d03c 6fff d0bc
00000370: c2b1 623d fe27 923d afc1 afbd dc31 483d
00000380: f1b9 8dbd 1a6a b43d 6074 243d 88e6 9f3c
00000390: 8d31 8dbd e768 b53d 4cbb 2b3d ffcd 473d
000003a0: 7173 663a 2bb4 2cbd 5743 573d a669 833c
000003b0: 3bb9 943d 99c2 5fbc 2104 273c 6c09 b3bb
000003c0: 87a5 87bd 9944 803a fd11 27bd 545d c43d
000003d0: 5691 c83d e89e aabd 4721 c13c 0f34 bb3d
000003e0: 6cdf 14bd a9b2 f73c 2e8b 53bd 3826 a63c
000003f0: 1f82 9bbd 3332 803d 69b7 17bd 66d4 703d
-0.043827683 0.07524335 0.044299003 0.015782936 0.008069997 0.065070756 -0.05861703 0.03599782
-0.04513034 0.045190115 -0.05714556 0.07121019 0.050121848 0.015822845 0.05516019 0.05201693
-0.096259214 0.05687165 -0.082077354 -0.016031522 0.010605923 0.0036587138 0.06625685 0.05794479
-0.06529579 0.013141614 -0.08507519 0.07529626 0.036979306 0.055021122 0.0035960753 -0.015491319
-0.008027809 0.049591552 -0.05207471 -0.07127634 -0.07713083 0.07230936 -0.0006725824 0.031218018
0.027924938 -0.038488403 -0.053502373 0.055076193 -0.052343108 -0.09094095 -0.014879568 -0.034381498
-0.01967446 -0.0287104 -0.01630102 0.0024346 0.06342917 -0.058217734 -0.01990836 -0.041056883
0.038035125 0.068400376 0.014852253 0.028099043 -0.048106253 -0.05029146 0.06791043 0.05671327
-0.050973553 -0.034542188 -0.049501557 -0.056293383 -0.050356124 0.014494355 0.02444568 -0.039314445
-0.056556266 0.0762066 0.022683308 0.054520663 0.044492405 0.00074912485 0.02148168 -0.01848575
-0.09232225 -0.08353258 -0.07975262 0.010987567 0.0134699885 -0.02407423 0.03374955 -0.07508578
0.026734093 -0.009418455 -0.09305332 -0.014970421 -0.012589103 0.048364613 -0.07434356 -0.059015993
-0.045519542 0.08700996 0.026683293 -0.045723792 0.029171482 -0.030244965 -0.027133232 0.013265962
-0.044731185 0.05108605 0.041067418 -0.087838925 -0.02102707 0.01838789 -0.043878492 0.08888898
0.05207659 0.00047773568 -0.04024985 0.023659265 0.07712246 -0.0013842492 -0.073920466 -0.043758333
-0.070943244 0.033922736 0.052697092 0.03996574 0.07649976 -0.018367186 0.04585422 0.045934148
-0.05666994 -0.047402535 -0.0036055318 0.026158161 0.0306086 0.062651426 0.034242567 -0.07328751
0.01474097 -0.004175474 -0.06956919 0.026016083 -0.06172516 -0.07097004 -0.09425106 0.01460073
0.0022217245 0.07756191 0.009012819 -0.027041972 0.041888025 -0.057191335 -0.030184928 -0.030257387
-0.074306466 0.053855203 0.05242625 -0.07295946 0.049316835 -0.018403899 -0.038932793 0.07238523
0.022388028 -0.000121345285 0.067696586 -0.07409923 0.04281843 0.04588553 0.063376926 -0.0660925
0.013477401 0.0142577225 -0.00031684927 -0.08394816 0.011316918 -0.07068764 0.028357878 0.053221155
0.023905702 -0.049347248 -0.029178357 -0.07497874 0.06545102 0.05791827 0.028335176 -0.043512583
0.105563454 -0.06724548 0.024927227 0.08049027 -0.04816075 -0.056534674 0.088698514 -0.06005876
-0.06160814 -0.088500835 0.0077669653 -0.02535494 -0.029965337 0.036814917 0.013857265 0.073913105
-0.020027168 0.040467873 -0.021409983 0.066041775 0.0293137 0.01843518 0.0061108773 0.009144701
-0.04443309 -0.0016172199 -0.055746622 0.078066885 -0.005127466 0.0880759 0.024960233 -0.03357042
-0.019988215 0.062134843 0.025507396 -0.025512425 0.055345304 0.07136534 -0.08581864 0.048875675
-0.06920231 0.088093 0.040150046 0.019519106 -0.06894217 0.08857899 0.041926667 0.048780438
0.0008791006 -0.04216401 0.052554455 0.016041588 0.072618924 -0.013657236 0.0101938555 -0.0054637697
-0.06623369 0.0009786069 -0.04078864 0.095881134 0.09793346 -0.0833109 0.023575438 0.09140789
-0.036345884 0.030236559 -0.051646404 0.020281896 -0.07593178 0.06259575 -0.037040148 0.05879631
