storage/GridCity/model.pt (torch_old, 630059 bytes, 16 tensors)

weight_ih f4 [300, 75]
00000000: 94bf 2f3e 050a c1bc a62f d53d 9719 813d
00000010: 6bd5 61bd b26f 003e ab63 453b 7800 053e
00000020: a4c2 e2ba ce42 c13c 3b8c ad3d 877f b93c
00000030: cb98 413e c112 1a3d 59d6 82bb 6659 c7bc
00000040: 800a d2bc 9c5b d2bc 955d 753d 662c 273c
00000050: d2d2 18bd f458 b8bc 6868 6b3d f522 333c
00000060: 8cc4 933d 3939 eb3d 8b99 323e 1c2b 853e
00000070: 323b 1cbd 9a94 0f3e 588e 063e 5eb5 963d
00000080: a9ad 503e b7fa 18be cb2a 87bd 7521 2b3d
00000090: 8d99 dc3d f830 b0bc 33ba d03d daca 5bbd
000000a0: 88ba 423e ce70 8e3d 4fa0 2c3e 8fe8 1dbc
000000b0: 20a8 003e 7072 693d 7962 6cbc 0263 813e
000000c0: 806b 9d3d 1f47 023e 1821 86bd cb20 84bd
000000d0: 3214 95bd e885 043e 688c eb3d 5164 1abe
000000e0: 81f8 403d 6844 423d d2e6 133e 4491 47bd
000000f0: c655 8ebd 2e41 eb3d ae91 8f3d 807f c53c
00000100: 0990 84bd abf7 b0bd bd1c 13be af79 d43b
00000110: b5d1 b6be d07f 04be 1275 7c3c 5dd0 923d
00000120: 0e1c c93d a3f9 28be b44b 1b3d 4aee 26bd
00000130: 161e b33c 649a 083d 1277 f0bd e0ef 0d3e
00000140: 0ed0 31bd 3ee1 8ebd 57f9 89bc 05c3 0ebc
00000150: 1c26 283e e143 dfbd 37f4 dfbd 27b7 353d
00000160: 43fa 243b 83a2 9c3d c22c 1fbd 7664 4cbe
00000170: a572 fdbd bec2 53bd 7d76 5cbe b0ea 4ebe
00000180: a03a 3dbd f5f9 4bbd 70a4 ccbc 17c4 c2bd
00000190: 6645 9dbd c004 e8bd d8b3 793d 11d0 993d
000001a0: 206e bcbd 575e 7cbe 5e44 863c 9ec6 d0bd
000001b0: 24ed 013d 1815 3cbe 678d 7cbc b76f 973d
000001c0: 13d3 653d 172d e9ba 9089 6c3c 8d05 d53c
000001d0: 9adf e43d abfe 353e f2fc 403d d44b a53c
000001e0: af35 07be a7fe 68bd 44a3 413e 2179 a43c
000001f0: 7c17 0b3e e354 79be e1d5 5abe 8f08 f53b
00000200: 2d1c 123e 688b db3d ec92 13be fe7f 2ebd
00000210: e8f4 203d 937e 0c3e c9d9 9f3c 67af cd3d
00000220: d1bc 613d 9854 f43c 221b 4f3d 9d96 c6bd
00000230: 436e fdbd 10eb 59be 7dba acbe c405 49bd
00000240: 1bdc f8bd 7db7 d8bc 7da3 6c3e e3a0 b0bb
00000250: d259 0f3e fc41 9f3d 871c 683c 7769 3a3e
00000260: f579 043e 8805 023e 20d0 063c 32a2 64bd
00000270: c0e5 80bd c443 8abc e55b 383e 95bc 43bd
00000280: 9a22 d2bd 6c99 d13d 27f3 2b3e e050 563e
00000290: d5aa 113d e5aa 56bd 605a b0bd 8f39 44bd
000002a0: a589 2cbd de46 bcbd cb08 8dbd 1a9e b53d
000002b0: 5472 6e3d 0bbf 253e 39c1 0b3e 2abe d73c
000002c0: 3e3a dd3d 2207 a03d 766d 5f3d b312 2e3d
000002d0: f189 49bc 1885 69bd 0b47 95bd bc01 60bc
000002e0: ddd2 a8bd 2050 303e 7cb3 9bbd 8e5b 44bc
000002f0: 3631 e53d 5bbd 7fbd 4063 be3d cbfd b13d
00000300: c749 49bc 9bfe b33d 4dd0 7f3c 0810 a4bd
00000310: 5bae 033e ed93 3f3e f7b0 0c3e dfda 36be
00000320: aeb3 7b3d e688 e8bc 9c6f 9b3d 236f 9ebb
00000330: 2c72 8e3d b167 c23c 0fa6 0cbd 0826 f03c
00000340: fe07 5bbc b442 8e3e 3130 5e3d 44e0 7f3d
00000350: d5b8 d4bd f501 f13d 442e ce3d 8663 e93d
00000360: 01cf d13c 3932 d8bc 211a 4cbd 0334 2f3e
00000370: b741 0ebd c52f 043e e4c7 abbc 94f3 69bd
00000380: ec38 673d ec8a c4bc 72c8 453d 5803 483e
00000390: 2c83 4e3e 7e2b 753e 0c19 2c3d 1a1a 4e3d
000003a0: 14ad 5d3e 7e00 c83d ed5d 103e e7cc c73d
000003b0: 198b 3e3c a4f7 073e bcf7 253e d637 2ebd
000003c0: 08b3 88bd d8d0 be3c 3f14 b93d 11d5 933d
000003d0: 163a 84bb fa89 0d3d 4028 d4bd 67bd 68bd
000003e0: bfa0 56bb c813 eb3d 3cae 9a3d f744 6fbd
000003f0: 24b6 26ba d628 e93d d127 17bd 583b aabc
0.17162925 -0.023564348 0.10409479 0.06303709 -0.05513517 0.12542608 0.0030119221 0.1298846
-0.0017300439 0.023591425 0.084740125 0.022643818 0.18905942 0.03761554 -0.0039928374 -0.02433462
-0.025639772 -0.025678448 0.0599037 0.0102034565 -0.03731043 -0.022503354 0.057472616 0.010933627
0.07215223 0.11485524 0.17441384 0.26009452 -0.03814239 0.14021531 0.13140237 0.07358812
0.20378746 -0.1493939 -0.06599959 0.041779954 0.10771475 -0.021507725 0.10191765 -0.05366025
0.19016469 0.069551095 0.16858028 -0.009637966 0.12564135 0.0569939 -0.014427775 0.2527085
0.076865196 0.12722443 -0.06549281 -0.06451567 -0.072792426 0.12941706 0.1150139 -0.1507733
0.04711199 0.04742852 0.1444352 -0.04872252 -0.06949954 0.114870414 0.07010208 0.024108648
-0.06472785 -0.08640989 -0.14366432 0.0064842324 -0.3570687 -0.12939382 0.015408771 0.071686484
0.09819804 -0.16501479 0.037913993 -0.040754594 0.021864932 0.033350363 -0.11741461 0.13861036
-0.043411307 -0.06976555 -0.016842527 -0.0087134885 0.16420788 -0.10901619 -0.10935252 0.04436412
0.0025173582 0.07648184 -0.038861044 -0.19960198 -0.12375382 -0.051699392 -0.21529575 -0.20206714
-0.046198487 -0.049798924 -0.024980754 -0.095100574 -0.07679252 -0.11329031 0.060962528 0.07510389
-0.09200692 -0.24645363 0.016390022 -0.10194133 0.031720296 -0.18367422 -0.015414572 0.07394355
0.0561095 -0.0017789927 0.014437094 0.026003623 0.11175461 0.1777293 0.047116227 0.02017776
-0.13204072 -0.05688348 0.18909937 0.02007729 0.13583177 -0.24348788 -0.21370651 0.007477827
0.1426856 0.10719949 -0.14411515 -0.04260253 0.03929606 0.13720159 0.019513028 0.10043221
0.05511171 0.029825494 0.050562985 -0.09696696 -0.123745464 -0.21281075 -0.3373603 -0.049077764
-0.12151357 -0.026454682 0.23109241 -0.005390273 0.13999107 0.077762574 0.014166958 0.18204294
0.12937148 0.12697423 0.008228332 -0.055818744 -0.06293821 -0.016878016 0.18003805 -0.047787268
-0.10260506 0.10234341 0.16791974 0.20929289 0.03556331 -0.05240907 -0.08610988 -0.047906455
-0.042123456 -0.09193204 -0.06886443 0.08868046 0.0582145 0.16186158 0.13647927 0.026335794
0.108021244 0.078138605 0.05454775 0.0424983 -0.012300954 -0.057011694 -0.07288941 -0.0136722885
-0.08243344 0.17218065 -0.07602593 -0.011984719 0.11191027 -0.062436443 0.09296274 0.08690985
-0.012285656 0.087887965 0.015613628 -0.0801087 0.1285948 0.18708773 0.13739382 -0.1785693
0.061450653 -0.02838559 0.07589647 -0.004835026 0.0695537 0.023731085 -0.034338053 0.02931501
-0.013368605 0.27785265 0.054245178 0.062469736 -0.103868164 0.117679514 0.10067418 0.11395936
0.025611402 -0.026391136 -0.049829606 0.17109685 -0.03473064 0.12908848 -0.020969339 -0.05711706
0.05645077 -0.023992024 0.048286863 0.19532526 0.20167226 0.23942372 0.042016074 0.05031786
0.21648055 0.09765719 0.1409833 0.09755879 0.011629843 0.13278061 0.16207784 -0.042533718
-0.066747725 0.023292944 0.09037065 0.072183736 -0.0040352447 0.034555413 -0.103592396 -0.056821253
-0.003274962 0.11478382 0.07552764 -0.05841538 -0.00063595385 0.11384742 -0.036903206 -0.02078025

weight_hh f4 [300, 75]
00000000: 3408 38be dffd 50be 47c0 2b3e e507 9cbd
00000010: 272d 6a3e cf4a b4bd 0b27 8b3b 257b 053e
00000020: 3ebc 233e b4af a8bc b9d1 86bd 311b 303b
00000030: 6173 3abd 6b1a 113e 49f2 e1bd 7517 983d
00000040: 31ec aebd 852e ffbd 057c 04bd 258b a23d
00000050: e6e0 37bc ba0f 163e 5210 af3c 2b88 0a3c
00000060: bb96 0e3d cd07 9e3c f2ac 96bc 10be 8cbd
00000070: 136d 70bd 14ba 293e 3a42 6f3d e6fe c0bb
00000080: b186 ffbd c626 66bc 44a7 cd3c 1c46 943d
00000090: e84b 963d 9608 11bd 3dbb ebbd 3205 0f3d
000000a0: c5cd 0abc 87e2 b9bd db77 00bc d2f4 053e
000000b0: b4df e0bd e6f9 823b 44e8 bd3d 3772 b43d
000000c0: 9d4a d53d f700 63bc 12b7 5b3c 1c98 e53d
000000d0: 36c6 633c c932 8c3d 190d 59bd 39f7 c33c
000000e0: a00b d1bd 6604 053e 99a1 283d 905e 993d
000000f0: 6723 ee3d e6b1 96bd 14ba 4b3d 4478 033d
00000100: 43f7 5abd 8811 a6bd 8dcb 823d cd4c de3d
00000110: 828e 0cbd 9f26 f53d 8955 d03d e895 09be
00000120: 5918 6a3d 5eca e13d 5ffb 30bd fdf3 e1bd
00000130: 9342 b0bd eedc b1bd 53d8 fe3d ca83 083e
00000140: 84e1 1cbe 16e1 bcbd 75c4 32bd 1cc2 47be
00000150: 05fc 1ebe ec6d 393d 5ac6 31bd 1c7c 47bd
00000160: b41a e8bb 4fce 8ebd 96bd 333e d8e4 54bd
00000170: fa79 273e c29a a3bc c8f9 eabd 576a 603d
00000180: f4c1 cd3b 248e 703d 5e02 8ebd 01df 24be
00000190: f7c9 9dbb 98d7 86bd a53b e5bd edd1 b03d
000001a0: d705 143e b44e eebd 4cbb 0b3b b4c2 4f3d
000001b0: 9d4f 2e3d 3a81 e7bd 1532 173e ea3b 27bd
000001c0: 4586 b2bb 6b8a fa3d ac9e d8bd 9650 e93d
000001d0: 5009 3c3d 02e6 8f3c 026b de3d aa40 133e
000001e0: 0112 a1bc ea5f 913d a12c 233e d6b9 4c3e
000001f0: c10c ff3d 4081 81bd fcba 063e cc9d 66bc
00000200: 3b31 8cbc c8dc 763d c27a 703d 8529 283e
00000210: 4683 0c3e f754 0fbe 470f 2c3d d713 8d3d
00000220: 3491 97bb ebcd bdbd 4a17 b03d 5ee8 03be
00000230: 1278 a63d aae4 4cbc 1155 10be 23bb 2cbd
00000240: 50b9 bd3c 15ff 65bd d5d5 58be 1ef4 513b
00000250: a813 bc3d 5aca fa3c 455e 5e3d 0355 c2bc
00000260: 5e96 f3bd 437a 8a3d 4ff4 013a 622e 903b
00000270: b7e2 6a3c 0b2f d43d 3fbe 28be 5967 e33d
00000280: 308d ff3d d005 dcbc d821 97bd 1566 09be
00000290: e603 9dbc d15f 823d dd10 d9bc cb71 c53c
000002a0: e229 1cbd ce90 9b3d 9ce4 ec3d c42f 833d
000002b0: 3b2d 2dbc f515 8ebd c0da e53c b04e d8bb
000002c0: 34b6 b23d bf7e a0bc f377 b03c 3f1c 98bd
000002d0: 8c19 b13b cfbd 47bd af4d 0dbe 723e 6b3d
000002e0: 78da 92bd 9672 aebd 8b74 073e 80cc 38bd
000002f0: dc12 1abe b33d 193e 25ee 89bb de88 bfbd
00000300: 01c2 883d e090 0f3e 7973 07be 8470 36bd
00000310: a0b6 85bd f8ff 423d c3dc ce3d 0b17 843b
00000320: e550 323d 7573 02be 7279 a23d c89f e83d
00000330: a340 983c eef2 5bbc 177b 793d 9071 f53d
00000340: 974b 0dbe 9138 4cbd 8b23 983d 7425 d9bd
00000350: 820d febd ff3e 2ebe e3fe 3abc 835c 0c3e
00000360: 3ec6 5cbd 44dc 103e bab2 9d3d 4d78 b8bc
00000370: 9b5e c53c ffc9 8a3c 8986 b83c 2e30 633d
00000380: d172 053e 23c3 f53d 7685 643d 0884 e2bc
00000390: 94e4 c93d c0a0 bdbd de2c 593d ceba 403e
000003a0: a47e f83d 99c3 ee3c 0596 ca3d fe91 a93d
000003b0: 26ee c03d 82a5 aa3d fe0c ab3d 6b41 50bd
000003c0: e907 bbbc 335b b73d bce0 b5bc d2d7 1f3d
000003d0: 051d 33bd 1766 f7bd 06db d3bd 99d3 c63d
000003e0: fe1d 723d 9202 a33d 9c9e e73d fcf4 ef3b
000003f0: 68d5 893d f510 ab3d cce4 4d3d f306 103d
-0.17971879 -0.20409344 0.16772567 -0.07618693 0.22868787 -0.08803331 0.0042465976 0.13035257
0.15989777 -0.020591594 -0.0658297 0.0026871676 -0.04552019 0.14170234 -0.1103254 0.07426349
-0.08541144 -0.12460045 -0.032344837 0.07936696 -0.011223054 0.14654437 0.021370087 0.008455317
0.034811717 0.01929083 -0.018393014 -0.06872189 -0.05869777 0.1657489 0.058412768 -0.0058897613
-0.12476862 -0.01404733 0.025104173 0.07239935 0.07338697 -0.03540858 -0.11510322 0.034917064
-0.008471911 -0.0907641 -0.007841076 0.13081673 -0.10980168 0.0039970754 0.09272817 0.08810847
0.10414622 -0.0138552105 0.013410347 0.11210653 0.013902238 0.06845624 -0.052991007 0.023921596
-0.102072954 0.12989959 0.041169737 0.074887395 0.11627846 -0.0735815 0.049738005 0.032097116
-0.053458463 -0.081088126 0.063864805 0.10854492 -0.034315594 0.11970257 0.101725645 -0.13436091
0.057152126 0.110249266 -0.043208476 -0.11032865 -0.08606448 -0.08684717 0.12443604 0.13331524
-0.15320402 -0.09222619 -0.043644387 -0.1950764 -0.15525825 0.045270845 -0.043402053 -0.048702344
-0.0070832614 -0.06972944 0.1755279 -0.051976055 0.16355124 -0.019971255 -0.11473423 0.054788914
0.0062792245 0.058729306 -0.06934045 -0.16100694 -0.004815336 -0.0658409 -0.11193017 0.0863379
0.14455353 -0.11636105 0.0021321354 0.050722793 0.042556394 -0.11303945 0.14765199 -0.040828623
-0.005448135 0.122334324 -0.10577139 0.11392324 0.04590732 0.017565731 0.10860254 0.14380136
-0.019661905 0.07098372 0.15934993 0.19992766 0.124536045 -0.063234806 0.13157266 -0.014075708
-0.017113319 0.060269147 0.05871082 0.16422088 0.13721952 -0.13997255 0.042006757 0.0688855
-0.004625464 -0.09267791 0.08598192 -0.1288161 0.0812837 -0.01250569 -0.1409495 -0.042170655
0.023159653 -0.05615147 -0.2117532 0.0032036374 0.09183437 0.030614067 0.05428912 -0.023722177
-0.11893915 0.06761601 0.0004957364 0.0044000605 0.01433628 0.10360535 -0.16478823 0.111036964
0.12478101 -0.02685824 -0.07379502 -0.13417847 -0.019166898 0.06365932 -0.026497299 0.024102112
-0.03812588 0.07595979 0.11567041 0.06405595 -0.010569866 -0.06937782 0.02805841 -0.006601177
0.08726159 -0.019591687 0.021541571 -0.074272625 0.0054046568 -0.048765 -0.13799165 0.0574326
-0.07170576 -0.08517949 0.13228051 -0.0451169 -0.15046257 0.14964943 -0.0042092972 -0.09352277
0.06677628 0.14020109 -0.13227643 -0.044540897 -0.065289736 0.047607392 0.10100701 0.0040310672
0.04353418 -0.12739356 0.0793332 0.11358601 0.018585509 -0.013424618 0.060908403 0.11984551
-0.13798366 -0.049858633 0.07428654 -0.10602847 -0.1240492 -0.17016219 -0.011413309 0.13707165
-0.053899996 0.14146525 0.07700105 -0.022518301 0.024092963 0.016942022 0.022525089 0.05546587
0.1303208 0.1200011 0.05579134 -0.027650848 0.09858051 -0.09259176 0.053021304 0.1882126
0.1213353 0.029146003 0.09891895 0.08279799 0.09420423 0.08332349 0.083520874 -0.050843637
-0.02283092 0.08952942 -0.022201888 0.03902418 -0.043728847 -0.12080019 -0.1034451 0.09708328
0.059110634 0.079594746 0.11309549 0.0073229056 0.06730157 0.08352844 0.050267026 0.035162877

bias_ih f4 [300]
00000000: c883 2fbb 5fef 813d b63d 363d ee7b bd3d
00000010: 8ec6 953d 72a7 9e3d c394 883d 3df2 1bbe
00000020: 711a e53c d5fa 02bd 54be 6dbc 53aa aa3d
00000030: bacc 20be e675 063e 75dc 80bd 83ee 653d
00000040: 77ff f0bc 0f9c c8bd 1a3e 553c 36a3 1f3c
00000050: 5512 233e 3055 2b3d ff52 373e 8b04 003d
00000060: 42fb bf3c 0ce2 69bd 2e78 803d be8d 5c3d
00000070: b5cc 04be 00a7 d13d c94a 3e3d 6259 c73c
00000080: 8631 b43d 42a2 b53c 10cb e8bb 98f3 713d
00000090: a9a4 e43c 0a6f 093e c1af 2b3d ffb5 683d
000000a0: e690 a2bd f773 11be 45ea b8bd 342e 8d3d
000000b0: c708 643d 136e eb3d 804c 973d 7420 0d3d
000000c0: 69d0 063d 5ffb 143e 7117 a7bb 8862 adbc
000000d0: d0f6 e1bd 150c b1bd 83a7 5d3d f91d b43c
000000e0: c32c a6bc 808c adbd cb76 d63d 438a 5d3d
000000f0: 30ad fabd 9e47 8e3d 29db abbd f3d7 183d
00000100: 609b afbd 289c 193e 01a2 90bd 6752 dbbb
00000110: 2230 c73d b691 af3c c988 013d c3f2 f13c
00000120: 01a0 3cbd 5937 d53d 316d e6bd cb83 afbb
00000130: 104e 233d 45d5 d9bc 9e51 b03d 3ac6 4dbe
00000140: e5f6 30bd acb9 193e 5df5 273e df6a cb3d
00000150: 38e3 833d 3456 21be 6497 5bbd 44de e43d
00000160: 844a 8b3d b41f 053e be78 bdbd 752d 9c3d
00000170: 8c6f 883d a0fe ba3c 62fe a6bc 82d5 4e3e
00000180: a159 1cbd 798a d6bd 5806 523d c664 7abb
00000190: d31a d83d 28bf adbd 21de 93bb d7a5 723d
000001a0: 7883 79bc 0ddc a2bd 3a8d cabd 4f6d febc
000001b0: fff1 693d 11c6 8e3d e2d2 e9bd 9b2e 033b
000001c0: 4d7d 4d3d d9c7 d1bd b353 3c3d f9c7 9dbd
000001d0: aa47 8fbd 50e1 efbd c365 93bd 579b 6fbd
000001e0: 0533 41bd 9246 ffbc f5c3 afbd 342c 5d3d
000001f0: 3796 a6bd cd6e 0fbd 4649 163d e0eb 38bd
00000200: 3ac3 c8bc 706f 283d b646 c3bd a09a 983d
00000210: 5510 3cbd 917e 463d 2b32 82bd e5fd 4bbc
00000220: 9be4 f5bd 1944 003e cc2b c3bb 0061 d9bc
00000230: 4f74 09bd f70e bfbc 5a8f 97bd dc5b cdbd
00000240: 0d5c 47be a6e6 4fbd 204e cebc eedc 41bd
00000250: 6f27 033c a66a a6bd 29f6 3fbd afb3 3cbd
00000260: eb56 95bd 22e4 3b3d 7858 753d 56af 863c
00000270: 99ba 813b 0203 143e 8664 533c 3e0e a2bd
00000280: 5977 0ebd 40ee e93d 6080 de3c 07bf c5bd
00000290: 6aa3 c13d 5213 89bd c3b4 f2bc d68f 46bd
000002a0: de35 cbbd 957d 6f3d d6a3 13be c70f b6bd
000002b0: 5fd6 c23a eb50 fabc 8ac0 04bd 08e4 e6bd
000002c0: 6e2a c0bd 9ab9 acbd 1a1f 723d aeee 23bd
000002d0: 6737 993d 526e 95bd d9d3 d13c 2ee3 3abd
000002e0: febe 73ba 0bde 81ba 1020 8a3c e33e 1ebd
000002f0: 8efd 8ebd e4ca b1bc fe93 22bd bd4b 7f3d
00000300: 995b 21bd 865f 023d 51e9 8b3d 1d99 2dbd
00000310: 8df0 c83d b185 893d 229d bdbd 519a 9a3d
00000320: 17ac 69bd b2f9 7fbd cee7 80bb 852f 873d
00000330: 3daf e93c 1d51 a03d da5f a1bd 099f aebd
00000340: 3eae 943d b673 f6bd c1cf 50bd fa01 173e
00000350: eaa1 863d 6275 b2bd b7a9 cebc 4a98 3bbd
00000360: 0f78 243d 37bc 35bd a9a0 d9bd 1282 313d
00000370: 8239 e3bd edfb 853a 5f7c abbc 5246 793d
00000380: b016 cabd 7858 163d 2738 ce3c c571 b33d
00000390: db00 c4bd 136e 33bd 4181 f13c 352b 953d
000003a0: dc08 eb3d 71e8 6f3c cc80 123e ae9d a53d
000003b0: 034c a5ba 83cf 663d 7caa 43bd e262 08bd
000003c0: 1aa2 153c 59d8 6eb9 447d 51bd 63ea f4bd
000003d0: 709a 14be f792 5e3d b15d 9e3c 6370 9b3d
000003e0: 1906 ffbc cf72 acbd e31e 2fbd d5fe 8d3d
000003f0: e16c 223d 2447 f3bd 922a 383d 79f1 963c
-0.0026781429 0.063444845 0.044492446 0.09252153 0.07313262 0.077467814 0.06668999 -0.15229125
0.02796671 -0.031977493 -0.01451071 0.08333268 -0.15703097 0.13130912 -0.06292049 0.056135666
-0.02941869 -0.09795391 0.013015294 0.009743502 0.15924962 0.041829288 0.17902754 0.031254333
0.023435239 -0.05710034 0.062729225 0.053846113 -0.12968715 0.10236931 0.04645804 0.024334613
0.08798508 0.022172097 -0.007104285 0.0590702 0.027910547 0.13421264 0.04191566 0.05681419
-0.079377934 -0.14204393 -0.09029058 0.06893578 0.055672433 0.11495604 0.07387638 0.034454778
0.0329136 0.14549015 -0.00509923 -0.021165147 -0.11033404 -0.086448826 0.05411483 0.021986948
-0.020285016 -0.08474064 0.10471877 0.054086935 -0.12240064 0.06947254 -0.08391411 0.03731532
-0.08574557 0.15000975 -0.0706215 -0.0066931727 0.097259775 0.021431785 0.03162459 0.029534703
-0.04605103 0.10410947 -0.11251295 -0.005356287 0.039869368 -0.026590953 0.08609317 -0.20095149
-0.043204207 0.15012234 0.16402192 0.099324934 0.06439823 -0.1575554 -0.053611174 0.11175206
0.06801322 0.13000375 -0.09251545 0.07625858 0.06661901 0.022826493 -0.020384971 0.20198634
-0.038171414 -0.1047563 0.05127558 -0.0038207038 0.10551991 -0.08483726 -0.004512564 0.05924019
-0.0152290985 -0.079521276 -0.09890218 -0.031057982 0.05711555 0.06971372 -0.11417176 0.0020016793
0.050168324 -0.10243196 0.04597826 -0.077041574 -0.06996091 -0.11712897 -0.07197144 -0.058497753
-0.047167797 -0.03116158 -0.08582298 0.053997234 -0.0813412 -0.035017777 0.036690973 -0.045146823
-0.024507154 0.0411219 -0.095349714 0.074513674 -0.045914013 0.048460547 -0.06357225 -0.01245067
-0.12006494 0.12525977 -0.0059561487 -0.026535511 -0.033558186 -0.023322565 -0.07400389 -0.100272864
-0.19468708 -0.050757073 -0.025183737 -0.047329836 0.008005007 -0.0812581 -0.046865616 -0.046069797
-0.07291969 0.04587186 0.059898823 0.016441029 0.0039590118 0.14454272 0.012902385 -0.07912873
-0.034781788 0.11422396 0.027160823 -0.09655576 0.09454997 -0.06693138 -0.02962721 -0.048477016
-0.09922384 0.058469374 -0.14417967 -0.08889728 0.0014864913 -0.030556163 -0.032410182 -0.11273962
-0.09383093 -0.08433838 0.059111692 -0.040022545 0.0748127 -0.072964326 0.025613712 -0.04562681
-0.00092981744 -0.0009908093 0.016860992 -0.038634192 -0.069819555 -0.021703191 -0.039691918 0.06232809
-0.039393995 0.03182938 0.06831611 -0.04238235 0.098115064 0.06714953 -0.09258486 0.07548965
-0.057048883 -0.062493987 -0.0039338833 0.066008605 0.028525943 0.07827971 -0.0787961 -0.08526427
0.072597966 -0.12033789 -0.05097938 0.14746848 0.065738514 -0.08713795 -0.02522741 -0.04579953
0.04015356 -0.04436895 -0.106263466 0.043336935 -0.11094953 0.0010222174 -0.020933328 0.06085808
-0.098676085 0.036705464 0.02517326 0.08761934 -0.09570476 -0.043806147 0.029480578 0.07283632
0.11476299 0.014642821 0.14306945 0.08086716 -0.0012611154 0.056350242 -0.04777001 -0.033297427
0.009132886 -0.00022778045 -0.051144853 -0.11958768 -0.14512038 0.054339375 0.019331785 0.075897954
-0.031130837 -0.084203355 -0.042754065 0.06933371 0.039654616 -0.11878803 0.044962473 0.01842569

bias_hh f4 [300]
00000000: dce3 0c3a a1ea 1d3d e46c e6bb 30da a4bb
00000010: 5cce fc3d dad4 68bd 4157 a93d 8486 e4bd
00000020: dbd1 023e cffc 66bd 8783 d03d 82b1 da3d
00000030: 4d25 07be a9ae cd3d 47d8 553d b451 18bc
00000040: 46b9 343d d5c0 8b3c b67a 92bd a295 23bc
00000050: 7be5 063e 2493 1a3e 3adf fe3d 1f2a a2bd
00000060: 61dc 4f3d 62d8 ca3d 5704 bebc 5b13 34bb
00000070: 1c25 15be b92c 1bbd 2b82 e9bd 9942 babd
00000080: 260f f63d d1df f3bb ee37 9ebd cb08 253e
00000090: 8fa0 02be 2066 9c3d 82d0 9f3d 03b9 3b3d
000000a0: 0236 323c d959 e9bb 0d9f 4d3d c13e cb3d
000000b0: dbb7 a83d 32f2 b53d 072e c6bd 760d c0bd
000000c0: a89b 023e b3e9 753d edd1 78bd 1c11 803d
000000d0: 5eaa 7ebd 93f7 06bc 2822 383d 4d21 393d
000000e0: cc34 a1bc 7f80 2e3d 0dc1 163c 259f e9bd
000000f0: 9bee 4abd af89 10bd d5ce 5e3d 7f9f 293e
00000100: bea3 b9bc 8bc8 9e3c 578d 433d 116b 0bbd
00000110: ca8a 9b3d b9e1 6b3d 7e9c 0a3c 493f 1a3d
00000120: 2fc2 243d d76c c53d a899 d7bd 488d 023e
00000130: 30c6 6c3d f6bb dcbc 10a4 94bd 48a1 04bb
00000140: 0841 14bc 9aff 363d 0d44 0f3e 720b d33d
00000150: a76a d8bc d64c dabc 6fcd d8bd a89f 4e3d
00000160: c853 803d b2be 013e 72b5 403d 3239 313d
00000170: d44b 8bbc 40d1 d33c a633 76bd ab5e bb3d
00000180: 7adf b9bd 8fca 23bd b3ed 0b3e 20c7 b6bd
00000190: 501c 543d f6b1 27bd 6631 db3c f3ad 58bd
000001a0: 1440 9abd 43cc 51be 03d4 f2bd d076 eb3d
000001b0: 378f ccbc 7438 12be ecdb 1bbe 3e27 693d
000001c0: cbeb 3cbd dd06 673d 9c3d 60bd e102 e7bd
000001d0: 568f 03bd 02c3 df3d f760 b0bd bcb9 543b
000001e0: 7fe3 e83c 09f5 a93c 0c70 30bd 0b5f 783d
000001f0: cc03 84bd 9fac 88bd 989b 42bd 6349 c9bb
00000200: cf43 433d 89dd d5bd 4323 02be 6ae6 97bb
00000210: 622f 103d 0d8e dd3c b66d 88bd fa16 9f3d
00000220: e189 923c 7df5 153e e09e 263d 8a29 283d
00000230: 356e 0cbd d6a4 5c3d 3cc1 9abd 5c7b b1bd
00000240: 214b 1dbe 0983 36bd 6b17 77bd 8872 a9bc
00000250: 1579 6fbd 7470 f63c 89e8 b03d 617c 153e
00000260: 3984 d8bd a7b9 aabd 7e60 223c 7b9e 0abd
00000270: f952 c63d a07c c73d d600 d93d 6413 883c
00000280: f0b8 63bd 69ef 16bd 6e3f d43d b13d 88bd
00000290: 2e2c b53d 55af cabd 6b08 e83d 7c08 fdbd
000002a0: f3db 39bc 3948 68bd c895 babd 72ab c33d
000002b0: 0d29 083e 7745 6bbc bd79 82bc ad3b 77bd
000002c0: 9a5f 0d3c 9df5 babd 6c5f 21bd 01d8 19be
000002d0: e5c6 0bbe 741a 103e dfc5 9c3d 53af 113d
000002e0: 1ed9 22be 62ef 41be d79a bc3d 4584 29bc
000002f0: 1c0a 05be 1659 08be 7a25 a9bd 23c7 f53c
00000300: 78a5 76bd 0920 a6bd 0278 0e3d e86a 35bc
00000310: ee47 ae3d 03e9 c4bd b551 943b 654b adbc
00000320: f242 b43c e4e1 273d 5af2 663c e5de a0bd
00000330: d381 2cbc c604 2ebd 85ac a03d 12bb 0a3e
00000340: a3ca 213d 954e afbd 6492 1e3e 44da 22bd
00000350: 8231 b83d 2312 23be 6952 debd 5bab c0bd
00000360: 3651 353d 71e4 ab3c 7da0 76bd fec6 8a3d
00000370: 6e81 00be 3878 aa3d ef8e 943d 79b0 15be
00000380: d221 3dbd f0a3 bf3d 9d80 c13d ff52 2f3e
00000390: 37f7 633a 3b56 853d 2eb0 6dbb 4470 88bd
000003a0: 4f76 bf3c ba32 383e fca9 ba3d 090a f83d
000003b0: 06dd cf3d 0cd6 70bc 2c4e 863d 5503 b33d
000003c0: 14e5 87bd 082e 61bc 4556 47bd 50a4 163c
000003d0: ad97 dd3c df50 133d f59b 84bd b8da 183e
000003e0: 1dd4 363e 0c18 783d 7d71 4c3d 28b4 ca3c
000003f0: 727c d43c 474b bebc a828 953d 8623 b8bd
0.000537453 0.038553838 -0.0070320237 -0.005030893 0.123440474 -0.056843616 0.082685955 -0.11158469
0.12775366 -0.05639344 0.10181337 0.10678388 -0.13197823 0.100430794 0.05220821 -0.009296823
0.044122003 0.017059723 -0.071523115 -0.009984406 0.13173477 0.15095192 0.12444921 -0.0791819
0.05074728 0.09904553 -0.023195429 -0.0027477357 -0.14564937 -0.037884448 -0.11401781 -0.09094734
0.12014608 -0.0074424525 -0.077255115 0.16116636 -0.1275656 0.07636666 0.078034416 0.045830738
0.010877134 -0.0071213064 0.05020051 0.09924079 0.08238193 0.08884086 -0.09676748 -0.093775675
0.1275469 0.060037326 -0.060747076 0.06253263 -0.062174194 -0.008237737 0.04495445 0.045197774
-0.019678496 0.042603012 0.0092013 -0.114073075 -0.04954396 -0.035287555 0.05439647 0.16564749
-0.022661086 0.019382736 0.047742214 -0.034037653 0.07594831 0.057588313 0.008460162 0.03765801
0.04022425 0.096399 -0.105273545 0.12749207 0.057806194 -0.026945096 -0.07257855 -0.0020237733
-0.009048708 0.044677354 0.13990803 0.103049174 -0.026418043 -0.026647966 -0.10586058 0.05044523
0.0626598 0.126704 0.04704804 0.043267436 -0.017003931 0.025856614 -0.06010785 0.09148916
-0.09075828 -0.039988097 0.13664894 -0.08924699 0.051784813 -0.0409412 0.026756953 -0.052900266
-0.07531753 -0.20488076 -0.11856844 0.11497271 -0.024970634 -0.14279348 -0.15220612 0.05692219
-0.046123307 0.05640303 -0.054746255 -0.11279846 -0.032119118 0.10925867 -0.086122446 0.003245934
0.028428791 0.020746725 -0.043075606 0.060637515 -0.06446037 -0.0667355 -0.047511667 -0.0061427816
0.04767209 -0.10442645 -0.12708764 -0.004635622 0.035201438 0.027045274 -0.06661551 0.07768054
0.017888011 0.14644428 0.04067886 0.04105524 -0.03428479 0.053868137 -0.07556388 -0.08666107
-0.1536069 -0.04455856 -0.060325067 -0.020684496 -0.058465082 0.030082919 0.086381026 0.14598228
-0.105720945 -0.083361916 0.009910701 -0.033842545 0.096837945 0.09740567 0.105958626 0.016610809
-0.055596292 -0.036849413 0.10363661 -0.06652392 0.08846317 -0.09896723 0.113297306 -0.12355134
-0.011343944 -0.056709502 -0.091106 0.09554185 0.1329691 -0.014359823 -0.01592719 -0.060359646
0.00862875 -0.09128878 -0.039397642 -0.15023805 -0.13650091 0.14072591 0.076549284 0.035567593
-0.15903136 -0.18938974 0.09209221 -0.010346477 -0.12992138 -0.13315234 -0.08259101 0.030002182
-0.060216397 -0.08111579 0.034782417 -0.011072852 0.08509813 -0.09614756 0.004526342 -0.021154115
0.022004578 0.04098691 0.014095867 -0.07855014 -0.010528999 -0.04248502 0.078454055 0.13547924
0.03949989 -0.0855991 0.15485531 -0.039758936 0.08993818 -0.15924887 -0.10855562 -0.094076835
0.044266902 0.020982953 -0.060211647 0.06776236 -0.12549374 0.08323711 0.07253825 -0.146181
-0.04617483 0.093574405 0.09448359 0.17121504 0.00086962007 0.06510588 -0.0036268341 -0.06662038
0.023371844 0.179881 0.09114453 0.12111289 0.10149579 -0.01469947 0.06557879 0.0874087
-0.0663549 -0.013743885 -0.048666257 0.009194449 0.027049864 0.035965797 -0.06475059 0.14927185
0.17854352 0.060569808 0.04991292 0.024744108 0.025938246 -0.023229254 0.07283145 -0.089911506

weight f4 [500, 32]
00000000: c9ab c6bf 5974 06bf 1605 063f aae8 2bbc
00000010: a276 ae3f 5cdf a1be 3003 1bbf 02b6 413e
00000020: 66c2 193f 96ee b03e 6eba 77bf c6f2 f43d
00000030: 53ba 5e3f 53c8 6f3f 5a98 a73f d2ff 48be
00000040: a2e6 a33e fc62 d73f 3365 1040 da4f ad3f
00000050: 9d06 dfbe 0a84 09c0 5fbd 8b3e 35e2 373e
00000060: 2442 973e 3ede a63f 3149 893d 9397 c03f
00000070: 38f2 44bf 76ea 74be 83bc b5bf 783d d2bf
00000080: 9fff 3fbf 0e30 c63f e651 903f 2a3a b53f
00000090: a980 02bf a87a b13d 41a4 86bc 6095 aabf
000000a0: e01e 56bf 0e3a 063e 6789 f33f 0762 7a3f
000000b0: 1ff6 103d aef3 a4be eb83 833e 9dc5 c03f
000000c0: 8633 b0bf ef0f 89bd b15b 7fbf e7c2 f43d
000000d0: e2d9 36bf 43ca 9f3f 1506 593f 67fb 94bf
000000e0: 6b48 3cbe 7fac e63f ae5f 20bf 534f 91bf
000000f0: 6e92 95bf 865d 41bf 0b3f 21bf da6a 0c3f
00000100: c40d 9e3f 5954 dbbf fb82 3fbe 7723 1a3e
00000110: 4ff9 543e 3b89 aa3e bc53 3dbf c74c a8be
00000120: c2d6 23be 6e17 98bd a6cf 05bf d936 38bf
00000130: 5566 b63c 3f8d fb3e 24dd 483f e4a9 58bd
00000140: 3546 21bf fd6d 2fbe a77d 7dbf 6a18 493e
00000150: f69c 213e 2622 223f fec3 54be 8c6e 593f
00000160: bd95 013d 655f e53e fe86 1b3f 0ac7 9e3f
00000170: 28c9 5bbe 8747 ac3f aa87 2d3f abfb 2e3f
00000180: dfbb e43f c94a 2abb 2f99 eabe ca17 16bd
00000190: 061b b9bf 6360 06be f007 f7bf bd5a 0fbf
000001a0: b3b8 293f b8dd 2e3f 883b dc3e 6f54 193f
000001b0: 6686 c2be 8407 273f a63d 35bf 0ebb 4a3f
000001c0: 5e16 f83d 6b4c 81bf 4b9b 973f 006b f73f
000001d0: 1681 ad3e 4757 d1be 90a1 b4bf f53f fabd
000001e0: fabf 683f 07f6 a43f eea3 883e 855f 1fc0
000001f0: 3a24 893e fff5 54bf 487b fcbf e4fc 9fbe
00000200: 1948 07c0 5b1a 8a3f 1937 c2be b639 7d3f
00000210: 8b0d 2cbf ae5f 28bf 887c e23d 277d 1c40
00000220: 69fb 4ebf a997 873f f47d d7bf 5e15 1cbf
00000230: ec5c 86bf 3681 d0be b30f d6bd 9716 c4bf
00000240: 9dfa 2a3f a053 72bf e33b f13e ec6a 5bbf
00000250: efcc b2bf 7bf5 b3bf 15f0 263f cf1e 053c
00000260: ecf1 0540 7078 463f ce34 d2bd beec 86be
00000270: 9a11 f83f 9e74 2a3f 1273 2f3f 9edd 9dbf
00000280: 8538 983e cef5 92be 90b7 693f 2f12 e03c
00000290: 7afd b03f e821 613f 035c 1240 a855 673e
000002a0: de8a f73e 6d1c 103f b803 1dbf 3a68 f1bf
000002b0: a5be 1c3f 446a 5d3e 509e 5d3e 56ad d7bd
000002c0: 3e27 0940 e309 093f 6eef 0a3f 4910 b1bf
000002d0: f0a5 343f 6f98 61bf 1f2c 9bbf a547 47bf
000002e0: d979 093f 25ee 7e3f 2b7d 7cbf dff4 0cbf
000002f0: 936d a23d 5285 d8bf 4c72 f53e 77b1 f73f
00000300: 9a03 293f 3864 9bbe 880e 693f ef32 2fbd
00000310: 7564 2dbf b7cc f1bd e435 36bf 4bf9 0b3f
00000320: b81a 1d40 155f cfbe 297a 9dbf c14b 7c3f
00000330: 8904 a7bf 0855 b8be 80f6 ccbe 4a61 a33f
00000340: 5faf 4ebf b7d4 3f3d ed36 993f aef1 93be
00000350: 33e0 5abf 6518 f53e b72c 00bf 8bb6 763f
00000360: 1e83 763e e25f 8dbf d2d8 92be fb6d 9e3e
00000370: b107 f13f 0116 aabf c4be 3e3f 28bb a1bf
00000380: 5234 323f e89d 163f f76b 1f40 b876 533f
00000390: e9f7 f2bd 27f4 bb3f b922 a13e 3283 cb3d
000003a0: 90fd 31bf 9417 25bf 9697 fabc 7aa4 343f
000003b0: 30e7 00c0 d800 c33e 2abf ffba 013a a23f
000003c0: 455b eebe 051b bfbf 3c02 703e 70f3 673e
000003d0: 5b98 22be ce50 9d3f a87c f53d 53c1 a7bf
000003e0: 9998 42bf 7940 e93c feea 43bf 6338 423f
000003f0: a367 80be 7f8a 6cbf 1ca3 a3bf 1248 493d
-1.5521175 -0.5252128 0.5235151 -0.010492483 1.3629954 -0.31615722 -0.6055174 0.18917087
0.60062253 0.34557027 -0.96768844 0.11960368 0.8700306 0.93665045 1.3093369 -0.19628838
0.32011896 1.6827083 2.2561767 1.3539994 -0.43559733 -2.148684 0.27292916 0.17957385
0.2954265 1.3036573 0.06703413 1.5046257 -0.76932096 -0.23917565 -1.4198154 -1.6425009
-0.7499942 1.5483415 1.1274993 1.4158375 -0.5097757 0.08665973 -0.016435744 -1.3326836
-0.8364086 0.13108084 1.9026307 0.9780583 0.03539097 -0.32217163 0.25686583 1.5060307
-1.3765724 -0.06692492 -0.99749285 0.11951237 -0.7142621 1.24836 0.84774905 -1.1639222
-0.18387 1.8021392 -0.62645996 -1.1352333 -1.1685312 -0.7553333 -0.6298682 0.5485054
1.2347951 -1.7135116 -0.18702309 0.15052591 0.20798229 0.33307824 -0.73955894 -0.32871076
-0.15999892 -0.07426344 -0.5226997 -0.7195869 0.022265593 0.491312 0.78462434 -0.052896395
-0.6299775 -0.17131801 -0.99019855 0.1963822 0.15782532 0.63333356 -0.2077789 0.84934306
0.031636942 0.44799343 0.60752857 1.2404492 -0.21463454 1.3459328 0.6778513 0.68352765
1.7869834 -0.0025984517 -0.45819995 -0.03664378 -1.4461372 -0.13122706 -1.9299297 -0.5599783
0.66297454 0.68307066 0.4301417 0.5989446 -0.37993163 0.6524584 -0.70797193 0.7919167
0.12113641 -1.0101446 1.1844267 1.9329529 0.33887547 -0.408869 -1.4111805 -0.1221923
0.90917933 1.2887582 0.26687568 -2.490205 0.2678545 -0.8318786 -1.9725122 -0.31247628
-2.1137755 1.0789293 -0.3793266 0.98916185 -0.67208165 -0.65770996 0.11058909 2.4451387
-0.8085237 1.0593158 -1.6835313 -0.60970104 -1.0497108 -0.4072358 -0.10452213 -1.5319394
0.66788656 -0.9465885 0.47116002 -0.85710025 -1.3968791 -1.405929 0.65210086 0.008125021
2.0928907 0.77527523 -0.10263978 -0.26352495 1.9380372 0.66584194 0.6853496 -1.2333257
0.2973062 -0.2870316 0.9129572 0.02735242 1.3827355 0.8794236 2.286866 0.22591269
0.48348135 0.56293374 -0.613338 -1.8859932 0.612284 0.21622568 0.21642423 -0.10531108
2.1430202 0.5353071 0.5427159 -1.3833095 0.705657 -0.8812322 -1.212284 -0.77843696
0.5370155 0.9958213 -0.9862849 -0.55061144 0.07931056 -1.6915686 0.47938764 1.9351033
0.6602112 -0.30349898 0.910378 -0.042773183 -0.6773141 -0.118066244 -0.7117598 0.54677266
2.4547558 -0.4050223 -1.2302905 0.9855309 -1.3048259 -0.36002374 -0.40031815 1.2764065
-0.80736345 0.04683372 1.1969887 -0.28895324 -0.8549835 0.47870174 -0.5006823 0.9637229
0.24073455 -1.1044886 -0.28681046 0.30943283 1.8830472 -1.3287965 0.74509835 -1.263524
0.69611084 0.58834696 2.4909647 0.82603025 -0.11863691 1.4683884 0.31471804 0.09937133
-0.6952753 -0.644891 -0.03058986 0.7056347 -2.0141106 0.3808658 -0.0019511927 1.2673951
-0.46554008 -1.4930121 0.23438352 0.22651458 -0.15878431 1.2290285 0.11986667 -1.3105873
-0.76014096 0.028473126 -0.76530445 0.7586729 -0.2507907 -0.9239883 -1.2784152 0.049140997

weight_ih_l0 f4 [384, 32]
00000000: d869 a53b 6f12 553d 6352 9dbd d369 9fbd
00000010: 1c53 5cbd bdd6 793d 7954 283d bbf7 98bd
00000020: a44f 1b3d 608c 54bd d73d 3cbc 6abc 27bd
00000030: 5da2 cfbd 1462 ee3c 4f57 e7bd f683 b1bc
00000040: 72d2 9b3d b782 fabd 2320 233d 29bd 18bd
00000050: b857 9f3d 7434 673c a235 5c3b 54bc b63c
00000060: b307 abbd 639f a93b 5543 35bd 42d9 f33b
00000070: fe9e 6cbd ac01 8abd 320f 0f3d f87d d93d
00000080: 0d74 773c a077 26bd dfab 203d bf30 d1bc
00000090: e643 5cbd f8f3 653d 185d 88bd cbbc 85bc
000000a0: 89ab 163d 3d03 ac3d 7bdb 213e 1960 b3bc
000000b0: eff5 863d 3c0d 783d 7b09 a0bd 19d4 13bd
000000c0: 6a76 eb3c 8e15 e3bc a891 e5bd e639 69bd
000000d0: 189e a1bc a23b c53d 0aff 5d3c 14e0 e23d
000000e0: 89fa b13d ecb1 fc3c 6678 d53c e55e 79bd
000000f0: 149b 093e a5cb 0a3d 703c 143d 3ca5 b8bd
00000100: 6061 363c f1ef 2cbc fdb4 343d b533 adbd
00000110: ca14 c9bd d751 bcbc 507b f03b 11d5 403d
00000120: 6d4f 4abd 1a28 11bd 38f2 093e 6264 463d
00000130: 00f7 f53d 589f 84bd 0f75 043c 4594 0cbd
00000140: 528f 3f3d 0060 e23c d142 2e3c bebb 5cbd
00000150: 8861 f53c 36bf ebbc 6a38 053e b23a fc3b
00000160: ce4e 8bbc fde3 1c3d 414d db3b 0b26 edbc
00000170: 2748 e63d 2a79 fa3d c2a0 6f3d a18e 3abd
00000180: d31b 1bbd 26ab ffbc 205b 993c 6023 a4bc
00000190: 21a9 d2bc b5c4 42bd b7ae 013d 54b8 debc
000001a0: b3fc 84bd 0b94 af3d f8bc 87bd eff9 0ebd
000001b0: 61c5 f9bc 0dbf 3f3c 8a0e ddbc 467f 9abd
000001c0: 6b75 4ebd f401 8f3d 2d90 be3a 6c19 a33d
000001d0: 6a6a c7bd 8893 e2bc 9cc9 e53d ce46 213d
000001e0: 2204 ae3d 3545 4cbd 8082 b4bd 1788 c03d
000001f0: 0d05 03bd dd0e 92bd 39dc e8bd 444e 09be
00000200: 2336 c53d b6af 2e3d b1ae 2fbd c4c9 85bd
00000210: ba86 01be ade6 83bd 3374 d83c a8b0 88bc
00000220: 30c3 d93c 3a15 6abd 0378 22bd f0ac 25bd
00000230: f942 10bd 2696 dabc 7565 093d 25a3 013d
00000240: 475d 6cbc 7254 a6bd 8aa9 333c 1762 0d3c
00000250: 005f 8dbd 5f2b 773b 038a 5fbd 8f5b 62bd
00000260: 5a57 31bd 8e8b b0bd 1de2 4e3d 4505 efbc
00000270: 03e3 f03d 6f1e 32bd c65f 5a39 f63a 8a3d
00000280: 6a4f 573d de8b 7dbd 7010 93ba 9fb8 0abc
00000290: c079 a8bd d71d 24bd c779 47bc 5e3a 9ebd
000002a0: f260 463c 57bc 92bd 2941 743d 1155 353c
000002b0: 4add 1c3d 2133 8fbd 903e 87bd 9659 303a
000002c0: eb74 e4bc 1bfc f63b c82c 00be 2db4 b2bd
000002d0: 283e 5b3d 0762 8db9 6391 abbc bbcc 1b3d
000002e0: f7ad 26bb 1179 76bd 42c4 133c 18ac 18bd
000002f0: ab86 133d ef5c aa3d 65b5 d23d 1020 633b
00000300: b25b ffbb 4899 2f3d 814a 9d3d 0c6a 49bd
00000310: 6a66 ae3c 5a47 3f3b 5d48 d03c 13e6 99bc
00000320: c954 943c 1164 0fbe 153c 413c c1b2 23bd
00000330: 7260 babd 416a a73d 95bb 02be 967f 26bd
00000340: 2f87 173a 88f9 7a3c 4a31 f43c 143c 413d
00000350: eef2 0a3d 459e 853d 6738 04bb 41d2 8e3d
00000360: 7851 c2bd dd06 b0bc a1c9 ebbb 4b09 b6bb
00000370: 0006 513c de52 d93c e3f5 c23c 671f b03d
00000380: 1827 24bd 7d2d b93d b052 b538 484d 8d3d
00000390: 1947 c5bc 3f67 cd3d 960d 203c f23e 3fbd
000003a0: 1b62 68bd dc5d 72bd 3096 173c a49b 3abc
000003b0: 2a5a a8bc 112c efbc c8a8 1d3c 360f 153d
000003c0: a745 553d 4044 2d3c e4ba ecbd 883a 4c3d
000003d0: 534d 033d bba5 f2ba 19c7 043d 765d e4bd
000003e0: 0d5b 90bd 7651 bcbd 2922 9dbd 5c37 8abd
000003f0: 0883 893d 1d8e 4cbc 4da8 673d 09a8 80bc
0.005048018 0.052019533 -0.0768173 -0.07783856 -0.053790197 0.060995806 0.041096184 -0.07469126
0.037917748 -0.051891685 -0.011489353 -0.04095117 -0.1013839 0.029099502 -0.1129595 -0.02166937
0.07608499 -0.12231963 0.03982557 -0.037289772 0.07780403 0.014111627 0.0033601304 0.022306599
-0.08351078 0.005176471 -0.044253666 0.0074416706 -0.057768814 -0.067386 0.0349266 0.1061973
0.015103352 -0.040641427 0.03922641 -0.02553594 -0.05377569 0.05614087 -0.06658381 -0.016325375
0.036784682 0.08399055 0.15806381 -0.021896409 0.06589877 0.060559496 -0.07814308 -0.036090944
0.028742988 -0.027720239 -0.11209422 -0.056939982 -0.019728705 0.09630515 0.013549576 0.11077896
0.08690364 0.030846559 0.026058387 -0.060881514 0.13438064 0.033885617 0.03619045 -0.09015891
0.011131614 -0.010555253 0.044117916 -0.08457128 -0.09818418 -0.022988243 0.0073389187 0.047078196
-0.049392153 -0.035438634 0.13471305 0.048435576 0.12010002 -0.06475705 0.00808455 -0.03432109
0.04676754 0.027633667 0.010636047 -0.053889982 0.029953733 -0.0287777 0.13009802 0.0076974267
-0.01700535 0.038303364 0.006692559 -0.028948804 0.11244231 0.122301415 0.05850292 -0.045546178
-0.037868332 -0.03120954 0.01872021 -0.0200364 -0.025715413 -0.047550876 0.03166076 -0.027187504
-0.06493511 0.08573159 -0.0662784 -0.034906324 -0.030489625 0.011703265 -0.026984472 -0.07543807
-0.050404947 0.069827944 0.0014538817 0.07963833 -0.09737094 -0.027658239 0.112200946 0.039374165
0.08496882 -0.04987069 -0.088139534 0.09400957 -0.03198724 -0.07131741 -0.11370129 -0.13408762
0.096294664 0.04264804 -0.042891208 -0.06532624 -0.1264905 -0.06440482 0.026422596 -0.016685799
0.02658233 -0.05714915 -0.039665233 -0.04044813 -0.03522012 -0.026682924 0.033544023 0.031649727
-0.014426536 -0.081215754 0.010965714 0.0086293435 -0.069028854 0.003771506 -0.054574978 -0.0552631
-0.043296196 -0.08620368 0.050508607 -0.029177317 0.11762049 -0.043486055 0.00020825778 0.06749527
0.05256597 -0.061900966 -0.0011220109 -0.008466869 -0.08226347 -0.04006752 -0.01217503 -0.077259764
0.0121080745 -0.07164829 0.059632454 0.011067645 0.038296975 -0.06992174 -0.0660373 0.00067272165
-0.027887782 0.0075373775 -0.12517083 -0.08725772 0.053526074 -0.00026966652 -0.02094335 0.038037043
-0.002543328 -0.06017405 0.0090189595 -0.037273496 0.0360171 0.08318507 0.102885045 0.0034656562
-0.0077929134 0.04287079 0.07680226 -0.0491734 0.02128907 0.0029186816 0.02542513 -0.018786466
0.018106835 -0.14003016 0.01179411 -0.039965395 -0.09100427 0.08174563 -0.1276687 -0.04064902
0.0005780337 0.015318282 0.02980866 0.047176436 0.033923082 0.06524328 -0.002017522 0.069736965
-0.09488195 -0.021487648 -0.007195667 -0.005555307 0.012757778 0.026528772 0.023798889 0.085997395
-0.040076345 0.09041879 8.646154e-05 0.06899506 -0.024081754 0.10029458 0.009768864 -0.04669089
-0.056734186 -0.059171543 0.009252116 -0.011389647 -0.020550806 -0.029195817 0.00962276 0.03639146
0.05206838 0.010575354 -0.11559084 0.049860507 0.032056164 -0.0018512526 0.032416437 -0.11150639
-0.070486166 -0.09195225 -0.07672531 -0.0674884 0.06714445 -0.012485054 0.05655699 -0.015705125

weight_hh_l0 f4 [384, 128]
00000000: ca9b 9d3d adb5 93bd 0857 793d 6b33 843d
00000010: 8526 773d d01d 9ebc ad7e b63d b072 79bd
00000020: db83 4a3d 4d1b ff3c cc11 d5bc b2a7 2d3c
00000030: 427f 913d 21a4 5b3d 5a3a 5fbd 944f 9cbd
00000040: 93de 8aba ec35 abbc 9a21 42bd 8b48 22bd
00000050: a6c5 4d3d 5dd3 743c 0199 ce3b 2dfe a23d
00000060: e1d1 96b9 3d2f b33d bb22 56ba e2a2 7a3d
00000070: 84d9 1ebc 9cfc 17bd 071d 84bc 161f 4d3d
00000080: 3d73 e23a e298 06ba 74d5 0a3d fd8a b7bb
00000090: 3d13 18bc f4a4 b8bb 8c6d 3b3d 579e a9bd
000000a0: 86f5 b73d 6b60 0dbc 3c4a 86bc f643 9f3d
000000b0: ff7f 80bd c818 14bc 4712 d23c 99c1 89bd
000000c0: a052 88bd 9b70 863d db0d abbd 111c 2f3d
000000d0: a226 843a c5db b43d b51e d13d 082a afbd
000000e0: b44e 84bd 591a 733d 8b37 633d b9d6 3d3d
000000f0: 6942 4dbd b120 2fbd a1ae 23bb 3b7c 8cbd
00000100: bb54 583d 38be 343d 78a8 84bd 56d3 943d
00000110: 5a32 ecbb a32a 78bd 3b7c 93bd 0232 123d
00000120: c6d6 0d3d 7d90 2ebd 60c0 133d 6696 343d
00000130: ce75 94bd 264d 763d de80 bfbd 30a1 943d
00000140: 88fb d4bc 5643 57bd a69b ac3d b6c4 88bd
00000150: f732 5abc 8d94 a93d 7783 0ebc 61ad ce3c
00000160: 38c0 593d 558a b83d cc59 893d fc2d 58bd
00000170: 42b7 e1bc 8316 94bd 0a46 ae3c d947 0cbd
00000180: 092c 09bd 0206 c2bd a2f7 7ebd e52e 5d3b
00000190: 5e3c 5fbd 891a 723c 260d 5e3d 9940 283d
000001a0: a007 e4bb b0b1 47bd 77d1 e2bb 2ffb 373d
000001b0: 1869 393d e8c1 72bd f11a a23d 7f70 aebd
000001c0: 70cd 72bd b416 dc3d 411a a63d a8f1 95bd
000001d0: 3873 15bd fec5 7d3d 4b15 153c cb58 63bb
000001e0: 973c 5ebd d960 233d e12a 913d 8a0f 57bd
000001f0: d21e 783d faa5 c83d 616e 983d f67e 85bd
00000200: 4cdf 88bc 1d4d 81bc 4b47 563d 82bf 893d
00000210: 9527 9b3d f129 99bd e538 3dbd 635f 88bd
00000220: cad5 7b3d 6b7a 4d3d 5339 eabc d390 9a3d
00000230: c51c a33d 856f b1bd 15ea 88bd ca11 91bd
00000240: cb80 21b9 e26c 56bc e4b2 923d a313 fa3c
00000250: 3bbe 8ebd 1919 a3bd b9de 5c3d a9ac 4fbd
00000260: 4832 583d d2f8 ae3d a87b 873d 94fa d5bd
00000270: 427f 8f3c f893 c5bc 944b 083d 28f0 573d
00000280: d6dc b03c c578 88bd 1308 84bd ab1d 94bd
00000290: d8eb b6bd d6ba 923d 1e98 ddbd 6c12 04bd
000002a0: f2e7 b33d ff9c 95bb b146 c73b 8cce b53c
000002b0: f4cc 9cbc 020d a0bb 6e1e d63c b1b7 1b3d
000002c0: 03a2 833d 1b50 26bd 534b 213d 54d1 443d
000002d0: 7250 bf3d d514 81bd 8cb6 3fbd 525c a1bb
000002e0: 8c4d d0bd 4c04 aebd 49ae 893d 02ed 98ba
000002f0: e509 b03d c975 81bd b834 2fbc f2c2 bc3d
00000300: c61c 85bd 30b7 533c a279 bfbc 2a34 d3bd
00000310: ecf3 c63c e10e 95bd bea9 e7bc 3a55 c93d
00000320: bc52 123d 84d7 f43b 1905 8abd ca28 203d
00000330: 4848 023d 3ab5 80bd b204 11bc 503b a3bd
00000340: 3cc5 ac3d b60b 59bd 0544 c5bc db84 d7ba
00000350: ffde d73c 01cf e0bd 9bd2 483d 56c6 333d
00000360: 2732 b83a f443 843c b7f8 84bd 43f0 29bd
00000370: f5e0 aebd 456f 8c3d 3888 623d 6924 47bd
00000380: eff8 d93c 139a 533d 5e9b 543d fd70 32bd
00000390: d52a 383d 0599 fe3c f142 00bc 4bfa 16bd
000003a0: e7d0 813d f9be beba ffc2 e9bc 9745 903d
000003b0: abca 5abd b7cd 80bd 33ff 3abd e7db 37bd
000003c0: 9ffd 87bd a848 45bc cc2e 42bd 4344 b2bc
000003d0: 008d 73bd 829d 693d be6f 9e3d 81a1 07bc
000003e0: b9b7 b93d 1ea6 4bbc b2ce 00bb ba44 403d
000003f0: 8e69 8e3d ecc2 9c3a 82bf 23bd 3e32 e03c
0.0769573 -0.07212386 0.060874015 0.0645512 0.06033947 -0.019301325 0.0891088 -0.06090039
0.049442153 0.031140948 -0.026009463 0.010599064 0.071043506 0.053623322 -0.054499008 -0.07632366
-0.0010594897 -0.020899735 -0.047395326 -0.039619964 0.05023732 0.014942971 0.0063048606 0.079586364
-0.00028766601 0.08749244 -0.00081686274 0.061190493 -0.009695414 -0.03710614 -0.016127123 0.050078474
0.0017276775 -0.00051344757 0.03389497 -0.0056012855 -0.0092819305 -0.0056348983 0.04575877 -0.08282154
0.08982377 -0.008628945 -0.01639282 0.077766344 -0.06274413 -0.009039111 0.025643481 -0.06726379
-0.066563845 0.065644465 -0.08352252 0.042751376 0.0010082314 0.0883098 0.10210935 -0.08552939
-0.06460324 0.0593513 0.05547289 0.046347354 -0.05011216 -0.042755786 -0.0024975913 -0.068596326
0.05281518 0.04412672 -0.06477445 0.07266872 -0.007208151 -0.060587537 -0.072014295 0.035692222
0.034628652 -0.042618264 0.036072135 0.044088744 -0.07249032 0.06013217 -0.09350751 0.072573066
-0.025998846 -0.05255445 0.08428125 -0.06678145 -0.013317815 0.08280287 -0.008698336 0.025229158
0.05316183 0.0901076 0.067065805 -0.05277823 -0.027553204 -0.07230856 0.021273632 -0.034248207
-0.03348926 -0.09473802 -0.06224788 0.0033749875 -0.05450093 0.014776834 0.054211758 0.04107723
-0.006958917 -0.04875344 -0.006921943 0.04491728 0.04526624 -0.059266955 0.07915295 -0.08517551
-0.05927795 0.10746518 0.08110476 -0.07321483 -0.036486834 0.0619564 0.009099315 -0.0034690376
-0.054257 0.039887283 0.070882566 -0.052505054 0.060576268 0.097972825 0.07442928 -0.065183565
-0.016708039 -0.01578384 0.052314084 0.0672598 0.07575909 -0.07478703 -0.046196837 -0.066588186
0.061483182 0.050165575 -0.028591787 0.07547154 0.07964472 -0.08663849 -0.066852726 -0.07083471
-0.00015402136 -0.013087483 0.07163027 0.030526942 -0.06969877 -0.079637714 0.053923342 -0.05070177
0.052782327 0.085435525 0.066153824 -0.104481846 0.017516736 -0.024118409 0.033275202 0.052719265
0.021589678 -0.0666366 -0.064468525 -0.07232221 -0.089317024 0.071645424 -0.1082003 -0.03224413
0.087844744 -0.0045658345 0.006081425 0.022193216 -0.019140698 -0.004884363 0.026137557 0.03801698
0.06427386 -0.04060374 0.039378475 0.048051193 0.093415156 -0.063028015 -0.04680495 -0.0049243355
-0.10171041 -0.08496913 0.067226954 -0.0011667314 0.08595637 -0.06321294 -0.0106937215 0.0921687
-0.06499629 0.012922093 -0.023373429 -0.10312684 0.024286233 -0.072782286 -0.028279182 0.09830709
0.035723433 0.0074719805 -0.067392536 0.0391014 0.031807214 -0.06284566 -0.008851217 -0.07970297
0.08436057 -0.052989684 -0.024080286 -0.0016442792 0.02635145 -0.10976983 0.049028974 0.04389032
0.0014053033 0.016145684 -0.06492751 -0.041488897 -0.08539001 0.068571605 0.05530569 -0.048618708
0.026607959 0.05166061 0.051905982 -0.043564785 0.044962723 0.031078825 -0.00782846 -0.03685979
0.06338673 -0.0014552764 -0.028535364 0.07044523 -0.053415935 -0.06289237 -0.045653533 -0.04488745
-0.06640171 -0.012041248 -0.04740791 -0.021761065 -0.05946064 0.057034977 0.07736157 -0.008278252
0.090682454 -0.012429742 -0.001965445 0.046940543 0.06953727 0.0011959947 -0.039977558 0.027367707

bias_ih_l0 f4 [384]
00000000: 6231 6dbd e898 6b3d 24ec 31bd 1292 d63c
00000010: 6c5c 8abc 578a 513d 3997 a9bd c1de babb
00000020: 728c 2dbd afe3 133d 1050 d8bd 4282 233d
00000030: 27a2 4f3d 4f6e abbc f326 973d 6d0c e1ba
00000040: ce97 05be 618b 203d 7713 dcbd 06aa 54bd
00000050: 134e 81bc 5358 fe3c db85 ed3d c079 3f3d
00000060: 623e 96bd 22fa a9bc ff78 fdbd caf2 c73d
00000070: 40c1 ae3d c063 5c3d d66e 9c3c 7a08 59bd
00000080: ab38 0abd 6306 653c 0588 6fbd 61b7 78bd
00000090: 58fb b1bd 4943 433d a0bb 98bc c086 293d
000000a0: dd56 943c c1ac 47bd 2d99 92bc a84c b93c
000000b0: cb48 7fbd c70a bbbd fa11 8cbd 3310 e2bc
000000c0: 7610 fe3a 0d2a 93bd 269f 94bd 3ed2 f0bc
000000d0: fbbe 823d 06d4 a3bd 4941 1fbd 6f54 52bd
000000e0: 7ddc c03c 7d98 2e3d 4421 9ebc b190 d73c
000000f0: 1a8a 92bd 43a8 45bd dcff 373d 3d40 873c
00000100: d981 35bd fbbd 0cbd 8773 92bd 4d9f b2bd
00000110: 27fe c9bd e9f9 c23b fabc 24bd 800d 4f3c
00000120: 67a0 96bd b402 223d aafb 06bd d1cc 803d
00000130: 9c8d 553d 4899 88bc b2f1 16bd df82 01bd
00000140: 270f cabd e6f5 0abe fea4 31bd c73d 2abd
00000150: dbb4 213c 07fc 24bd 37fd 0a3c 0f47 15be
00000160: 7b45 9e3c 9bf4 2e3c 4cb3 06be 8208 f3bc
00000170: ee64 edbc f9b2 9e3c 3a62 ecbc bcd8 cdbd
00000180: 0d73 8abd aab8 573e e3dd 883b 9703 77bd
00000190: 051c a4bb 1634 aabc 1f8d 77bd b967 813c
000001a0: e284 8dbd 0529 febb 5f29 883d 74bf 9ebd
000001b0: 6ed4 95bc 14db be3b 236e cdbd 0c90 d83c
000001c0: a506 753d 5e84 99bd 3b30 71bd 70b0 1f3d
000001d0: 9a65 313d 11a6 05bc 8e80 ab3c d6a3 5cbd
000001e0: 5bc4 01bd 4d9d 943d 6475 8e3d 13bd 9b3d
000001f0: 2667 823d 41aa 16bd 4d02 123d 3311 7a3d
00000200: 6a44 95bd e6d1 1cbd ef96 b23c c71a 3a3c
00000210: 64f8 b63a 4d0b 3ebc f0e9 df3c b235 87bd
00000220: 1c17 5c3d 98f0 173b d2f7 16bd 048e 643d
00000230: 2cf6 2ebc 3642 50bd a857 39bd 1a34 713d
00000240: 91b0 3f3c c763 ac3d 999b d4bc e81d 823c
00000250: 051c 9e3d ac35 cdbd b70d 52bc 0ea2 06bb
00000260: 9fbb b0bd 8f90 ab3d f980 b23d ee37 39bd
00000270: 1e5d 8d3d 6151 b03b 7199 08bd 76e6 ed3d
00000280: 4e9e 1e3d 66d3 393d 70f5 ce3d f935 68bc
00000290: 176c de3d 1ca1 913d db4d 9a3d 904a 81bd
000002a0: a738 a63c 54f8 673d 3e93 6d3c 4206 a9bd
000002b0: 4d03 493d 70c6 12bd 9e26 c33d 2846 b93d
000002c0: 6013 bf3d 8dd0 b93c 2d50 5a3c 8792 c9bd
000002d0: b3ea 893d a95b ca3d 2386 9d3c 472f 97bc
000002e0: 5eb1 f83d e577 47bd 8204 a73d e7e4 903d
000002f0: 454a 01bd a34c 4cbd 28c3 e03d 87b5 1abd
00000300: e5a4 123c cdb6 febc e69d 513d 4f83 ba3b
00000310: eb40 613c 3d56 1d3d 834d 373d bdfd c53d
00000320: ed52 233d 7e18 a73d 6805 ebbc 1c2e e53d
00000330: 85f0 2c3d 8d88 753d da09 153d 0ddf 933d
00000340: deb9 97bc 4a09 283d 8d63 13bd 94d6 033e
00000350: 0d23 4d3d e45f 233d 1d88 c53c 52be 6d3d
00000360: 0b2b aa3b b0be a23d c99b 5e3d 10b9 c33c
00000370: 5a95 d53d c26a 063e 688c 45bc 11fa e43c
00000380: 166b bbbd fffc b43d 98da 043e f8e3 4d3d
00000390: 986f c8bc f7e6 cc3d 3469 aa3d cae9 ad3d
000003a0: a181 873d 41f0 7fbd b814 bb3d 47c8 2a3d
000003b0: 90e1 c83d 1973 1ebb cb55 833d 05a0 ad3d
000003c0: cbea f1bc 03c9 d33c ff8a 773b 4010 0d3e
000003d0: 65e1 053e a14c 74bd 9562 a83d 69be 073e
000003e0: e8ab 29bd a1ae bf3d 16b2 313e 19e7 833c
000003f0: 9875 27bc ad59 6a3d 0111 2b3d 377b 483d
-0.057908423 0.05751887 -0.043438092 0.026192699 -0.016889773 0.05115732 -0.082807966 -0.005702824
-0.042370267 0.036105808 -0.10562146 0.039919145 0.05069175 -0.020926623 0.07380476 -0.0017169841
-0.1304619 0.039195422 -0.107459 -0.05191996 -0.015784299 0.031047976 0.115977965 0.04674697
-0.07336117 -0.020749155 -0.12376594 0.09763105 0.08532953 0.053806067 0.01909582 -0.0529866
-0.03374545 0.0139785735 -0.058479328 -0.06072176 -0.08690518 0.04767159 -0.018644154 0.041388273
0.018107826 -0.048748735 -0.017895306 0.02261956 -0.06232528 -0.09132915 -0.06839366 -0.027595615
0.0019383568 -0.07185755 -0.07256918 -0.029397126 0.06384083 -0.07999425 -0.03888062 -0.051350053
0.023542637 0.042625893 -0.019302972 0.026314111 -0.07155247 -0.04825617 0.04492174 0.016510123
-0.044313285 -0.034360867 -0.07150941 -0.087217905 -0.09862929 0.005950202 -0.040219285 0.012637496
-0.07354813 0.03955336 -0.03295485 0.06289066 0.052137002 -0.016674653 -0.036851592 -0.03161895
-0.09866171 -0.13570365 -0.04337024 -0.04156282 0.009869779 -0.040279415 0.008483223 -0.14577888
0.01932024 0.010678436 -0.13154334 -0.029667143 -0.028978791 0.01937245 -0.028855432 -0.100511044
-0.067602254 0.21066537 0.0041768416 -0.060306158 -0.005008223 -0.02077679 -0.060437318 0.01579653
-0.06910111 -0.0077563548 0.06648516 -0.077513605 -0.01828977 0.005824456 -0.100307725 0.026435874
0.05982079 -0.0749595 -0.058883887 0.038986623 0.043309785 -0.008157269 0.020935323 -0.053867184
-0.0316814 0.07256565 0.06955984 0.076044224 0.0636733 -0.03678346 0.035646725 0.06105156
-0.072884396 -0.038286112 0.021800486 0.011358923 0.0013959524 -0.011599374 0.02733323 -0.066020384
0.053732976 0.0023184177 -0.036857434 0.0557995 -0.010678809 -0.050844394 -0.04524961 0.05888758
0.011699812 0.084174685 -0.025953101 0.015883401 0.07720188 -0.10020003 -0.012820653 -0.002054337
-0.08629536 0.08377182 0.08716006 -0.045219354 0.06902526 0.005380795 -0.033349458 0.116162226
0.03872519 0.04536762 0.10105407 -0.014173024 0.1086046 0.07110807 0.07534381 -0.0631305
0.020290686 0.05663331 0.014500437 -0.08253147 0.049075413 -0.035833776 0.0952885 0.09046584
0.09329867 0.022682453 0.013324779 -0.09842401 0.067342184 0.09880764 0.019229 -0.01845516
0.12143205 -0.048698325 0.08155157 0.0707491 -0.03156497 -0.049877774 0.10974723 -0.037770774
0.008950447 -0.031093026 0.051175974 0.0056919227 0.013748388 0.03841232 0.044751655 0.09667537
0.039874006 0.081589684 -0.028689101 0.11190435 0.042221565 0.059944678 0.03638635 0.07220278
-0.018521246 0.041024484 -0.03598361 0.12874824 0.050082255 0.03988637 0.024112755 0.05804283
0.0051931194 0.07946527 0.054347787 0.023891956 0.10428877 0.13126662 -0.012057401 0.027951272
-0.091512844 0.08837318 0.12974012 0.050266236 -0.024467275 0.100049905 0.08320847 0.08491857
0.066165216 -0.062484983 0.09134811 0.041694906 0.09808648 -0.002417749 0.06412848 0.08477787
-0.029530903 0.025852686 0.0037772057 0.1377573 0.13074262 -0.05964339 0.08221928 0.1325623
-0.04142371 0.0935948 0.1735309 0.016101407 -0.010220908 0.057214428 0.041764263 0.04894563
