storage/GridCityTest/model.pt (torch_old, 630225 bytes, 16 tensors)

weight_ih f4 [300, 75]
00000000: b237 b83d 8566 b1bc 3de6 e93c af78 5e3d
00000010: 816c c5bd 67bf 1b3e fe3c 023e 3931 4b3e
00000020: 9e82 243d fe3f cf3d ad1e 883d ff22 663d
00000030: d0d7 c53d 2e6f 21bc 78d3 613c 2c3b 103d
00000040: 6e66 cd3d 4b7b c23d 5fb1 2d3e fea4 db3d
00000050: 9731 d2bc dbcc 383c cfb3 aa3c df09 d6bc
00000060: e7e6 ccbc db72 963c c13e 443e b924 933d
00000070: adfd a1bd 1cf1 b63d 08d0 a13d 01c1 123e
00000080: b0bd 953d 4588 13bd c357 bebd 8eae c4bc
00000090: d352 333e 257d a7bc 53e1 c33b daca 5bbd
000000a0: 088f 573e ecb9 383d 4d7c e13d b5ee 2cbd
000000b0: 58c3 67bb f319 a33d c300 21bd b133 c03c
000000c0: cf27 2dbd ee27 d7bb ab62 e3bd 90f3 b23c
000000d0: 0193 793d 3a7c b13c 688c eb3d 48a0 363d
000000e0: 59ab c73d be30 10bd b868 1bbd 3c08 103c
000000f0: d5c0 98bd 8b69 7c3e ae91 8f3d b548 20be
00000100: 0990 84bd cd67 90bd 10ad b9bd e379 30bd
00000110: 55f0 4abe 8f6c a1bd addb 7c3d e388 0dbd
00000120: 56f4 503d 7755 ea3d b44b 1b3d 7cfb 003e
00000130: 7c04 763e 4741 7b3e 0586 12bd 2aae 203e
00000140: f8e9 efbd 7e08 b0bd 2353 073e 4214 c23d
00000150: 2c4e 463e 7e50 22bd 590a 383c 7873 373e
00000160: dd7c a4bb 5bfc e63d 325f 8abc 786b bfbd
00000170: ffbe ee3c d2a1 72bd d212 32be d9b1 52be
00000180: 929c 793d 0e8c ec3c b2a2 c4bc 744b 2dbd
00000190: de7c 363e 296a d03b ff8d 0b3e 8836 8a3c
000001a0: 0a3c 3ebc cbad c2bc 30ee b73e 97af 27be
000001b0: a036 4dbd c908 34be 2c6f 893d 7776 a13d
000001c0: ebd0 153e 5306 09be 9089 6c3c ceb6 683e
000001d0: 91ee 233e 76ba a43d 46b5 63bc 05f8 8e3d
000001e0: 1b9b 99be b91c 943d c6c2 c83d bc68 15be
000001f0: 3998 993d 9517 83bd c39a 48bd b23d a2bc
00000200: ba4a 4f3c 688b db3d 860e 31be 36d5 abbd
00000210: a05f 9c3e ef60 ae3e 08bf 973e 135a a83d
00000220: f02e b3bd 9854 f43c 6432 55be 9d96 c6bd
00000230: a1b8 c9be 9444 f7bd 114e 2fbe 073b 463e
00000240: 3d85 dd3d 7a45 afbc f036 45bd 1571 193d
00000250: d58e 7fbd fc41 9f3d 4618 6ebd 3a1f ab3e
00000260: 789a 0a3e b4a9 0a3e d461 9cbd e5c0 56be
00000270: 84b7 84bd 636e afbd 157c c33d 28d2 eebd
00000280: b0dd dfbd 1a88 033e 41e6 b03d d22b 4a3e
00000290: 600e 8cbd e6b4 5abd d46f aabd c29a 7fbd
000002a0: 52da a5bd 3930 dabd 9090 95bd 37c6 263e
000002b0: b5a2 613d 498b 573d 6783 f63d e921 1d3d
000002c0: ff9f b63e e5b6 853d 79cc 40be d454 a63d
000002d0: 8e07 12be dee7 5f3e 3e90 d2bd dc7a 65be
000002e0: e66e 16be 6888 0e3e 042f 9f3d f762 bebd
000002f0: 5062 18be 5bbd 7fbd 895b ca3d e01e fe3d
00000300: 0a61 c4bd 34c8 d6bd ad9c 153c f827 c9bd
00000310: af3a 083e 968e d03d 1361 033e 8750 98bd
00000320: 10ee e43c 6c50 afbd f115 d63d 3f38 3cbd
00000330: 2c72 8e3d 101c 92bc ceb9 4cbe e7d2 a9ba
00000340: 5127 82be 002f 383d 68c4 903c e9c9 f7bd
00000350: d5b8 d4bd 5cf9 91bd 442e ce3d f485 963e
00000360: 53ba 653e 0bbd a0bd 9ef0 9b3d 3e41 613e
00000370: effb b2bd f1e4 563d 7114 b0bd b959 e9bd
00000380: ec38 673d bd44 3ebd b532 c5bd e690 b53c
00000390: 6b6c 873d ec5e 423d b9b4 fcbd c645 88be
000003a0: 05d6 2d3d 3a54 01bd 81fa 24bd f090 423d
000003b0: ac86 1dbe 3ec1 9e39 984b 1a3d f9ba 21be
000003c0: e6a3 a0bd 0ab4 7bbd d5d4 20bb dfbe 1c3d
000003d0: 22dc 23be a626 5c3d d1d5 1bbe 9dd0 ddbd
000003e0: a111 09bd f6ab db3d 292e 303e e196 d2bd
000003f0: cbd4 bc3d 2583 3b3e 58c5 9c3d 971f ab3d
0.08994998 -0.02165533 0.028552169 0.05431431 -0.09639836 0.15209733 0.12718579 0.19842996
0.04016363 0.101196274 0.06646476 0.05618572 0.096603036 -0.009853167 0.013783328 0.03521268
0.100293025 0.094961725 0.16962193 0.10724829 -0.025658412 0.01127931 0.020837693 -0.026127754
-0.025012447 0.018365314 0.19164564 0.07184739 -0.07909713 0.08932707 0.07901007 0.14331438
0.07311571 -0.03601863 -0.09294083 -0.024009015 0.17512064 -0.020445416 0.0059777885 -0.05366025
0.21050656 0.045099184 0.110100366 -0.042219836 -0.0035364237 0.07963934 -0.039307367 0.023462148
-0.042274293 -0.0065660393 -0.11102804 0.021844655 0.06093121 0.021665681 0.1150139 0.04458645
0.09749479 -0.035202734 -0.037941664 0.008791026 -0.07458655 0.24649636 0.07010208 -0.15652736
-0.06472785 -0.070510484 -0.09066212 -0.04308499 -0.19818242 -0.07882034 0.061732937 -0.034554373
0.051014267 0.114420824 0.037913993 0.12595934 0.24025148 0.2453662 -0.035772342 0.15691438
-0.11714548 -0.0859537 0.13215308 0.0947652 0.19365758 -0.039627545 0.011232936 0.17915142
-0.0050197677 0.11278602 -0.016891096 -0.0934667 0.029143808 -0.059236355 -0.17389992 -0.20575656
0.060940333 0.028875377 -0.02400336 -0.042308286 0.1782107 0.0063603115 0.13628386 0.016871706
-0.011610994 -0.023764512 0.3592391 -0.16375576 -0.050100923 -0.17581476 0.067106575 0.078839235
0.14630477 -0.13381319 0.014437094 0.22725984 0.16008975 0.08043377 -0.013898199 0.069809
-0.3000115 0.07232041 0.09802775 -0.14590734 0.07499737 -0.06400982 -0.048975717 -0.01980481
0.012652094 0.10719949 -0.17290697 -0.08390276 0.30541706 0.3405833 0.29637933 0.08220305
-0.08749187 0.029825494 -0.20820004 -0.09696696 -0.39398673 -0.12073627 -0.17119624 0.19358455
0.10816429 -0.021395434 -0.048148096 0.03746136 -0.062392075 0.077762574 -0.058128618 0.3342226
0.13535488 0.13541299 -0.07635847 -0.20972021 -0.06480315 -0.085659765 0.09545151 -0.11661178
-0.109309554 0.12844887 0.086376674 0.19743279 -0.06838679 -0.053395174 -0.08322111 -0.062403448
-0.08098282 -0.10653729 -0.07302964 0.1628655 0.05508681 0.052623067 0.12036782 0.038362417
0.35668942 0.06529025 -0.18828 0.081216484 -0.14260694 0.21865794 -0.10281418 -0.22410148
-0.14690742 0.13919222 0.077726394 -0.0929622 -0.14881253 -0.062436443 0.0988074 0.12408233
-0.09588821 -0.104874045 0.009131593 -0.098220766 0.13303636 0.10183446 0.1283 -0.07437234
0.027945548 -0.08560261 0.10453404 -0.045952078 0.0695537 -0.017835647 -0.19992754 -0.001295653
-0.2542062 0.044966698 0.017671779 -0.12099058 -0.103868164 -0.0712764 0.10067418 0.29399073
0.22434358 -0.07848557 0.076142535 0.21997544 -0.08739459 0.05246443 -0.08597649 -0.11394066
0.05645077 -0.046452273 -0.09628812 0.02216382 0.06612476 0.047453806 -0.123391576 -0.26615733
0.042440433 -0.031574465 -0.04027796 0.047501504 -0.15383404 0.00030280085 0.037669748 -0.1579398
-0.07843761 -0.061450996 -0.002454092 0.038267966 -0.16001943 0.053747796 -0.15218283 -0.108308055
-0.033464078 0.10726158 0.17205109 -0.10282684 0.092202745 0.18311746 0.07654828 0.08355635

weight_hh f4 [300, 75]
00000000: 4bd6 eebd 5b65 eabd 19d0 1e3d 2c15 c23c
00000010: b0e4 9c3d f799 39bd 8b31 64bd 39f4 dd3c
00000020: 5288 e83d 1300 113c 24cf 3abc f392 4bbc
00000030: 224e 13bc 7229 c9bb 2d66 d2bd 812a 5b3d
00000040: 6833 50bd 79ef bebd 1d15 633d d3f1 083e
00000050: 3955 86bc e58b a23d b34e ee3c fd8d 14bd
00000060: 7399 73bd c301 55bb 4bb2 39bc 7efe 72bd
00000070: 52f6 b4bd 735d 9f3d b510 ab3d f0ba f3bd
00000080: 7951 40bd 87d6 d6bc 179e 5dbd 4fa6 b23b
00000090: 4718 303e ce79 713d 9ddc bcbd e8e4 ca3d
000000a0: afd8 ad3a 6ccc 9abd 427c a8bd 6b41 e63d
000000b0: f92b 0bbc f63b 5ebc 143d d43d bfd1 ec3d
000000c0: fc73 1d3d 8259 e2bc 632b 88bc d63a 943d
000000d0: 63a2 fa3c 47fa bf3d 6f2c 56bd f7b1 6d3c
000000e0: f5b0 bdbd 9cc0 be3d da9c 113e 72ef 6a3d
000000f0: f6e1 143e d215 b4bd f5f6 ed3d b4fe 223d
00000100: 9d8b f5bd 809a c8bd 5f89 223e 463c fdbd
00000110: d62a f3bc 9b9e a63d c6e5 ad3d f748 e5bd
00000120: 097b 203e fe33 173e e79a cdbd 32a4 18be
00000130: 0ee3 3abd 2afb 5ebc 1bfb 0f3d 30e3 363e
00000140: 2d1c 57be 4484 0dbe 9bf6 b83c aee5 4cbe
00000150: 2bc9 fd3d 76ce 8abb 1656 a1bd 4b29 82bd
00000160: d3b8 36be a88e 133d 3bb5 a63d 5b3b 32ba
00000170: b54a 88bc e476 e63d 53a5 fa3c e4f4 123d
00000180: fc48 0a3d 8c30 473e 05fa b53c 9069 1fbe
00000190: d02e 09bc dac9 c03d 8512 56be de2f a0bd
000001a0: 1b4f 84bd 4ff0 5fbe ce67 c4bc 4050 343c
000001b0: b6c8 193e fc75 0cbe 3c75 fe3b 1466 163e
000001c0: 2cb8 c03d 4dd0 a7bd c78a a5bd bd9f ba3d
000001d0: 82c9 293d 9021 b1bc 4f40 0cbd f2b4 75bd
000001e0: 659c 043c b5df bb3d a013 373e e16d dbbd
000001f0: 4d17 463e 3fa6 63be fa7a 0f3d 1bb8 0abe
00000200: d4db 50bc f0b0 83bd f564 0a3e e127 a43d
00000210: c48d 933d cc1f 2a3e 52ae 0f3d fb6c a93d
00000220: 1665 1fbd 3b49 a5bd 4cd9 0c3e d18c 57be
00000230: fe39 df3c 05a8 9cbd c800 30bd 9ba3 763e
00000240: 07a2 703d dafb 433a edc3 bdbc fe9a cf3d
00000250: 4ba5 e33c 034e 913d 71e3 973d d88b ca3d
00000260: c514 d0bd 1245 9a3b b9ad 9c3d ce2f b13d
00000270: 24a9 51bd 0120 ce3d 3ab1 1abe ea91 60bc
00000280: 0102 443d 3717 07bd befd 05be cde6 3fbc
00000290: 4f9e 323d 79c6 d43d f84b 56bd e811 283e
000002a0: 62d5 e4bd ec26 b93d c443 393d 50a2 e63c
000002b0: 7a40 beba dcab 04bd 36c3 1b3d a97a 8ebc
000002c0: f4c5 8b3e 2650 efb9 448a ffbd 4580 20bd
000002d0: c535 3fbe 5f94 a3bd 1fa7 e2bd a23e 103e
000002e0: c128 24be 16f1 4dbe f5e1 493e f0bf b0bb
000002f0: f132 26be c7d5 de3d dd2c ad3c 81f9 a5bd
00000300: e7e5 343e a548 783d 4bb2 19bd cbba e8bd
00000310: c869 6dbd 6bb4 103e 8d72 e8bb a870 773e
00000320: 7bdc 32bd 617b 81bd d7fb 4a3d 8d30 973c
00000330: b930 3e3d 0abe 923b 3170 eb3c 5edd 0d3e
00000340: 0b46 7ebe 5bf0 19bd 470b 313d d330 03be
00000350: 1e69 30be c2a9 7a3c 8b77 013e 37dd 043d
00000360: 4f35 9f3c ab76 733e e76d af3d 8b27 c5bd
00000370: b9c9 91bd 61cb 3a3d 58a6 8fbd 0459 45bd
00000380: 75f0 213e 46d9 e53d f1a6 40bb 583b aa3d
00000390: 1282 d03d 1a87 24bc 2b82 e73d d6cc b43d
000003a0: 3086 153e 6f0a 2dbc 06ef 9f3d 2e02 39bc
000003b0: 8aba 3d3d ab77 ed3d 872c 493d 218e d03c
000003c0: baf0 58bd a659 203e 3bf9 94bd 247f 493e
000003d0: c372 11bd 5c0a 08be 23fa b1bd 7d73 9a3b
000003e0: c175 cc3d dcdf b63d 066c 563d d5fe d8bd
000003f0: 21f1 283b 32a2 473d 149f e53d d174 1fbd
-0.11661967 -0.11445113 0.038772676 0.023691736 0.07660806 -0.045312848 -0.05571131 0.027093993
0.11354126 0.008850115 -0.011401925 -0.012425172 -0.008990796 -0.006138974 -0.10273395 0.05350733
-0.050830275 -0.093230195 0.055440057 0.13373499 -0.01639806 0.07936839 0.029090261 -0.036268223
-0.059472512 -0.003250227 -0.011334012 -0.059324734 -0.08836044 0.07781496 0.08352796 -0.1190089
-0.0469527 -0.026225341 -0.054105844 0.0054519544 0.17196761 0.058954053 -0.09221766 0.09906942
0.0013263429 -0.07558522 -0.08226825 0.11242946 -0.008494371 -0.0135641005 0.10363212 0.115634434
0.03844069 -0.027630571 -0.01662225 0.072377846 0.03059501 0.093739085 -0.05228847 0.014507762
-0.092622675 0.09314081 0.1421999 0.05735726 0.14539322 -0.087932244 0.11619369 0.039793685
-0.1198952 -0.097950935 0.15872715 -0.12365012 -0.029683512 0.0813572 0.084910914 -0.111955576
0.15671934 0.14765927 -0.10039311 -0.14906386 -0.045626692 -0.013609687 0.035151582 0.17860103
-0.21006842 -0.13819987 0.022578528 -0.20009491 0.12391885 -0.004236038 -0.07877748 -0.06355532
-0.17843942 0.03602472 0.08140036 -0.0006799006 -0.016637186 0.11253145 0.03059641 0.035878077
0.03376101 0.19452113 0.022213945 -0.15567613 -0.008372977 0.094135 -0.20905502 -0.0782163
-0.06460401 -0.21869014 -0.02397528 0.011005461 0.15017971 -0.13716882 0.0077654403 0.14687377
0.09410128 -0.08194027 -0.0808311 0.09112499 0.04145194 -0.02162245 -0.034241017 -0.059987016
0.008093928 0.09173528 0.1787858 -0.10714317 0.19344826 -0.22231387 0.03502939 -0.13546793
-0.012747724 -0.064302325 0.13515075 0.08015419 0.07204774 0.16613692 0.035078354 0.082727395
-0.038914762 -0.08070608 0.13754767 -0.21049811 0.027249333 -0.07649235 -0.042969495 0.24085848
0.05874827 0.00074761885 -0.023164714 0.10136984 0.027788779 0.07094958 0.07416428 0.09889954
-0.101602115 0.004707941 0.076503225 0.08651696 -0.051186696 0.10064698 -0.15106669 -0.013706664
0.047853474 -0.032981124 -0.13085076 -0.011712742 0.043608006 0.10389418 -0.052318543 0.1641308
-0.11173512 0.09040627 0.045230642 0.028153569 -0.0014515065 -0.03239046 0.038027965 -0.017392473
0.27299464 -0.00045645348 -0.12477544 -0.039184827 -0.18672855 -0.07987284 -0.11067032 0.14086393
-0.16031171 -0.20111498 0.19715102 -0.0053939745 -0.1623037 0.108806185 0.021139557 -0.0810423
0.17665826 0.060616154 -0.03752355 -0.11363753 -0.05796221 0.14131324 -0.0070937336 0.24164069
-0.043667298 -0.06322361 0.04955658 0.018455768 0.046433184 0.004478221 0.02874002 0.13853976
-0.24831407 -0.037582736 0.043223646 -0.12811594 -0.17227599 0.0152992625 0.12643258 0.03243753
0.0194346 0.23775737 0.08565884 -0.09626683 -0.07118554 0.045604113 -0.070141494 -0.048180595
0.15814383 0.11223082 -0.002939638 0.083121 0.10181059 -0.010041976 0.113041244 0.08828132
0.1460197 -0.01056157 0.07809262 -0.011292024 0.046320476 0.115950905 0.04911473 0.025458397
-0.05296395 0.15659198 -0.072740994 0.19677407 -0.035509836 -0.13285202 -0.08690288 0.0047134743
0.09983397 0.089294165 0.052349113 -0.1059548 0.002577849 0.048738666 0.11211982 -0.038929764

bias_ih f4 [300]
00000000: 925d 773c 9648 cc3d 0c8a 73bd a373 bbbc
00000010: 6f63 c93d 15ab b33d 5704 e73d 1466 b5bd
00000020: 3acf ac3d 84ec 9e3d ddeb 983d f9b2 1ebd
00000030: e597 81be 9abe 063e eaf8 e5bc 4aee 3a3d
00000040: e80e 673d 53eb f1bb 9e59 253e 5a4e bebd
00000050: bf78 be3c 5bed 683d a630 093e 5009 bd3d
00000060: 29f8 1d3e 5f17 4dbd faab f43d 117d 313d
00000070: cdc6 cfbc 9c43 b33d 2746 193e a75c 2f3e
00000080: 4a11 5f3d 41ce fa3c e90a a6bd 3a4d 813d
00000090: a31d 3a3e 1cfa 363e 4b29 773d b1e8 2f3e
000000a0: 49ee d2bd 8592 1cbd a0f9 adbd 5ad9 b23d
000000b0: ce49 31bd 3d7d b73c b350 26bd 572a 603d
000000c0: 57db 2c3e 9b9c f4b9 461f 6abd 92ff 05be
000000d0: db71 8d3b 927e a13c 39bd 513d cc82 cd3d
000000e0: 1d7c e8bd 249e 01bd 7d27 ce3d b6d3 df3c
000000f0: 9060 2a3d ae89 bf3a 36df 4c3d b085 84bd
00000100: cff1 f43b a159 e63d e373 e0bd 3e5c 903d
00000110: c1f2 263e d50d 063e 052e 2dbd c12f e83d
00000120: dd50 84bd 0e08 463d 3454 a7bd b624 2fbe
00000130: ecc3 9cbd 000c 79bd abc5 e13d 6683 babd
00000140: 6f0c fb3b e169 babb 4c07 043e 151d 803d
00000150: e759 cc3d 361f 68be 4bdc 2e3c 0a8f 303e
00000160: e73a 0bbd ec8d 2c3c faaa d5bd 22c8 ee3d
00000170: d366 943c 8447 643d 956c 0e3e 3227 9f3d
00000180: 9d0f babd d4ab 24be c2f1 87bd f851 4cbd
00000190: 77b5 893d 359e 41be b7ff 983c eaf1 853d
000001a0: 8fb2 4abd 8838 3cbd deff 35be cf0b aabd
000001b0: b4e8 253d 1cc9 1c3d d669 9dbd 0d7b c8bd
000001c0: cf1b 86bb b452 6fbd eeef 60bd 9aa6 bbbd
000001d0: 1210 19bd 981a 3dbe 5da6 b6ba 5f8b abbd
000001e0: a8d4 99bd cd2c 05bd 1e4d 99bd d94a d33b
000001f0: 838f d0bd 196d 12be e134 53bc b58e 58be
00000200: 0466 18be 0605 5b3d 62be 17be 4247 f93c
00000210: a6ed e8bd 48e4 c53d 4c8d d3bd 5101 de3c
00000220: 1bc1 b1bd a52f 2b3e 1c4f c73c 9232 743d
00000230: f31b c2bd 2941 46bd a312 cbbd 2a0c 67be
00000240: a9f1 f7bd d6db 23be 5e72 3bbd b119 c7bd
00000250: 422f 1cbb 8779 a1bd e7d7 08be 9b23 0dbe
00000260: 6751 17be df93 953c cfeb 6c3d ecb4 583d
00000270: 5b11 823d 9dac 023d cbd7 fdbd 5e41 283d
00000280: 931c 013d 6a5e fd3d 9249 b43d bca2 d5bd
00000290: 5814 203e 505c f7bd ddec 07bd c329 f3bd
000002a0: bd69 663d 4afb e23d cfba c6bd 7568 9dbe
000002b0: dfd2 5b3d a94b a7bd dcbe cdbd a11d 2cbe
000002c0: f23a 00be fdf6 3dbe 578a aa3d e7b6 31bd
000002d0: 215d 023e d0b7 f5bd 124b 933d 6350 5dbe
000002e0: 3d6a c13d 2bb0 ae3d 7270 e43c 8b3b 943d
000002f0: 9969 9bbc 4245 983d 207f 12bd c913 203e
00000300: b847 ab3d e54d 213e b59d ff3d 9374 f0bb
00000310: 7e3b 9c3d 0050 433e 8f7d a2bb 7e8d c63d
00000320: 2053 3abe 6bc5 1f3c f2e8 29be f895 653d
00000330: d820 e7bc ee3d 163e cc30 99bd a179 4abe
00000340: eb01 873d 9e21 1dbe 547c 5e3c 2fbe d03d
00000350: 55bc 123e a280 0dbe ed39 00bd da1c 55bd
00000360: badc 103e e9ab 55be a8ef 06be 40b8 083e
00000370: 5989 2ebd c249 84bd dc2c 91bd 33d1 083e
00000380: 2c50 a1bd 35b6 b2bc bc89 1fbd b8ba 39bd
00000390: 4d24 00be 82cf fabc c8fc c83a 7d09 683d
000003a0: 74a9 663d ee18 413d b64a 383e ca20 173d
000003b0: 329b 9f3b d342 303d d550 ca3b 9112 a0bd
000003c0: a24d 893c 6bcd b83c a1e3 3b3c a501 0b3e
000003d0: 3040 8abd 317c 063d aed8 ef3c 733b ab3d
000003e0: 82b5 58bd 2735 3aba 9875 04bd 5fff 4b3e
000003f0: ab99 9abd 6d9e 3abe 4080 1d3d 4348 0e3e
0.0150979925 0.09974782 -0.059457824 -0.022882288 0.098334186 0.08772866 0.11280125 -0.088573605
0.08437963 0.077599555 0.07466862 -0.0387449 -0.253112 0.13158646 -0.028072793 0.045637406
0.0564107 -0.007382789 0.16147467 -0.09292288 0.023250936 0.056866985 0.13397464 0.09230292
0.15426697 -0.050071117 0.119468644 0.043332163 -0.02536335 0.0875313 0.14968167 0.17125188
0.054459848 0.030615928 -0.0810755 0.06313558 0.18175368 0.17868847 0.060342114 0.17178608
-0.102993555 -0.03822567 -0.08494878 0.08732863 -0.043283276 0.022398585 -0.040604305 0.05472788
0.16880547 -0.00046655987 -0.05715873 -0.13085774 0.004316551 0.019713674 0.051205847 0.10034713
-0.11351798 -0.031644955 0.100661255 0.027322631 0.041595995 0.0014613175 0.050017558 -0.06470811
0.007475115 0.11247564 -0.10959604 0.07048844 0.16303541 0.13091214 -0.042280216 0.11337233
-0.06460736 0.048347525 -0.08170357 -0.17103848 -0.07654557 -0.06080246 0.1102403 -0.091070935
0.0076613943 -0.0056888913 0.12893409 0.06255547 0.09978085 -0.22668156 0.010672639 0.17242065
-0.03399172 0.010531884 -0.10433002 0.11659266 0.018115437 0.055732265 0.13908608 0.07771148
-0.09085009 -0.16081172 -0.066379085 -0.04988286 0.06724065 -0.18908007 0.018676622 0.06540282
-0.049486693 -0.04595235 -0.17773387 -0.083030336 0.040505126 0.03827773 -0.07686202 -0.09789095
-0.0040926705 -0.05842848 -0.054916315 -0.09162636 -0.03736884 -0.18467176 -0.0013935078 -0.08376192
-0.07511264 -0.03251343 -0.07485412 0.0064481315 -0.10183623 -0.1429943 -0.012891025 -0.21148188
-0.14882666 0.053471588 -0.14818719 0.030429486 -0.11373453 0.09662682 -0.103296846 0.027100237
-0.0867941 0.16717394 0.024329714 0.05961854 -0.09477987 -0.048401985 -0.09915664 -0.22563234
-0.1210664 -0.1600183 -0.045763366 -0.09721697 -0.0023831879 -0.078845076 -0.1336361 -0.13783114
-0.14777146 0.018258987 0.057842072 0.052906916 0.063509665 0.031902898 -0.12394675 0.041077964
0.03152139 0.12371524 0.08803095 -0.1043143 0.1563276 -0.12078154 -0.033184875 -0.118732
0.056253184 0.11083086 -0.097036 -0.30743757 0.0536679 -0.08168728 -0.10046169 -0.16808178
-0.12522486 -0.1855125 0.083271675 -0.04338732 0.12730838 -0.1199795 0.07192053 -0.21612696
0.094440915 0.08529695 0.02788565 0.072379194 -0.018971251 0.07435085 -0.035765767 0.15632547
0.08363289 0.1575237 0.12481252 -0.0073381155 0.07628535 0.19073486 -0.0049588154 0.09694956
-0.18195772 0.009751658 -0.16592768 0.056051224 -0.028213903 0.14672062 -0.074800104 -0.1977296
0.06592163 -0.15344855 0.013579447 0.10192525 0.14329655 -0.13818601 -0.031305242 -0.052029468
0.141467 -0.2086636 -0.13177359 0.13351536 -0.042611454 -0.06459381 -0.07088634 0.13361053
-0.0787662 -0.021815399 -0.038949713 -0.045344085 -0.12513848 -0.030616526 0.0015334124 0.056649674
0.056313947 0.047142915 0.1799725 0.036896504 0.0048707956 0.04303248 0.0061741867 -0.07816041
0.016760651 0.022558888 0.011467845 0.13574846 -0.06750524 0.032833282 0.029278126 0.083609484
-0.052907474 -0.0007103257 -0.03233871 0.19921635 -0.07548841 -0.18224497 0.038452387 0.13894753

bias_hh f4 [300]
00000000: 6d06 963c 8a4d 993d 804a e3bd 62a6 f6bd
00000010: ee35 183e 06ce 3ebd 84e3 033e cd0f 44bd
00000020: 3f97 3c3e 58d7 593d 7293 433e d392 7abc
00000030: d587 69be b93f ce3d c84a b23d ec2a a2bc
00000040: 3f12 053e 5c6e dc3d d68f 9d3d e3b5 e6bd
00000050: 5ab7 8bbb bcf8 293e 559b a23d ef89 94bc
00000060: a0ef 393e c63d d93d 1265 093d 8848 59bc
00000070: 0744 29bd 9cf3 57bd 1cca 30bc 813f 653d
00000080: b765 b13d c35f 833a dbda 1abe e132 293e
00000090: 8c47 d73c 767b f73d 6b8d c53d e3a9 243e
000000a0: 12b3 50bc c308 c63d 0e81 633d 2bea f03d
000000b0: f0c5 87bc 149e 73bb 4452 58be 9c88 96bd
000000c0: b0e1 863e 53f6 afbd c707 e7bd 662d 41bd
000000d0: 41f2 563d 948c c83d ff37 2c3d 100c fd3d
000000e0: 223e e7bd 8efd c33d c382 a83b 8d37 10be
000000f0: f165 ea3d 468e d3bd b3d9 403e 834c 823d
00000100: ba81 903d 49b2 94bc 55a1 0f3c 74b7 303d
00000110: af20 113e 1014 2b3e e807 86bd 18d3 f83d
00000120: 7681 b13c 0773 263d b780 98bd 276e 1cbd
00000130: db0f 70bd 927f 7abd 6e61 46bd 32e4 dc3d
00000140: 5248 2b3d 289a e3bd 6dab d63d d7bd 873d
00000150: b6e5 123c e824 c4bd 314c 2abd 768f e33d
00000160: 1828 21bd 85fc ec3b 0352 103d 5637 ab3d
00000170: c828 86bd b7b0 703d e77e cb3d bc49 06bd
00000180: f0e0 12be d2b1 c4bd 7d9c 9b3c a58e 0abe
00000190: 124e 5d3c d0aa 14be 9f94 4c3d 7c6f 3fbd
000001a0: 1a69 e0bd 586d 2fbe 4a23 4abe 9206 813d
000001b0: 6751 2abd 7369 32be 034f ebbd d201 30bd
000001c0: 5396 cdbd c8a1 cd3d 9d60 1fbe a270 02be
000001d0: 79e8 f739 55dd 2a3d a4ae 7ebc 5563 b4bc
000001e0: e36b fd39 2ce2 9e3c c580 03bd 7371 563c
000001f0: 3dfd adbd 48e7 32be c7d8 c6bd fc9d 30be
00000200: a2f9 9cbd ea91 bcbd 333e 38be 238f 47bd
00000210: a99a 05bd ee07 9a3d 0bc9 d9bd 8816 f03d
00000220: 378c 513d e1e0 403e 0a56 913d 7143 023e
00000230: e098 c3bd 21d6 eb3c 7944 cebd cd1b 59be
00000240: 12cf a3bd d582 1dbe 3db1 a5bd 4688 90bd
00000250: ae02 8dbd 111d 053d 7d28 cbb9 eb17 5e3d
00000260: a8e7 38be 3848 e3bd 87aa 003c 3bef 2b3b
00000270: e423 203e cd96 79bc c80c fdbc c719 0c3e
00000280: 076d 2f3c c01b e0bc 3e74 283e ca21 98bd
00000290: a0d8 193e ed7b 1cbe 19bf e03d a174 46be
000002a0: 7197 133e 8976 8ebb 5b13 34bd b4e6 fbbd
000002b0: a997 3d3e fd1f 86bd c1fc abbd 95f3 ecbd
000002c0: 2f7a babc 0115 45be 3ea9 79bc 044a 1dbe
000002d0: eb0a acbd 35eb bf3d 6e9b fb3d 002c 0abe
000002e0: 6360 82bd 7c27 d3bd e62d d33d db2a ce3d
000002f0: 23f1 a1bd 17f4 17bd 391b a1bd 5cf2 fd3d
00000300: 0aa3 803d ee9d 363d dcf0 ba3d b95f c43c
00000310: cc92 813d 8bc4 e03c 62ba bc3d ef29 a039
00000320: 48c0 d2bd 52e6 e73d 8572 17be 4144 b5bd
00000330: 1fc4 89bd a9a5 d43c 18db a83d 3284 bc3c
00000340: 4871 063d 941e f3bd 10ae 603e 7ab2 aebd
00000350: 0784 2b3e 2e58 57be 35c5 eabd b16d cdbd
00000360: 2213 153e aabf 12be e58f afbd 11bb 213e
00000370: 341d 6abd b95b 903c 4b04 b93c d160 96bd
00000380: 4628 d7bc 3195 0f3d c2b7 f83c c4ad 1c3d
00000390: be01 eabc a35a a03d 7154 01bd d996 a9bd
000003a0: cdac 0fbd 2c7a 593e ab1e 033e 09fc 9d3d
000003b0: 4a6c dc3d 9484 e5bc 99c9 f43d 6445 2e3d
000003c0: ac8b 70bd f128 143c de7f 643c b870 873e
000003d0: 515b d63d d9e8 6c3c fa7b 60bd d9bf 203e
000003e0: cc87 203e d884 133e 8c1a 773d 9956 1e3e
000003f0: d2b0 b6bd b288 b1bd 11d4 873d 2dc3 fa3c
0.01831361 0.074854925 -0.11098194 -0.12043454 0.14864323 -0.046583198 0.12879759 -0.04786663
0.18417071 0.053183883 0.19099215 -0.015293795 -0.22805722 0.10070748 0.0870567 -0.019795857
0.12995242 0.10763237 0.0769345 -0.11265161 -0.0042638006 0.16598791 0.079397835 -0.018132178
0.18157816 0.106074855 0.033543654 -0.013261922 -0.04132464 -0.05272256 -0.010790374 0.055968765
0.08661979 0.0010023046 -0.15122549 0.16523315 0.026279233 0.12084095 0.09646114 0.16080432
-0.012738006 0.0966964 0.055542998 0.11763414 -0.016573876 -0.003717308 -0.21125132 -0.07350275
0.2634406 -0.085919045 -0.1128078 -0.047162436 0.052477125 0.09792438 0.04204559 0.12355816
-0.11291148 0.09569846 0.005142541 -0.14083691 0.11445225 -0.10329871 0.18833046 0.0636225
0.070559934 -0.01815142 0.008766492 0.043143705 0.14172624 0.16706872 -0.06544477 0.12149638
0.021668177 0.040637042 -0.074464254 -0.038190987 -0.05860887 -0.061156817 -0.04843276 0.10785712
0.041817017 -0.11113387 0.104819156 0.06628006 0.0089659 -0.09577352 -0.041576568 0.111113474
-0.039344877 0.007232251 0.035234462 0.08360164 -0.06550747 0.05876228 0.09936314 -0.032785162
-0.1434362 -0.09604229 0.018995518 -0.13530977 0.013507383 -0.14518285 0.049946424 -0.04673718
-0.109575465 -0.17131555 -0.19740024 0.06300081 -0.041581538 -0.17423038 -0.1148968 -0.042970486
-0.10038438 0.10040623 -0.15564199 -0.12738279 0.00047284717 0.041714985 -0.015544567 -0.022020021
0.00048336302 0.019394957 -0.032105226 0.013088572 -0.08495567 -0.1747104 -0.09709316 -0.17247766
-0.07664801 -0.092075184 -0.17992477 -0.04872049 -0.0326182 0.07521044 -0.10634049 0.117230475
0.05115911 0.18835784 0.07096489 0.1272104 -0.09550643 0.028788628 -0.10071654 -0.21202011
-0.0799848 -0.1538194 -0.08090446 -0.07057242 -0.06885277 0.032498423 -0.00038749343 0.05422203
-0.1805712 -0.11097759 0.007853157 0.0026235122 0.15638691 -0.015233708 -0.030889884 0.13681708
0.0107071465 -0.027356982 0.16450593 -0.0742832 0.15024042 -0.15281649 0.10973949 -0.19380428
0.14413239 -0.0043476266 -0.04396377 -0.122998625 0.18514885 -0.0654907 -0.08397818 -0.11569897
-0.02276334 -0.19246294 -0.015238104 -0.15360266 -0.0840052 0.09371034 0.12285505 -0.13493347
-0.063660406 -0.103102654 0.10311489 0.10066768 -0.07907321 -0.037098017 -0.078665204 0.12399742
0.06281097 0.044584207 0.091279715 0.023971425 0.063268274 0.027437469 0.09215237 0.0003054882
-0.10290581 0.11323227 -0.1478978 -0.08850909 -0.0672686 0.0259579 0.08244914 0.023012254
0.032822877 -0.11871067 0.219414 -0.085301355 0.16749583 -0.21029732 -0.114633955 -0.100306876
0.1455808 -0.14330927 -0.085723676 0.15794016 -0.057156757 0.017621862 0.022585055 -0.07342685
-0.026264321 0.03505439 0.03036106 0.038251653 -0.028565284 0.078297876 -0.03157467 -0.08280725
-0.035076905 0.21238011 0.12804668 0.077140875 0.10762842 -0.02801732 0.11952514 0.042546645
-0.05872695 0.009042964 0.013946502 0.26453185 0.10466636 0.014459812 -0.054805733 0.15698184
0.15676802 0.14406145 0.06032805 0.15462722 -0.089204445 -0.08668651 0.06632245 0.030610645

weight f4 [500, 32]
00000000: 81a8 cdbf e36f 0abf b597 083f aed5 663d
00000010: 4c09 c33f cea9 9bbe 0cf1 27bf 2de8 df3d
00000020: 09c3 1e3f 0b28 a93e 91fc 91bf 1f9b c03d
00000030: 02d2 7c3f c1d4 833f d666 b43f 221c 8bbe
00000040: d10e b33e dfef e93f 4ee2 1540 7d57 b73f
00000050: bc0c ffbe 6f0f 0fc0 b5cf 6a3e d192 1a3e
00000060: 3195 973e 59f7 b13f e7d6 033e 33cf d13f
00000070: 8f31 54bf 5c71 74be b89e b3bf 1b74 d7bf
00000080: 37ac 52bf 9a17 c73f 256f 7b3f 1c8b a63f
00000090: bccb f8be f3c8 1c3c 1f36 85bc 32f1 b1bf
000000a0: 9508 67bf e4f0 a63d 20e0 0140 d89f 853f
000000b0: e6b8 273e 4c71 babe 839a 743e efb3 b13f
000000c0: 3ca8 b7bf 9ba2 aa3c 5a7c 8cbf d9d8 173e
000000d0: 9786 2abf d505 a53f 7128 783f c7f6 8cbf
000000e0: ea8e 99be 93b7 cf3f 1922 0bbf 5301 8dbf
000000f0: 1d22 a5bf 58ce 1fbf 1782 1ebf c54d 013f
00000100: c7cf 8b3f f68d d3bf 78af 83be 2091 bb3d
00000110: a80d 863e 0648 5b3e 36a7 3dbf 8ea9 ddbe
00000120: 0f5d a2be da5c 39be 6494 04bf dfd1 2dbf
00000130: 0ac9 403e 226b 073f 4bad 563f b809 76be
00000140: ddc1 31bf 49c1 c8bb ffe2 8dbf 2eda a73e
00000150: 6393 133e 2de4 2f3f 63c9 20bd 885d 703f
00000160: 7779 43be 8b5a 623e 5c42 463f da2d bb3f
00000170: cc7f 04bf 7896 c53f 98fa 2e3f 4f99 0b3f
00000180: a171 c63f 2d37 af3d cb26 38bf 55c5 28be
00000190: eb0f afbf 7010 9dbe 1ef0 f1bf a40a 2cbf
000001a0: 13c2 b13e 8d3f 0e3f d87d 313f 8e73 2b3f
000001b0: a979 28be 504d 1d3f 716d 2dbf 1b8d 123f
000001c0: 31a5 83bd 5cd9 6cbf e9a2 603f 92f4 0040
000001d0: 9317 ef3e cd03 a5be 759e 8abf fc9f 36be
000001e0: 0f87 2e3f 19de 843f 30fc bf3e c1ce 18c0
000001f0: 4d64 dfbc dabd fabe 3675 03c0 86f2 a6be
00000200: c5bf 04c0 5248 6e3f 0a53 1cbf d847 2f3f
00000210: 7989 eebe faea 09bf 2340 143b 794b f23f
00000220: b2f5 86bf f260 463f b83a 85bf 95e3 d9be
00000230: 15b3 33bf 7df1 ecbe da82 b73c ac08 b8bf
00000240: 078f 283f 0e87 3dbf 47f3 d93d c2bc 12bf
00000250: 23ed 8dbf 56d2 adbf 977c 283f ec08 b2bd
00000260: 4588 c93f 3836 543f d94d 9bbb 4213 1bbd
00000270: bfda c53f 91ba 6a3f 1898 d23e 7cb6 7bbf
00000280: 230b 07be 828c a2be 08c5 103f b43c e7bd
00000290: 5852 ac3f 2726 4e3f 8592 cf3f 9f84 a83c
000002a0: 0b11 c6bd 50f8 bb3e 3d82 88be 8e94 abbf
000002b0: 8ae8 8b3f ff21 cd3e f24c 173f 7207 b8be
000002c0: 0aa0 d83f ce4e e73e a09a 27bd a24c 2bbf
000002d0: 20a3 603f 5bf8 84bf 37a3 eebe 1b1c 51bf
000002e0: 2fce 0b3f b4c8 733f c095 66bf db52 92be
000002f0: 6e15 85bd 4c37 43bf 2130 d03d 4925 c93f
00000300: b437 c93e 0ff7 84be f468 fb3e 6e69 9cbd
00000310: 278a fbbe 2697 85be 9054 4bbf f3b0 9a3e
00000320: 41ea e13f c8f5 06bf 9a3f 25bf 5e4b 6e3f
00000330: 9d4d 5fbf e2e2 abbe 1b02 5cbe 47c8 763f
00000340: 8a4b 83bf 0b75 fc3d aa85 db3e dfd2 c53c
00000350: 0c34 f7be c863 db3e 29c2 d7bd df26 4f3f
00000360: e506 703d ca83 80bf 5423 37be a65c cc3e
00000370: bd02 b63f 8bb7 23bf 3c83 ef3e 8023 8ebf
00000380: a290 403f ed41 9f3e 9cd3 1340 deeb 1e3f
00000390: 94e8 75be 2930 b43f f05f 0a3e 1e5f 0e3d
000003a0: e157 41bf 3276 d0be 9665 b9bd e0c0 023f
000003b0: 3a92 e1bf 8c5d 8a3e cb76 223e 5459 7c3f
000003c0: 32b0 fabe 0c41 a1bf cc76 ac3d b821 7d3e
000003d0: 5882 2dbe e82b 8f3f e759 2f3e 2a84 9dbf
000003e0: 81d0 30bf 63fb 0c3e 5189 30bf 9a48 5e3f
000003f0: 7be0 5bbe 418a 24bf 358f 84bf 3e4d 06bd
-1.6067048 -0.54076976 0.53356487 0.056356125 1.5237212 -0.30402988 -0.65602183 0.10932956
0.6201635 0.33038363 -1.1405202 0.09404587 0.98757946 1.0299302 1.4093883 -0.271699
0.34972242 1.8276328 2.3419375 1.4323574 -0.49814403 -2.235317 0.22930796 0.15095069
0.29606012 1.390361 0.12874947 1.6391357 -0.8288812 -0.23871368 -1.4032812 -1.6832308
-0.8229403 1.5554078 0.9821647 1.3011203 -0.48592937 0.009569394 -0.016261159 -1.3901732
-0.9024747 0.08151415 2.0293045 1.0439405 0.16379127 -0.36414564 0.23887067 1.3883036
-1.4348216 0.02082949 -1.0975449 0.14828815 -0.6661162 1.2892405 0.9693671 -1.101281
-0.29991847 1.6227897 -0.54348904 -1.1016029 -1.2901036 -0.6242423 -0.6191725 0.5050929
1.0922784 -1.6527698 -0.2571981 0.0915854 0.26182294 0.21414194 -0.7408327 -0.43293422
-0.31711623 -0.18101826 -0.51788926 -0.6789836 0.1882669 0.52897847 0.83858174 -0.24027145
-0.69436437 -0.006126557 -1.1084899 0.32783645 0.14411692 0.68707544 -0.039254557 0.9389272
-0.19089304 0.22104852 0.77445006 1.4623368 -0.517575 1.5436544 0.68351126 0.54530805
1.5503427 0.08555446 -0.71934193 -0.16481526 -1.3676733 -0.30676603 -1.8901403 -0.67203736
0.3471838 0.5556572 0.6933265 0.669732 -0.1645266 0.61446095 -0.6774512 0.5724656
-0.06427992 -0.92519164 0.8774858 2.0149274 0.46697673 -0.32229462 -1.0829607 -0.17834467
0.68174833 1.0380279 0.3749709 -2.3876193 -0.027269507 -0.4897297 -2.054029 -0.32606906
-2.0742047 0.930791 -0.6106421 0.68469 -0.46589258 -0.5387417 0.0022621236 1.8929282
-1.054373 0.77491677 -1.0408545 -0.42556444 -0.7019513 -0.4627799 0.022401262 -1.4377646
0.6584324 -0.740342 0.106421046 -0.5731927 -1.1087993 -1.3579814 0.6581511 -0.08693108
1.5744711 0.8289523 -0.004739505 -0.037860163 1.5457381 0.9169093 0.41131663 -0.98325324
-0.13187842 -0.31747824 0.56550646 -0.11290875 1.3462629 0.80526966 1.6216589 0.020571051
-0.096712194 0.36712885 -0.26661864 -1.340471 1.093034 0.40065 0.59101784 -0.3594318
1.692384 0.4517731 -0.040918946 -0.6691381 0.8774891 -1.0388292 -0.46608898 -0.8168351
0.54611486 0.95228124 -0.9007225 -0.2857884 -0.06498228 -0.7625625 0.1016543 1.5714504
0.3930031 -0.2596974 0.4910351 -0.076372966 -0.4912884 -0.2609188 -0.7942591 0.30213127
1.7649614 -0.5271878 -0.64550173 0.9308375 -0.87227803 -0.33571535 -0.21485178 0.9639935
-1.0257428 0.12327012 0.42875415 0.024148403 -0.48281896 0.42849565 -0.1053508 0.8091869
0.058600325 -1.0040219 -0.1788457 0.39914435 1.4219586 -0.6395194 0.4677981 -1.1104584
0.7522069 0.31104985 2.3097906 0.62078655 -0.24014503 1.4077197 0.1351316 0.03475868
-0.7552472 -0.40715176 -0.09052579 0.51075554 -1.762275 0.27024496 0.15865628 0.98573804
-0.4896255 -1.2597976 0.08421096 0.24719894 -0.16944253 1.1185274 0.17124139 -1.2305958
-0.6906815 0.13767771 -0.6895953 0.8682953 -0.21472351 -0.6427346 -1.0356203 -0.032788508

weight_ih_l0 f4 [384, 32]
00000000: e7fe 07bd f50f 773d 98d2 1fbd 2b37 b8bd
00000010: c21c 29bd af4d 7d3d 1ca7 0fbd 3c73 aebd
00000020: a4c0 843d 6a05 e7bc 79cf c23c 823b 3c3d
00000030: d144 c6bd fca3 883c de4f 8dbd ae85 d3b9
00000040: 43d0 553d 1a53 bdbd 982b 663d cdd6 b13c
00000050: 428d 233d 4aa3 70bc 728a 263d d627 543d
00000060: 2f87 d0bd 9e65 223d 0167 c4bc b5aa 923d
00000070: 2404 93bd fde9 a2bd ee82 15bc f3dc 223d
00000080: 7208 9bbd 6e74 02bb d184 b5bc c9eb a03d
00000090: f671 9cba cd0b 873d f3bb a5bd 5d21 9a39
000000a0: c44d aabc d336 99bc 753e bb3d 118f 95bb
000000b0: 56a9 033d fe7e b63c 9b30 1cbd 392a 8dbd
000000c0: 259d 453d 604d 103d 9dc7 6fba 5527 613c
000000d0: 48b7 64bd f07a 153c b9af f63b 9476 ba3d
000000e0: 04d2 7b3d d1d3 303d 59ee 693c b26e 2abd
000000f0: 12ae e13d dfba 393d 24b1 423d 5ae3 cebd
00000100: 984b 5f3c ca86 553b 3d91 4f3d 34e7 94bc
00000110: 1bc1 a8bd 5d52 1cbb b4ab a43c ac5f 9e3d
00000120: 806b c2bd 8046 bebd 0eaf bb3d b56c 633c
00000130: 6b58 613d bb9e 81bd 1d68 c93b 9f98 b43a
00000140: 2754 b8bb 70be e33c 8cc0 a9ba 9a82 babc
00000150: 392a b23c e8ef 24bd 4fdd 033e 01bd 5fbc
00000160: c386 bdbb 4525 723d 96df 003c 4c8a 373c
00000170: 5405 aa3d 5643 113e 4a11 bd3c 1d1f a9bc
00000180: 977e 0e3c 01f8 88bc f0c8 d7b7 d553 803c
00000190: fcdd d8bc a1c3 14bc a72e 413d 235a b3bc
000001a0: ef7d 98bd cf9c 7b3d ebe8 89bc 50a4 17bd
000001b0: 4728 9cbd 7ada 54bd fa67 42bd 0fe4 80bd
000001c0: 2c62 1dbd 023d b43d 94e2 6dbd 9b94 543d
000001d0: 97d6 b9bd 9dc3 143c 66d4 a23d fb98 6c3d
000001e0: 7332 733d bb0a 3fbd a21b 4fbd d263 e43d
000001f0: 655c 64bd 1ea5 b1bd 71e7 83bd 09ee 8dbd
00000200: 9b3f 213d 3201 e83c 8a0c 17bd 5439 92bd
00000210: ab3e d1bd 137a a4bd 22be e4bc 834f 2abd
00000220: 931d 253d e0f0 91bc 59c0 13bb adec 62bc
00000230: 1036 773b 3f10 c3bc 0ec0 983d 2aa6 92bb
00000240: 050a 00bd f20f c3bc dd80 e23c 82ce 303d
00000250: 550f 87bd 98d5 3abd 7151 c33b cd4c 11bd
00000260: 0f70 5cbd 902b 12bd 202d 9a3d d60a 153d
00000270: cae3 993d a330 a3bb 0d9e 3ebd 6769 19b7
00000280: 3c07 d1bc d2df 1ebd 0f21 16bd 8542 ccbb
00000290: ebe8 7dbd 3d29 96bd 55cb 63bd 8f7c 95bd
000002a0: 1859 d23c fbe9 97bd b9fb 823d 8fb6 1f3d
000002b0: 57c1 733d ce8f b9bd 01ba 92bd de2c e1bc
000002c0: fd66 abbc 8c80 903d b5e2 54bd b681 e5bc
000002d0: f466 d33c 312b cbbd c049 413c 9b0e 213d
000002e0: 9ac2 773b 22bb c7bc db30 fe3c c118 50bc
000002f0: 20cb 953c 4d0c b43d 3e9f 8f3d 824f 99bd
00000300: ae85 90bd 4f83 a83d 10a7 cd3c 9603 5fbd
00000310: 474e 9a3d 7462 a83b ab11 47bd 7cd8 31bd
00000320: dc49 94bb a2e4 0abe 775b 1f3d 0464 7d3d
00000330: f764 9dbd c816 a93d fd08 e2bd e461 5c3b
00000340: 8da3 ffbc 03bb 6f3d c496 243d a70e da3d
00000350: ec0e a1bb c9ff 573d 44d8 7c3c 4aba f93d
00000360: 8821 eabd 68e2 163c 4106 1c3d 814a 2d3d
00000370: eefe 23bd 4bd8 cd3c bdb5 12bd c3ea 713d
00000380: a66e dabd 9714 ae3d 4650 9f3b cde0 9c3d
00000390: 32c5 f33b fd19 993d f325 27bd 9c7e 1ebd
000003a0: e60f 38bd eca7 02bd a31c 00bc 79f1 573c
000003b0: a063 573c 6586 0abb dfc4 8e3d 9364 f13b
000003c0: 48d7 533d 6902 5c3d 89b0 bcbd d026 c73d
000003d0: e443 54bc 1757 25bd 22a5 433d b99d 81bd
000003e0: 1b68 5fbd a2f0 21bd 1533 1cbd 54a9 f3ba
000003f0: cba9 f43c f85d dc3c 6940 d83c fb35 b4bd
-0.03320208 0.060317952 -0.039019197 -0.089948975 -0.04128719 0.061841663 -0.035071477 -0.08518073
0.06482056 -0.028200824 0.023780571 0.04595519 -0.096810944 0.016679756 -0.06899999 -0.00040344655
0.052200567 -0.09244366 0.056193918 0.02170887 0.039929636 -0.014687369 0.040659375 0.051795803
-0.10182034 0.03964769 -0.023974897 0.07161466 -0.07178524 -0.07954786 -0.009125454 0.039761495
-0.0756997 -0.0019905823 -0.022158058 0.078574724 -0.0011935818 0.06594048 -0.08092489 0.00029398027
-0.020789035 -0.0187029 0.09142772 -0.004564174 0.032143913 0.022277351 -0.03813229 -0.06892819
0.048245568 0.03523004 -0.0009146871 0.013742288 -0.055838853 0.009123549 0.007528272 0.09104648
0.061479583 0.043170754 0.014278018 -0.041609474 0.110195294 0.04534423 0.047532216 -0.101019576
0.013628863 0.0032581561 0.05067562 -0.018176652 -0.08239957 -0.0023852803 0.020101406 0.07733092
-0.0949316 -0.092907906 0.091642484 0.013880898 0.055015963 -0.063291036 0.0061464445 0.0013778395
-0.005625266 0.027800769 -0.001295106 -0.022767354 0.021748649 -0.040267855 0.12877391 -0.013655902
-0.005783887 0.059117574 0.007865807 0.011202406 0.083017975 0.14185843 0.023079533 -0.020644719
0.008697174 -0.01671982 -2.5723566e-05 0.015664974 -0.026473038 -0.009079845 0.04716363 -0.021893566
-0.07445895 0.06142884 -0.016834697 -0.037021935 -0.0762487 -0.051966168 -0.04746244 -0.06293499
-0.038423702 0.08800699 -0.05807741 0.051899534 -0.09074133 0.009079841 0.07950668 0.05776308
0.059374284 -0.046641093 -0.050563462 0.11151852 -0.055752177 -0.08674072 -0.06440628 -0.06930167
0.0393673 0.028320882 -0.036877193 -0.07139841 -0.10217031 -0.08031096 -0.027922694 -0.041579735
0.040311407 -0.017815053 -0.0022545068 -0.013850373 0.0037721433 -0.023811458 0.074585065 -0.0044753747
-0.031259555 -0.023811314 0.027649337 0.04316569 -0.06594721 -0.045613855 0.0059606363 -0.035473634
-0.053817805 -0.035686076 0.07528138 0.036387287 0.075141504 -0.004980163 -0.046537448 -9.144052e-06
-0.025516145 -0.03878767 -0.03665262 -0.0062335157 -0.061989706 -0.07332084 -0.055613834 -0.07299148
0.025677249 -0.07417675 0.063956685 0.03899246 0.059510555 -0.09060632 -0.07164384 -0.027487215
-0.020923132 0.07055768 -0.051974017 -0.028015953 0.025805928 -0.099203475 0.0117973685 0.03932057
0.00378052 -0.024381224 0.031029155 -0.012701214 0.018285334 0.08791409 0.07012795 -0.07485868
-0.070567474 0.0822817 0.025104076 -0.05444678 0.075344615 0.0051386897 -0.048600834 -0.043419346
-0.0045254063 -0.13563779 0.038905587 0.06186296 -0.07685273 0.08256298 -0.11036871 0.0033627683
-0.031205917 0.058527958 0.040182844 0.10647326 -0.004915109 0.05273417 0.015432421 0.12193735
-0.11432177 0.009209253 0.0380919 0.04230738 -0.04003804 0.02512755 -0.03581785 0.059061777
-0.10665636 0.08500021 0.0048618643 0.07660065 0.007439279 0.0747566 -0.040807676 -0.038694963
-0.044937037 -0.031898424 -0.0078193275 0.01318013 0.013146311 -0.0021137234 0.06971144 0.0073667257
0.05171898 0.053713236 -0.09213359 0.097242 -0.0129556395 -0.04036626 0.047764905 -0.06328911
-0.054542642 -0.039536126 -0.038134653 -0.0018589892 0.02986612 0.026900277 0.0263979 -0.087993585

weight_hh_l0 f4 [384, 128]
00000000: 391e c93d 02b1 5dbd 8fa3 673d 64a5 7b3d
00000010: c006 203d a80b 23bd 12e6 823d 8f2d 97bd
00000020: ee76 603d 9e50 2d3d 1aca 59bb a831 a03c
00000030: 86b3 933d 1872 543d d24c 35bd 7b24 a3bd
00000040: df3b 743c 7903 06bd cd0b 17bd dc00 25bd
00000050: 1988 033d 1991 673c d01f 243c 38a3 9f3d
00000060: 0f38 97bc ce11 943d 06aa a23b ade7 8a3d
00000070: c699 863a 60d0 64bd b289 d5bc c561 353d
00000080: bf8b 403b 1539 10bc 103f 483c 8070 3cbc
00000090: 1e80 bb3b 76a8 5cbb 799f 823d ce19 aabd
000000a0: 76bf 9e3d dd26 aabc edb2 b7bc ccdd ae3d
000000b0: 196d 82bd acad f6bc 3028 663c 9e1f 93bd
000000c0: feae 6fbd 49e9 083d cc64 83bd 8fd7 403d
000000d0: cd32 b53b 102d 8b3d 15c5 9f3d 3d7d acbd
000000e0: 7f6c 76bd 19ac 653d ca23 493d 0199 e53c
000000f0: 1068 71bd 3894 51bd 0e14 b5bc 98ba 89bd
00000100: 1612 403d 1a53 5a3d 9dbd 68bd 5b01 9d3d
00000110: 2f33 343b 0ff2 91bd 085c 72bd 5493 303d
00000120: 3212 053d 21b6 4abd d39f 133d 032a 023d
00000130: 821e 7cbd a80f 953d afda adbd c034 b03d
00000140: c205 71bc 8959 afbd 851e a73d f494 69bd
00000150: 3c09 87bc 8ba2 a63d 0bc7 aebc 2149 223d
00000160: cf3b 583d b9b5 a63d 8952 833d 0cd5 56bd
00000170: f689 3bbd 8096 85bd 8b23 6e3b 3bdf 32bd
00000180: 6001 22bc 7d22 b6bd c228 3bbd 3cd5 f23b
00000190: 6c5c 67bd 09d6 e13c 1fc5 693d 13eb 493d
000001a0: ea69 3a3b 62fa 54bd cda1 3fbc 6d5a 4d3d
000001b0: 2752 353d f18e 46bd b47e ab3d 90a3 a2bd
000001c0: 769e 67bd ad81 aa3d 80a8 9a3d f123 86bd
000001d0: 5c0a 1fbd df07 6b3d 917f 4b3b c781 0fbc
000001e0: f05f 97bd 0d43 553d bdce 8d3d 0cf9 90bd
000001f0: 98ea 4c3d 34c2 a23d d51f 8e3d b34d a0bd
00000200: 9091 63bc 161f 61bd 9639 873d 643f 883d
00000210: 6ca6 9a3d 6bf3 95bd dc1d 68bd 544e b0bd
00000220: e695 5d3d fd6e ce3c 9520 0ebd 6fea 883d
00000230: 60e0 ac3d 047e b0bd 8106 8abd 9db6 5cbd
00000240: 3f7f 24bc 8b43 b2bc 226d 813d a760 19bc
00000250: 8120 81bd 2d24 a4bd 4698 e13c e4b8 45bd
00000260: b630 233d cf81 993d cfd1 833d b8c6 96bd
00000270: 3734 033d 7fa3 8ebc 0eda 8f3c 04c4 673d
00000280: d8b9 653b 58a0 90bd 6470 83bd ba2b 92bd
00000290: 2a2d a0bd accc 9f3d a4e4 babd db9c 37bd
000002a0: 0acb a73d 15bc afbc eca5 6b3c d9e1 e43c
000002b0: a401 43bb b51a 573b 7bed 053d 3d5b ba3c
000002c0: 3dac 933d 09ba 0fbd 8c13 803c 8045 7d3d
000002d0: f115 9a3d 8070 0dbd 3047 a2bd 2160 9a3c
000002e0: 1afe bebd 4eb6 a7bd 4a9c 773d 1114 5fbc
000002f0: 2716 ac3d a79c 93bd b83e 0bbc 3936 aa3d
00000300: 4c47 83bd 533b 7e3c 1e84 14bd bb76 9cbd
00000310: e30c 863d 5285 a7bd 5505 52bd 13f1 aa3d
00000320: 8ec5 213d 80af 1fbc 39c4 9abd 206b 1e3d
00000330: 93bf 5d3d da4d 96bd bb15 babc 65c5 50bd
00000340: 0bc7 ab3d 46a7 02bd aa5c 0dbd e27d a8bc
00000350: 5efa cd3c 568e 81bd efc6 263d 91d7 243d
00000360: 424c 823c 76b4 343c af1c 89bd 281b 41bd
00000370: 170b acbd 52f7 b43d 1a5b 5a3d aad2 53bd
00000380: 9134 3f3d f820 ab3d 305b 423d 83ae 81bd
00000390: fc00 e03c 863a fe3c 590d d6bb 3950 5fbd
000003a0: 6f07 043d 0cb4 10bb 3ad3 2ebd 5673 913d
000003b0: 1309 37bd c3df e1bc 5ccf 3fbd 20e3 82bd
000003c0: 61f2 92bd 5ba8 b93c 7ba4 5bbd 035e 18bd
000003d0: b1ee 8abd 7772 693d f133 943d a136 1fbc
000003e0: fada 583d a530 c9bc b942 0abd f032 103a
000003f0: a547 973d a746 463c c19b 89bd 1354 d73c
0.09820218 -0.054123886 0.056552466 0.061437026 0.039068937 -0.03980604 0.06391539 -0.073817365
0.05480092 0.04231321 -0.0033232034 0.019554928 0.07211976 0.05186662 -0.044262715 -0.079659425
0.0149068525 -0.032718156 -0.03687649 -0.040284023 0.032112215 0.014133715 0.01001735 0.077948034
-0.018459348 0.072299585 0.004964116 0.0678247 0.0010269217 -0.055862784 -0.026066635 0.044282693
0.002938017 -0.008802672 0.0122220665 -0.011501431 0.00572206 -0.0033669746 0.06378073 -0.08305703
0.07751362 -0.020770485 -0.022424186 0.08538398 -0.06368465 -0.03011211 0.014047667 -0.07183765
-0.058516495 0.033425603 -0.0641571 0.047080573 0.0055297376 0.06795704 0.07801262 -0.08422325
-0.060162064 0.05607233 0.049106397 0.02802706 -0.058937132 -0.051166743 -0.02210429 -0.06725043
0.046892248 0.053301908 -0.056821454 0.07666274 0.0027496328 -0.07126247 -0.0591698 0.043109253
0.032488056 -0.049490098 0.036041092 0.031778347 -0.061552532 0.07278377 -0.08488976 0.08603811
-0.014710845 -0.08561999 0.08160118 -0.05702682 -0.016483895 0.08136471 -0.021335145 0.039620522
0.052791413 0.081401296 0.06412227 -0.05244927 -0.045785867 -0.06522846 0.0036337103 -0.04366992
-0.009888023 -0.08893297 -0.045693167 0.0074106734 -0.056484625 0.02756788 0.057072755 0.04929645
0.0028444477 -0.051996596 -0.011696291 0.050135065 0.0442678 -0.048476163 0.08373776 -0.07941353
-0.056547605 0.08325515 0.0755167 -0.06549824 -0.03882824 0.057380553 0.0031051377 -0.008758969
-0.073913455 0.052065898 0.06924198 -0.07078752 0.050028414 0.079471976 0.06939665 -0.0782732
-0.013889685 -0.054961286 0.066027805 0.06652716 0.07551274 -0.07321819 -0.0566691 -0.0860869
0.054098032 0.025199408 -0.03469904 0.0668534 0.08441234 -0.086177856 -0.06739522 -0.05388509
-0.010040103 -0.021760723 0.063196436 -0.009361423 -0.06305028 -0.080147125 0.02753843 -0.04827203
0.039841376 0.07495462 0.06436502 -0.07362121 0.032032218 -0.017411945 0.017560031 0.05658342
0.0035053398 -0.07061833 -0.06417921 -0.071372464 -0.07821114 0.0780271 -0.09125641 -0.044827323
0.081930235 -0.02145199 0.014382821 0.027939724 -0.0029755617 0.0032822315 0.032697182 0.022748584
0.07210586 -0.035089526 0.01563432 0.06183386 0.07523716 -0.034531116 -0.07923734 0.018844666
-0.0932581 -0.08189069 0.060451783 -0.013615624 0.08402663 -0.072076134 -0.00849884 0.083111234
-0.06410083 0.015517074 -0.03625881 -0.076398335 0.06545427 -0.08179726 -0.051274616 0.083467625
0.039495043 -0.009746432 -0.07556958 0.03867638 0.054137778 -0.07339068 -0.02271544 -0.0509695
0.08387574 -0.031897806 -0.0345122 -0.020567838 0.025143798 -0.063259766 0.04071706 0.040244643
0.015905503 0.011029353 -0.06694924 -0.04714504 -0.08400553 0.08836235 0.053309537 -0.051714577
0.04668099 0.08355898 0.047450244 -0.063321136 0.02734422 0.031033766 -0.006532353 -0.054519866
0.03223365 -0.0022079973 -0.04268191 0.07102077 -0.04468639 -0.027572518 -0.046828613 -0.06390977
-0.07175136 0.022663286 -0.053623658 -0.03719903 -0.06783808 0.056993928 0.072364695 -0.009717614
0.052943207 -0.024559328 -0.033755038 0.00055007543 0.07386712 0.012101806 -0.06719161 0.026285207

bias_ih_l0 f4 [384]
00000000: 07fe 6cbd 3daa 533d 87b6 1f3b 0bc5 1e3d
00000010: abdf 0ebd c088 d83c cabc bebd 1d8e b33c
00000020: ff50 74bd ff30 7e3d 58f1 b4bd 50aa ae3c
00000030: eb1e 8f3d 3059 93bc 6d99 053d 00cd 133d
00000040: c4f1 05be 3a81 013d 20c9 a9bd a97b ccbc
00000050: f1cd d7bc 3d08 26bd 7c7b 9e3d a07b fb3c
00000060: cb8f 9dbd 2d8b 21bc f505 d5bd 4f62 633d
00000070: a500 e83b fb67 783d 13d4 153c 1d90 f2bc
00000080: 368e 89bd ac0d 593d f715 fdbc 23f1 ccbd
00000090: c9ac aabd 1e74 eb3c 5c49 53bd a927 093d
000000a0: ea50 9f3c 5e5e 9dbd e5f4 88bd 2589 1d3d
000000b0: 3e60 c9bd 195b f0bd 3d0f 44bd 247b 96bd
000000c0: fa9b 023c 9c01 7fbd 8c27 88bd 49e3 99bb
000000d0: 228f 643d 6601 f9bd 1f36 5bbd bce4 8bbd
000000e0: 5e98 d7bb ec94 843d 629c 51bc 905e 1cbd
000000f0: 5d61 9ebc 5e41 91bd 2730 d13c 205e b93b
00000100: 54d2 a5bd 7874 62bd aeae 64bd 8c24 94bd
00000110: a7c1 a8bd 4c56 473d bdae ceba eacc aabd
00000120: ba74 dcbd d6ad 0b3d 2f54 0ebc ec29 a83c
00000130: 2a3a fe3c e172 5abd 409c 9ebb 5264 debc
00000140: f435 babd 52e2 c3bd 64ef d6bd a7f6 95bd
00000150: 9d86 213b 871c 90bd f39e 89bc b1f4 e2bd
00000160: e952 253b 06d8 2cbd 667f c7bd aa7c 85bd
00000170: d812 9a3b d7d5 a63b f6cf f7bd 428f c6bd
00000180: 8ff1 88bd e6c7 b53d 1a45 1dbb bc13 a8bd
00000190: ff5a 25bc 015a 75bb fe2e d2bc ee9a 55bc
000001a0: 9cc4 87bd 74a8 893c c54a a43c 3163 e8bd
000001b0: 3f68 8fbd df8e b7bc e069 a8bd d630 853d
000001c0: 9906 a93d 78c9 a2bc e267 4ebd ee12 54bc
000001d0: fd1e 1b3d 46f7 56bb ac2b c9bd 2163 68bd
000001e0: 49d1 d6bd f057 a03c dd24 e33c c323 643c
000001f0: 52b9 ba3c fc30 65bd 7c98 923c 1d43 553d
00000200: 3fb0 11bc e99c b4bd 0ca0 c9bd 919a cc3d
00000210: 389b 8c3e 9358 6c3e dd54 703e c161 ed3d
00000220: 5966 5f3d 1464 203e 25a9 ec3b 2382 653e
00000230: 10eb 5e3e 632e 2d3e 2ce4 ac3d a3e3 9f3e
00000240: f9e5 523e 9c74 c33e e683 3e3e b06e 4f3e
00000250: 46df 843e cea8 833e 96bc 063e 9efd 483e
00000260: 1ca8 f83c 8a8d f63d 78ce ce3d d132 c83b
00000270: 1eca 9f3e 9a41 5d3e 6e35 0c3d c779 9d3e
00000280: 12e0 803e e9d5 03be b20e 813e cb96 193e
00000290: 6165 923b dcce 8f3e c3b4 8e3e 7820 e2bc
000002a0: 2ac7 e03d b2d2 18bd 3ad0 333e 1b74 87bd
000002b0: b600 893e 15a0 053e eeb0 fc3d cc0c 843d
000002c0: 189b 10bd 3e15 0e3d dcd8 083e f315 27bd
000002d0: db7d 703e b37c 963e afee 8e3e c27c 8e3d
000002e0: 073b 753e b34e b73d 1068 743e b259 473e
000002f0: 0365 543d 1333 543d ac49 b43e d553 393e
00000300: 283d c43d dbb7 183e 1788 e73d 82e5 053e
00000310: bbf4 763e 5cce 163e 7016 7e3e 95a9 933e
00000320: e962 6f3d ec28 853e e7d5 5b3e 40fb 9c3e
00000330: 74c7 743e b23e 8b3e 1d9b 5c3e ed68 683e
00000340: fe58 313e f338 0f3e e10f 0b3d f7cd ae3e
00000350: 8f81 9cbd 5ff0 ac3e 2ef3 b93d d81d f33c
00000360: 953d 343c 9b68 393e 7574 85bd 1396 773e
00000370: 438c c23b b1d9 a13e e72c 9fbd 3761 9a3e
00000380: 5326 3c3e dac4 123e bd0f 873e b8ac 873e
00000390: baed 753e 1177 663e cbbd 8a3e 5927 983e
000003a0: a2e3 823e 6850 e83d 8396 8d3e eaf9 3b3e
000003b0: 5a61 663e 04b5 1c3e c5ca 6a3e 4e32 7f3e
000003c0: 49a8 4d3c d2e8 d23d d9ec 3c3e 0081 3e3e
000003d0: 7a20 d43b 5276 2f3e c66c 683e 0e48 4d3e
000003e0: 46c8 e23d 5cdc 493e b048 d43d 0b5e 4d3e
000003f0: fc49 3e3e 0304 133e 6b3f 013e fdd8 9a3e
-0.057859447 0.051676024 0.002437027 0.038762134 -0.034881275 0.026432395 -0.093133524 0.02191835
-0.059647556 0.062058445 -0.08835095 0.021321446 0.06988319 -0.017986864 0.03261702 0.036084175
-0.13080508 0.03161738 -0.08290315 -0.02496131 -0.026343318 -0.0405352 0.077383965 0.030698597
-0.07693442 -0.009859842 -0.10401527 0.055513676 0.007080155 0.06064604 0.009144801 -0.029609734
-0.06716578 0.052991554 -0.030894263 -0.10006931 -0.083337374 0.028741892 -0.051583633 0.03348509
0.019447763 -0.07684015 -0.06687335 0.03846087 -0.0983281 -0.117361255 -0.047866095 -0.07347706
0.007971758 -0.062257394 -0.06648168 -0.004696284 0.055800565 -0.1215847 -0.05351841 -0.06830737
-0.006579443 0.06473717 -0.012793632 -0.03817612 -0.019333536 -0.07092546 0.025535656 0.0056569725
-0.080967575 -0.055286855 -0.05583065 -0.07233533 -0.08240061 0.048666283 -0.0015768629 -0.083398655
-0.10764451 0.03410133 -0.008687063 0.020527802 0.031033594 -0.053332213 -0.004840404 -0.027147446
-0.09092322 -0.095646515 -0.10494879 -0.07322436 0.0024646886 -0.07036691 -0.016799426 -0.110818274
0.002522642 -0.042198204 -0.09741096 -0.065179184 0.0047019534 0.0050914097 -0.12100212 -0.09695293
-0.06686699 0.08876018 -0.0023997487 -0.08206889 -0.010092496 -0.003743768 -0.025657173 -0.013037426
-0.06629297 0.016803958 0.020055184 -0.11347044 -0.07002305 -0.022406993 -0.08223319 0.06503455
0.082532115 -0.019871458 -0.05039204 -0.012943966 0.03787135 -0.0032801195 -0.09822783 -0.05673516
-0.10489137 0.019573182 0.027727539 0.013924542 0.022793446 -0.05595492 0.017894976 0.052065957
-0.008892118 -0.08818991 -0.0984498 0.09990419 0.27462173 0.23080663 0.23469873 0.11590911
0.054540966 0.15663177 0.007222312 0.22412924 0.21769357 0.16912226 0.08441958 0.3122836
0.2059554 0.38174903 0.18605003 0.20257068 0.25951594 0.25714725 0.13157877 0.19627997
0.030353598 0.12038715 0.100979745 0.0061095734 0.3120889 0.21607056 0.034230642 0.3075697
0.25170952 -0.12874569 0.25206524 0.14998929 0.0044676517 0.2808751 0.27872285 -0.027603373
0.109754875 -0.03731031 0.17559901 -0.06613942 0.26758355 0.13049348 0.12338434 0.06447753
-0.03530416 0.034688227 0.13363975 -0.040792417 0.2348551 0.29392013 0.27916476 0.069573894
0.23948298 0.089505576 0.23867822 0.1946781 0.051854145 0.05180652 0.35212457 0.18098386
0.09581977 0.14913885 0.11305254 0.13075832 0.24116795 0.14727157 0.24813247 0.28840318
0.058443937 0.26007783 0.21468316 0.3066044 0.2390421 0.2719627 0.21543546 0.22696276
0.17319104 0.13986568 0.03395069 0.34141514 -0.07641899 0.3377714 0.09079586 0.029677317
0.01100101 0.1810631 -0.06516353 0.24178343 0.0059371307 0.31611398 -0.07772236 0.30152294
0.18373995 0.14332905 0.26379195 0.2649896 0.24016467 0.22506358 0.27097926 0.2971752
0.25564295 0.11343461 0.27653894 0.18357053 0.22498074 0.15303427 0.22928913 0.24921533
0.012552329 0.10298313 0.18449725 0.18603897 0.006473598 0.1713498 0.22697744 0.20047018
0.110733554 0.19712967 0.103654265 0.20055406 0.1858291 0.14356999 0.12621848 0.30243674
