storage/GridCityTest/model.pt (torch_old, 630155 bytes, 16 tensors)

weight_ih f4 [300, 75]
00000000: 79eb 923d d0f1 ffbb aecf 9a3b 999a b23d
00000010: c9c6 fcbd dc94 e63d d0cf 813d 338a ed3d
00000020: 7eb2 843d 385b 2a3c 2fbe 3a3d cd6a 6e3d
00000030: f3ba a43d 1922 19bd 5b0f 76bc fc5d 483d
00000040: 3281 c43d 154e 423d fbe2 123e 0843 453d
00000050: 7043 44bd 3fe9 42bd 3e5b 813c ef37 43bd
00000060: b3a0 79bd 1265 4c3c 49f7 ba3d 5dff 943d
00000070: 71b3 59be 0b10 a93d 79a9 933d b1d6 1c3e
00000080: 58b7 c83d e51c 16be ca13 bdbd aa60 33bd
00000090: 0bad ee3d ada7 09bd 6bfa f4ba daca 5bbd
000000a0: c615 fe3d a2d1 98bc abed e93d da23 89bd
000000b0: 507f 20bd 67d6 803d 0887 50bc 2bcd 2e3d
000000c0: 8995 c2bd 8b30 2abc 045a e3bd 708f 77bd
000000d0: f529 bd3d 494c 6cbd 688c eb3d 0115 9f3d
000000e0: b2be 0c3d 59d2 2abd 40ef c53d 64a5 54bc
000000f0: a80c afbd d11b 073d ae91 8f3d ad58 243e
00000100: 0990 84bd 9e96 20bd 7a49 68bc b008 233d
00000110: 6cb5 dbbd bd3c 9ebd e880 6f3d 52a0 dbbc
00000120: 9cb2 6f3d a7ee d1bd b44b 1b3d 1851 673d
00000130: baf6 eb3d b663 083e 335b 5fbc 5e92 153e
00000140: 9694 86bd c864 45bd bc24 7f3d 53c8 bd3d
00000150: 4366 0d3e b6ea 2abd c6f2 703c 1346 1c3e
00000160: f316 b33d 02ad 113e 2d28 c03c 4a48 83bd
00000170: faaa e93c a8ae 843d b484 cabd 5c60 c4bd
00000180: 4afd e63d 0673 6e3d 8e42 b93c 4572 433c
00000190: e6ca d23d f53d 533d 71c0 993d ed0a d43d
000001a0: 9c75 8abd 4a03 b7bd 0cf7 4c3e 28fa 6abd
000001b0: a676 a53d 8d61 56bd 53c4 543d e679 a33d
000001c0: 1b4b e23d 4df9 84bd 9089 6c3c ae06 013e
000001d0: f208 ea3d cd0e a63d d711 9a3c 6263 413d
000001e0: 2ced fabd 17dd fe3d b43c 003e d7e0 8dbc
000001f0: 08e2 803d eee3 82bd 2e95 39be 2e1d b6bc
00000200: f02c 4f3d 688b db3d 52f9 4fbe a7d0 b3bd
00000210: 1941 2b3e 7047 b43d 6a3b b23d 4a15 a73d
00000220: 19b7 023d 9854 f43c 562b fabd 9d96 c6bd
00000230: 63e8 2abe 05b5 0ebe d2bd 16be 80c7 353e
00000240: 9a32 883d 1723 dabc 0c73 0e3d ab8e 1b3d
00000250: 8012 ee3d fc41 9f3d 84a7 b0bd 1ec8 f93d
00000260: 04f2 d3ba 4173 733c df7a fdbd 057a e2bd
00000270: 0642 dbbd ed4a d6bd 607a 893d 0e74 aabd
00000280: 385f e2bd eeb9 643d 0191 9d3b 010a 023e
00000290: d558 8bbd c558 cf3c 873a 1fbd d889 04bd
000002a0: c924 1cbd fbfb 06bd 1a0d 12bd 7bb8 c03d
000002b0: 2080 d53c 23ed c73d ef28 083e 5771 3a3d
000002c0: 216d 013e d3ad 053c 9df6 87bd 6614 a13d
000002d0: d6cc 4dbc 6973 ae3d 2c46 29bd effa 063c
000002e0: be93 88bd ec5b 673d 1b3a a4bd 9c1c febd
000002f0: 127a b9bd 5bbd 7fbd 8e51 383b c292 2cbd
00000300: 4b0a eabd 660a c6bd 7c15 56bc abe4 0bbe
00000310: 7f42 f33d 1af5 973d 9caa b63d f0fe 1dbd
00000320: 4818 e53c 8b99 9cbd 1b2f ac3d 0266 683d
00000330: 2c72 8e3d 72e0 053c 37cc 5e3c 83b1 b0bd
00000340: 8b89 9fbd 502c 36be ac9e b73c 992a f4bc
00000350: d5b8 d4bd 544f 05bd 442e ce3d 0521 293e
00000360: 5302 df3d 9fdd 3abd eda0 3ebb c965 883e
00000370: 65a0 abbd ac6d 3d3e 4a02 c5bd 9ceb 0a3d
00000380: ec38 673d ec29 28bd 0175 2bbd 7bb8 c23d
00000390: f285 8d3d 5f5d 123e f689 bcb9 acb1 8dbd
000003a0: bf73 123e d752 133c 4e69 b6bb 68ff 703d
000003b0: 3898 05be b215 c23d 248f 7d3d ad13 5dbd
000003c0: fb7c 7ebd 4a39 af3c a7fb a03d dfcc 1c3d
000003d0: 4f3a 39bc 7083 fa3c dafa 9abd eda0 98bd
000003e0: 869b b0bd 0e3a 033e 6209 ef3d 7d2c a9bd
000003f0: 010b dcbc 0189 b23d 8ef2 e238 08a0 99ba
0.07173819 -0.0078108087 0.0047244644 0.087208934 -0.12342603 0.112588614 0.06338465 0.11598625
0.06479357 0.010397725 0.04559153 0.058207322 0.0804347 -0.037386034 -0.0150183095 0.048917755
0.095949546 0.047437746 0.14344399 0.04815963 -0.047915876 -0.047585722 0.015790578 -0.047660764
-0.06094427 0.012475269 0.09129197 0.07275269 -0.21259858 0.08255013 0.07210059 0.15316273
0.09800595 -0.1465946 -0.0923229 -0.043793358 0.11654099 -0.033607174 -0.0018690353 -0.05366025
0.12406497 -0.018654648 0.11422285 -0.06696291 -0.039183915 0.06290894 -0.012727506 0.042676132
-0.09501178 -0.01038755 -0.111011535 -0.060439527 0.09236518 -0.05768994 0.1150139 0.07767678
0.03436155 -0.04170451 0.09664774 -0.012978885 -0.08547336 0.032985512 0.07010208 0.16049452
-0.06472785 -0.03920614 -0.014177674 0.039803207 -0.10727963 -0.07726429 0.058472544 -0.026809845
0.058519945 -0.102505974 0.037913993 0.05647382 0.11521669 0.13319287 -0.013632583 0.14606616
-0.06571309 -0.048191816 0.062290892 0.092667244 0.13808541 -0.041727744 0.014706319 0.15261106
0.087446116 0.14226153 0.023456657 -0.064102724 0.02852391 0.064786255 -0.09888592 -0.095886916
0.1127878 0.058215164 0.022614744 0.011929099 0.10292606 0.05157276 0.075074084 0.103536464
-0.067607135 -0.08936174 0.20016116 -0.057367474 0.08079271 -0.052339125 0.051945042 0.07982235
0.110494815 -0.06492863 0.014437094 0.12600204 0.114274874 0.08108292 0.018807335 0.04721392
-0.12252268 0.12444513 0.12523156 -0.017319126 0.06293112 -0.063911304 -0.18123314 -0.02223071
0.050579965 0.10719949 -0.20309952 -0.08780032 0.16724052 0.08802688 0.087027386 0.081583574
0.031912897 0.029825494 -0.12215297 -0.09696696 -0.16690211 -0.13936241 -0.14720848 0.17751884
0.066502765 -0.02662806 0.034777686 0.037977856 0.11624622 0.077762574 -0.08625701 0.121963724
-0.0016170149 0.014859022 -0.123769514 -0.1105843 -0.10705952 -0.1046351 0.06712794 -0.08322917
-0.11053318 0.05584138 0.0048085456 0.12699129 -0.06804053 0.025310883 -0.038874175 -0.03235802
-0.03812102 -0.03295515 -0.035657026 0.09410187 0.026062071 0.09762027 0.13296865 0.045518246
0.12639286 0.008159119 -0.066388346 0.07865219 -0.012561044 0.085181065 -0.041326687 0.008238538
-0.066688046 0.056484148 -0.08018895 -0.124078006 -0.09056486 -0.062436443 0.0028124782 -0.042132147
-0.114277445 -0.09669952 -0.013066646 -0.13661449 0.118779175 0.07419796 0.0891926 -0.038573205
0.02796568 -0.076464735 0.08407422 0.056737907 0.0695537 0.008171188 0.013598493 -0.08627608
-0.07789906 -0.17790341 0.022414528 -0.029805468 -0.103868164 -0.032546356 0.10067418 0.16516502
0.10889115 -0.04562151 -0.0029087618 0.26640156 -0.08380202 0.18498868 -0.09619577 0.0339161
0.05645077 -0.041055605 -0.04185963 0.09507843 0.06910314 0.14293431 -0.00035960943 -0.06918654
0.14301966 0.0089919185 -0.0055667525 0.058837324 -0.13046348 0.09476794 0.061904088 -0.053973842
-0.06213091 0.021389622 0.07860499 0.038281318 -0.011305406 0.030580252 -0.075673774 -0.07452569
-0.08623414 0.12815115 0.116717115 -0.082604386 -0.026860716 0.08717538 0.00010821699 -0.0011720667

weight_hh f4 [300, 75]
00000000: 47f7 b8bd 9299 edbd 78d8 883d e7f5 073d
00000010: 9c4d c23d 1c1b 2fbd 8775 24bd bb43 5b3d
00000020: bcb6 533d 6a0a 51bd 1818 523c 91a3 dabc
00000030: e38c 693d a192 083b 50f7 bebd 6c59 053e
00000040: 5ef5 11bd b927 b2bd bae7 3e3c 1c34 ba3d
00000050: 896a e0bc 93fd f33d b127 913d ab54 28bd
00000060: da02 79bd 1970 85bb a8f4 093d bedb 4ebd
00000070: 0c1d 01be b63c 1e3d 1845 033e e1b7 60bd
00000080: af5d a3bd 0a09 37bd c0d2 243d aa63 2f3d
00000090: 1826 9c3d 8377 c73c c481 a5bd 7748 283d
000000a0: a237 42bc b092 52bc c455 9bbd 9bcb 183e
000000b0: f236 ccbd f232 41bd a2ae 103e 92ab bf3d
000000c0: 4a54 b13d 602a 7fbd 804b d6bd fce6 bc3d
000000d0: b5f0 843d 6d4a ac3d 5db1 85bd 7676 a3bc
000000e0: d936 f1bd 7554 ab3d d12f 023d 4dee a13d
000000f0: f2ad 053e 5a61 c6bd 9551 e33d 5438 fcbb
00000100: 076f d6bd 9c1d 96bd fe81 643d 4f57 20bd
00000110: c20f 5b3a 4b9b 513d cf6b 9e3d 493d a4bd
00000120: 9c74 c83d 7a3f b93d 6f20 93bd cb61 aebd
00000130: cafb 83bd aab9 74bd 9d77 2bbd e2e8 dc3d
00000140: 648a 01be cdba 86bc 4416 a63d f907 f4bd
00000150: bdd0 8dbd d702 f33b 4a03 8dbd b200 5abd
00000160: 2cdd edbd 418b eabc 5503 0a3d cac4 95bd
00000170: 39c4 8fbd a3f6 923c 4733 01bd b268 4d3d
00000180: bb8f 9c3c 4b13 b53d 0cda 46bd 5927 b4bd
00000190: c7ad 823c ffa9 aebc 1ef2 1ebe 0eda 363d
000001a0: 4eea 9a3d d4a9 e1bd 724f 503d c79b 363d
000001b0: 6205 b93d e399 06be e878 713d a16d 933d
000001c0: 3558 e9bd e0fe 05bd 5212 88bd 4f6f df3d
000001d0: b670 01bc 68f4 463d eed0 273d da88 d339
000001e0: 224e 8ebb 1c1c 873d b171 f33d b185 b63d
000001f0: 8547 0d3e 68c3 c1bd 6213 833d ed63 83bc
00000200: 428c 0abd 5784 99bd ae0b 7ebc 6869 f13d
00000210: ba66 e73d 1805 a03d 7c57 b73c 3d87 b43d
00000220: ad55 8e3d c8f0 8cbd f139 f33d 5522 c4bd
00000230: 4960 d83d 2e01 92bd 3420 b93a 7477 be3b
00000240: b406 e23c 4c49 613d f5e0 14bd ed46 803d
00000250: 3327 c93d c887 b1bc 7ee5 c43d 18a0 a03d
00000260: 6da3 fdbd f948 b93d c004 633d cb38 2d3c
00000270: add4 853c 4ab9 983d a895 ebbd a0cc 963d
00000280: 5eff c93d 3634 86bd b3b2 81bd db19 d3bd
00000290: 1153 8abd e857 2c3d e7b5 8dbd 7fad 5dbc
000002a0: da7c 3bbd eefb b23d 4689 9c3d 32a1 8a3c
000002b0: fcb2 3bbd b386 743c 9256 063d d977 81ba
000002c0: 7970 153e bc0f bdbd a0f3 2dbd ada7 9abd
000002d0: ba7d e1bc d2a5 5ebc d85b 8cbd dd1b 963d
000002e0: 1bca f9bd 9124 d6bd 94df f23d 1323 bbbd
000002f0: 1fa1 e7bd bf33 a23d 718b f93c f959 49bd
00000300: 1b76 fa3d 7851 d93d 8fe4 00bd f5bc 8dbc
00000310: 0674 283d b60c 763d 5b5c 3c3d 7352 b23d
00000320: 4918 d23d ba0f a3bc 6ca9 ba3d b2db 4c3d
00000330: ba20 b73d 039f e6bd 9615 013e 7980 f43d
00000340: e88b 8dbd 532c b1bd ea72 21bb 844b eabd
00000350: afc8 c3bd b648 11be bf8f d73c 836c d23d
00000360: a9dd 0b3d 1ab8 783d d85d ff3c 2e5f b8bb
00000370: 1ca7 a6bd 71e7 213d d0b5 943c 85e1 283d
00000380: 86e0 053e 8049 d03d dd2a d6bc 05ea 3c3d
00000390: ddc6 ce3d a2c7 28bd eeda f43d 04d5 0f3e
000003a0: 69a2 d83d f48d 89bc ee9e af3d f37c ca3c
000003b0: 2646 983d 0fdf 183e 816f 943d b49b 4abd
000003c0: f78f 11bd 4d83 223e d6cf 84bd 69d1 023e
000003d0: 8e64 18bd 0250 b6bd bb67 b2bd 265b a53d
000003e0: 5498 4b3d 28d0 e83d 5cd9 133c 04d1 e1bc
000003f0: 67b1 6ebd ed3f a83d 8edc a73d 43e7 0dbd
-0.090315394 -0.11601557 0.06681913 0.033193495 0.09487459 -0.042750463 -0.040151145 0.05353139
0.05168794 -0.051035322 0.012823127 -0.026689323 0.057019126 0.002083935 -0.09324515 0.13022393
-0.03563439 -0.08698983 0.011651928 0.0909197 -0.02739455 0.119136 0.07087649 -0.04109637
-0.060793735 -0.004072201 0.033680588 -0.05050253 -0.12608737 0.038632117 0.12819326 -0.05486286
-0.07976853 -0.044686355 0.04024005 0.042819656 0.07624453 0.02434898 -0.080813915 0.041084733
-0.011854084 -0.012852356 -0.07584718 0.1492142 -0.099714175 -0.047167726 0.14129117 0.09358896
0.08658655 -0.06229627 -0.10463619 0.09223744 0.06491224 0.08412633 -0.0652797 -0.019953948
-0.117780395 0.08365718 0.031783883 0.079067804 0.13054636 -0.09686537 0.11099545 -0.0076971445
-0.104703955 -0.07329866 0.055788033 -0.039145764 0.0008356535 0.05117349 0.077354066 -0.08019502
0.097878665 0.0904531 -0.071839206 -0.08514746 -0.06444509 -0.059747376 -0.04186212 0.10786606
-0.12650448 -0.016446495 0.081097156 -0.11915583 -0.06924579 0.00741611 -0.06885393 -0.05322332
-0.11614451 -0.028630855 0.033694584 -0.07312925 -0.070198484 0.017939871 -0.031543043 0.050148673
0.019111505 0.088415705 -0.04854779 -0.087965675 0.015952004 -0.021321295 -0.15522048 0.044641547
0.07564221 -0.1101872 0.050857015 0.044582155 0.0903423 -0.1314464 0.058953196 0.071986444
-0.11393777 -0.03271377 -0.06644119 0.10909902 -0.007900408 0.048572928 0.040970735 0.00040347019
-0.0043428103 0.06597158 0.11886919 0.08912218 0.13796814 -0.09461099 0.06400181 -0.01603886
-0.033825167 -0.07495945 -0.015505714 0.11787683 0.112988904 0.078134716 0.022380583 0.08814857
0.06949935 -0.06881863 0.11876286 -0.09576861 0.1056524 -0.07129131 0.0014123977 0.0058125798
0.027591087 0.055001542 -0.03634735 0.06263528 0.0982193 -0.02167119 0.09614085 0.078430355
-0.123846866 0.090471216 0.05542445 0.0105726225 0.016336763 0.07457216 -0.11503154 0.07363248
0.098631606 -0.06552927 -0.06332912 -0.10307666 -0.06754125 0.04207602 -0.06919461 -0.013530134
-0.045773365 0.08739458 0.0764337 0.016922567 -0.04582499 0.014924693 0.032797404 -0.0009877636
0.14593686 -0.09231517 -0.042468667 -0.07551513 -0.027525771 -0.013589339 -0.06853455 0.07329533
-0.12196752 -0.10456193 0.118590504 -0.09137549 -0.11310028 0.07920026 0.030461999 -0.04915807
0.12229558 0.10611242 -0.03146797 -0.017302016 0.041126274 0.060070716 0.045986515 0.08707132
0.10258538 -0.01990496 0.09114346 0.050014205 0.08941789 -0.11260798 0.1260589 0.11938567
-0.069114506 -0.08651032 -0.0024635145 -0.11440185 -0.09559762 -0.14187893 0.02631366 0.10274603
0.03414694 0.060722448 0.031172678 -0.0056265807 -0.08137342 0.03952736 0.018153101 0.041230697
0.1307393 0.10170269 -0.026143486 0.046121616 0.10096524 -0.04120601 0.1195582 0.14046103
0.10577852 -0.016791321 0.08575235 0.024717784 0.07435255 0.1492884 0.0724783 -0.049464896
-0.035537686 0.158704 -0.06484954 0.12775196 -0.03720527 -0.08901979 -0.08711191 0.08074026
0.04970582 0.11367828 0.0090239905 -0.027565487 -0.058274653 0.08215318 0.08196364 -0.034644376

bias_ih f4 [300]
00000000: 1885 60bc 7453 043e 9f1e 72bd f00d a63d
00000010: 3841 bf3d f3ab 0d3d 00e4 7f3d 7b00 82bd
00000020: 859f 5b3d cda9 1ebd 1560 493d a05e 653c
00000030: 36b0 a2bd d960 b63d 6434 64bd b52c ae3d
00000040: e177 913c 9dce a439 bc8b 903d 7174 833d
00000050: 6235 243e 7631 0e3b 3a96 1c3e 5a2f c73d
00000060: c1d2 b63d 9f86 40bd ef39 583d 5840 833d
00000070: 80dc 06bd 378c 6f3d 14c1 153e a220 9a3d
00000080: 61e9 ec3c 167d 4a3d 97bb d3bc be45 803d
00000090: ee02 283e 5af8 013e f6ba 8b3d bbe5 1f3e
000000a0: 51fc e5bd c8c1 eabd 376b 5dbd f3d0 823d
000000b0: 4bb9 063d de37 743d 363c 193e 08da a63c
000000c0: ee28 803d c9be 0b3e 9d99 0fbc dcc7 1ebd
000000d0: 25a1 97bd b518 83bd 5ddc 1f3d d039 9f3d
000000e0: 069d 4ebd 3877 c6bd ce78 9e3d 6695 633d
000000f0: 13f7 77bd d9cd 503c e035 853c d4ad 91bc
00000100: 0b5e 4cbd d19c c83d fca8 e2bd c142 cf3c
00000110: f84b 143e 4229 023d ee9d 1bbd 7a60 543d
00000120: 50cc f5bc a694 d13d 415a afbd 55ce 09be
00000130: e6a8 033d 2a2c 7c3b a5ef 293e a35b 1abe
00000140: 2c2e cbba b3f6 b93d ea90 973c 23cb e73d
00000150: 8deb d33d cbd4 24be 10bc 94bc 23c3 b33d
00000160: b8fd fb3d de25 173d 098a 0bbe 327d 883d
00000170: 1c8e 2e3d eaa2 ef3a 8554 cb3c 0965 b33d
00000180: c262 80bd 64c3 e9bd dcf2 6abd 5954 f7bc
00000190: 3a04 e43d 6f4e 99bd 3552 053d e749 b23c
000001a0: 931c 38bc 76c3 d13b 088d 63bd d6ce dbbd
000001b0: 13da e23d ed71 133d e2df 82bd cd31 f2bc
000001c0: 94ff ec3b 15e8 b6bd cd7a 0e3d e902 b7bd
000001d0: 3a96 2abd d0be 0cbe 2048 84bc c7c2 8cbd
000001e0: f133 28bb e928 cdbd 7ef3 9cbc 136c 503b
000001f0: 642f 5bbd a352 93bd 780b a13b 4beb dcbd
00000200: cebc 2cbd 6dc2 d53d b62c 02be d73f cc3d
00000210: 2d41 e3bd dade a43d 506c b2bd 6ab8 c9bc
00000220: cdbc 64bd 53c1 0b3e cdc1 833c 46c6 753c
00000230: 88fb 50bd 880f 84bd 3729 b2bd e458 c5bd
00000240: 45ce 23be 874a d4bd 5c8e 75bb 4887 8ebc
00000250: da69 2fbd b4cc 6fbd b324 adbd e537 01be
00000260: 7dd7 94bd 1ecf 873b b8bc 893d 8f3f b53b
00000270: f705 8bbd 67c3 103d c57c f3bd 831e e0bc
00000280: 0bb8 42bd 99c5 b83d d068 773d 3b0a 32bd
00000290: d9c6 cf3d 201a 71bd 3285 3ebd 6212 23bc
000002a0: 16f3 09bd a373 053d 86e4 86bd 5998 1bbe
000002b0: ea24 7a3c 0443 d4bc 7a4f 13bd 7f80 f2bd
000002c0: b2a4 04be 536f e5bd bfd0 ed3d 6525 063d
000002d0: d3e4 1f3e 844f e7bd 774e 1c3d 8792 e2bd
000002e0: bbe9 fc3d fc25 f43d ccff e1bb 45ce 3dbc
000002f0: 8c14 b9bc 5099 a53c 0907 9cbc da68 ce3d
00000300: d86e 1abd 4854 273e 5910 9d3d ebf5 173c
00000310: ba09 a43c d068 e23d cc32 b53c a250 5d3d
00000320: 1f0d 0bbe 5324 61bd 2b6a 94bb db16 d43d
00000330: f220 323d daba 2b3d 8f56 acbd 1f5a ccbd
00000340: d0bf 073d 48a3 90bd ee46 53bd e054 e23d
00000350: 7c64 e63d cd5d a3bc 31db de3c ce0b e9bc
00000360: 5bf5 c83d 0e97 4ebd 96d0 f6bd 63f2 4c3d
00000370: f53a 86bd 6f9f d5bd 38cc 8cbc 5684 bf3d
00000380: 27c7 c3bd add7 743d cfce c63b c342 fabc
00000390: 031b 06bd 699c c2bc 0a56 bb3d bf4e f13c
000003a0: 2ddb 273d db20 13bc b380 203e 38c2 363d
000003b0: 5b3c 12bd 95f2 9b3d 613e 42bd 60da 9dbd
000003c0: aac6 813c 397d c8bc 9a3c 88bc 8014 6dbd
000003d0: 24d6 2abe 0db1 b73d af69 42bd 90bc 8d3c
000003e0: 4c01 04be adda 81bc 9038 243c bf6c 0e3e
000003f0: 2c6e 7e3d 6267 26bd ad36 b6bc af6e 403d
-0.013703607 0.1292246 -0.059111234 0.08108127 0.09338611 0.03458781 0.062473297 -0.06347748
0.053618927 -0.038736153 0.049163897 0.013999611 -0.07943766 0.08905191 -0.055714026 0.08504621
0.017757358 0.00031434456 0.07057902 0.06418694 0.16035989 0.0021696961 0.15291682 0.097258285
0.08926917 -0.047003385 0.052789625 0.06408757 -0.03292513 0.05848333 0.14624435 0.075257555
0.028919877 0.049435697 -0.025846286 0.06263302 0.16407368 0.12692395 0.06822769 0.15614979
-0.11229766 -0.11462742 -0.054057326 0.0638751 0.032891553 0.05962359 0.14964375 0.020367637
0.06257807 0.13646998 -0.008764652 -0.03876482 -0.07403783 -0.06401197 0.039028514 0.07774699
-0.050442718 -0.09690708 0.077378854 0.0555624 -0.060538363 0.01274439 0.016261041 -0.017783083
-0.049894374 0.09795535 -0.110673875 0.025300385 0.14482105 0.031777628 -0.03799241 0.05184982
-0.03000465 0.102334306 -0.085621364 -0.13457616 0.032143496 0.0038478472 0.16595323 -0.15074019
-0.0015501431 0.09080257 0.018501718 0.11318042 0.10347662 -0.16096799 -0.018156081 0.08777454
0.123042524 0.036901347 -0.13626875 0.06664504 0.042615995 0.0018282805 0.024820575 0.08759505
-0.062688366 -0.11414221 -0.057360515 -0.030191587 0.11133619 -0.07485663 0.0325491 0.021763755
-0.011237281 0.0064014746 -0.05555442 -0.1073281 0.110767506 0.03599732 -0.063903585 -0.029564762
0.0072326157 -0.08930985 0.03478508 -0.08936102 -0.041647173 -0.13744664 -0.016147673 -0.06873088
-0.0025665725 -0.100175686 -0.019159075 0.0031802699 -0.053511992 -0.07193496 0.0049146973 -0.10787066
-0.042172246 0.104374744 -0.12712368 0.09973114 -0.11096416 0.08050318 -0.08712065 -0.024624068
-0.055844117 0.13647966 0.016083622 0.015000885 -0.05102113 -0.06448275 -0.08699267 -0.09636095
-0.15996654 -0.103657775 -0.0037468886 -0.017398492 -0.042825557 -0.05854483 -0.084542654 -0.12618978
-0.07267664 0.0041445633 0.06725448 0.0055312584 -0.06788247 0.0353426 -0.11889032 -0.0273583
-0.0475388 0.09022064 0.06040269 -0.043466788 0.10145349 -0.058862805 -0.046513744 -0.009953113
-0.03367909 0.032580983 -0.06586556 -0.15194835 0.01526759 -0.025910862 -0.035964467 -0.11840915
-0.12953451 -0.11202874 0.11612081 0.032750506 0.15614633 -0.11294463 0.038160767 -0.11063104
0.12349268 0.119213074 -0.0068969484 -0.011584823 -0.022592805 0.020214707 -0.019046323 0.100785926
-0.037703365 0.16340744 0.07669134 0.00927494 0.02002417 0.11055148 0.022118948 0.054031976
-0.13579224 -0.054966282 -0.004529258 0.10355922 0.04348845 0.041926242 -0.08414947 -0.09978127
0.03314191 -0.070623934 -0.051581316 0.11051345 0.112496346 -0.019942189 0.027204128 -0.028448012
0.09812423 -0.050437026 -0.12051503 0.050035845 -0.06554214 -0.104308 -0.017187223 0.09351413
-0.0955947 0.059775997 0.006067134 -0.030549413 -0.032740604 -0.023756223 0.0914727 0.029456494
0.040980507 -0.008980001 0.15674095 0.044618815 -0.03570209 0.07614628 -0.04742277 -0.07707667
0.0158418 -0.024473773 -0.01663046 -0.05788088 -0.1668325 0.08969317 -0.04746407 0.017301828
-0.1289112 -0.015851343 0.010023251 0.13908671 0.062116787 -0.040625937 -0.022242868 0.046980556

bias_hh f4 [300]
00000000: 4bd6 2bbc aaac d53d 3495 e2bd 10ed 86bc
00000010: a124 133e 3e3c ccbd a9b4 a03d 6288 babc
00000020: 7316 1d3e e555 81bd 9875 293e b365 193d
00000030: dec2 5ebd 9547 6e3d 835c 733d eaac a03c
00000040: a9fa ba3d 2831 ec3d 98b8 64bc 9c1a 363d
00000050: a608 083e 3ced e33d 4c65 c93d dae9 57bc
00000060: 18c2 ee3d d185 df3d bdb8 07bd 898c f53b
00000070: ab3d 48bd 1977 a7bd 4c2d 69bc 82f0 23bd
00000080: 682f 7a3d 4660 a23c 359a c4bd b2ae 283e
00000090: b6e1 0c3c 7c78 8d3d 81b3 d53d 7aa6 143e
000000a0: c091 b4bc b642 a63c 7904 b13d b0e1 c03d
000000b0: 2d20 743d cf3f 093d 0408 acbc b7e6 dcbd
000000c0: 00fc 203e 3df7 503d beea 83bd d00b 383d
000000d0: bdfd d3bc aaa5 683c b7ae f43c dac2 ce3d
000000e0: 0821 4cbd 2e57 f93c 1b97 94bc af99 e6bd
000000f0: 81d2 493c 7472 bcbd f347 1e3e 0767 e23d
00000100: 7e19 583c 88d3 05bd 4ff8 fb3b 32f6 05bb
00000110: 8df2 fc3d f520 8b3d a57f 7abd 2ea6 753d
00000120: 5f7c 663d 02ca c13d b386 a0bd d373 e2ba
00000130: 0d21 4d3d 3bf6 643b 8a95 ee3b d660 453d
00000140: 508d 053d d1e7 6fbc d1e6 b7bb 9c6b ef3d
00000150: c56c 4f3c 1a42 f6bc 9030 90bd f5d3 d83c
00000160: e906 f13d 56a2 093d a7f0 573b 8dd8 093d
00000170: dff6 27bd 1b33 9f3b ae27 74bc 609d bbbc
00000180: be15 ecbd fb3b 4abd e17a e53c 4ec9 ecbd
00000190: 1fef 6b3d e49f fdbc 68b3 823d 6e17 b9bd
000001a0: 3a13 92bd eca0 f3bd 1a0d 9abd c186 1e3d
000001b0: 05f4 ea3c c9be 34be f4c4 d0bd a1b6 cf3c
000001c0: 7864 b6bd 1f63 8e3d 590b 87bd ec1e 00be
000001d0: a364 79bb 4d27 b63d ba34 f8bc 64f3 e4bb
000001e0: ba90 953d 5cb3 45bd 7c3c c13c 79e5 203c
000001f0: 610a 16bd d647 d4bd 1262 a2bd e209 8dbd
00000200: 36d1 f53c 48a6 28bd 9cac 22be 639a a83c
00000210: d384 f4bc a705 723d e1a7 b8bd a728 863d
00000220: bf28 a83d b472 213e 9d72 803d db25 a93d
00000230: 69f5 53bd de34 503c 205b b5bd 7678 a9bd
00000240: 2f7a f3bd ab98 c7bd 3549 1fbd ae7f 173c
00000250: 6fd6 dfbd fa40 583d d97d 473d c0e2 863d
00000260: 8e04 d8bd 7617 00be e971 8d3c 034e 37bd
00000270: e1c6 cc3c 923b 41bc 6ba1 d3bc b70b 8c3d
00000280: e0fc 8bbd ad40 79bd 272a 0c3e f01f 5cbc
00000290: 7b4f c33d 0829 babd a872 c53d 0d23 aebd
000002a0: c101 5e3d ec28 a9bd 5093 51bc 9b15 053d
000002b0: 9545 163e 6929 1fbc c397 9fbc 123a 87bd
000002c0: 09cd ddbc 52ab f3bd 8f45 903c c1a5 9ebd
000002d0: 8df6 61bd 1e54 ce3d 3378 b63d 4f23 f1bc
000002e0: d3c1 0dbd 7cb1 8dbd b3f2 8b3d 9bd4 883c
000002f0: e45b a9bd 03d9 babd c9b9 7dbd bf34 8c3d
00000300: 74b8 6fbd b9b1 4e3d 46c6 303d ef3b 263d
00000310: cf9c e53b bd0b 58bd 022f f43d 3089 2ebd
00000320: d766 68bd fbb6 463d eb30 5d3c 70ef 27bd
00000330: ac46 913b f975 a1bd b2b5 953d 84ba f73d
00000340: 92f7 3538 87fc 12bd c2f4 1d3e c31b 9dbd
00000350: fdf9 0b3e 2d86 bcbd 60e2 65bd 0322 9dbd
00000360: f361 d13d d75b 743c fe7f 98bd 2f7f 983d
00000370: 6e04 a4bd 22fb b4bc 273b 9c3d 5e7f e8bd
00000380: 5b83 30bd a2e3 ee3d 775f 9a3d 6347 593d
00000390: 32bb 823d 5566 ae3d 2510 6f3d ea47 e1bd
000003a0: fe7a 4ebd 2a02 203e b0a9 d63d 52cd ad3d
000003b0: 1b54 893d d600 a73b 2b04 873d 15b5 323d
000003c0: 0c4f 74bd 2d9b 1bbd 4fdd 67bc a334 913d
000003d0: 8aea ae3b 1b10 923d 14b4 06be 0ab4 b93d
000003e0: 8767 a53d f703 043e 1a4f d23d fe87 c13d
000003f0: 3d3f 463d ff00 613d b85d b83b fe50 7bbd
-0.010488103 0.10433324 -0.110636145 -0.016470462 0.14369442 -0.09972428 0.07846958 -0.02277011
0.15340595 -0.06315211 0.16548765 0.037450504 -0.05438506 0.058173735 0.059414398 0.019613702
0.09129841 0.11532813 -0.013960026 0.04445897 0.13284549 0.11129233 0.09833774 -0.013178313
0.11658114 0.10914195 -0.033135165 0.0074935597 -0.048886936 -0.08177013 -0.014231991 -0.040024288
0.061080366 0.019821297 -0.09599725 0.16472891 0.008598736 0.06907746 0.10434628 0.14516631
-0.022042155 0.020295482 0.08643431 0.094180465 0.059600998 0.03350812 -0.020999916 -0.10786193
0.1572113 0.051017035 -0.06441258 0.04493314 -0.025877828 0.014199654 0.029868467 0.10095759
-0.04983619 0.030437078 -0.018138459 -0.112597816 0.012318254 -0.09201518 0.15457134 0.11054807
0.013189672 -0.032672435 0.007689513 -0.0020440933 0.123509504 0.067933954 -0.061156888 0.059972934
0.056270953 0.09462358 -0.07838192 -0.001727695 0.050080348 0.0034936804 0.00728101 0.048188053
0.03260547 -0.014642672 -0.0056122323 0.11690447 0.01266021 -0.030060817 -0.070405126 0.026468256
0.11768896 0.03360208 0.0032949836 0.033653785 -0.04100692 0.004858387 -0.0149020385 -0.02290219
-0.115275845 -0.049373608 0.028012695 -0.11561833 0.05760109 -0.03096003 0.06381875 -0.09037672
-0.071325734 -0.11895928 -0.0752203 0.03870273 0.02868081 -0.17650904 -0.10193816 0.025355639
-0.08905882 0.069524996 -0.06593961 -0.12511796 -0.003805437 0.08894215 -0.03029858 -0.0069870222
0.07302995 -0.048266754 0.023588412 0.009820336 -0.03663099 -0.10365264 -0.07928862 -0.068866506
0.030006986 -0.041174203 -0.15886158 0.02058143 -0.029848492 0.05908742 -0.09016395 0.065507226
0.08210897 0.15766412 0.06271861 0.082591735 -0.051747713 0.012707917 -0.08855271 -0.08274929
-0.11888539 -0.09745916 -0.038888175 0.00924675 -0.10929572 0.05279634 0.048704002 0.06586218
-0.10547744 -0.1250895 0.01726623 -0.044752132 0.024997177 -0.011793988 -0.025833806 0.06838172
-0.068353415 -0.060852695 0.13687955 -0.013435349 0.09536644 -0.09089857 0.096410096 -0.08502779
0.05420089 -0.08259758 -0.01279147 0.032491308 0.14674981 -0.009714463 -0.019481545 -0.06602873
-0.027075307 -0.11897911 0.017611293 -0.07746459 -0.05516677 0.10074638 0.08909645 -0.029435782
-0.034608673 -0.06918618 0.068334006 0.01670294 -0.0826948 -0.09123423 -0.061944757 0.06845998
-0.058525518 0.05046246 0.04315784 0.0405845 0.0070072184 -0.05274557 0.119230285 -0.0426113
-0.0567387 0.048514348 0.0135004325 -0.04099983 0.0044334736 -0.078838296 0.07310046 0.12096122
4.338433e-05 -0.03588536 0.15425399 -0.07671311 0.13669582 -0.092052795 -0.05612409 -0.07672503
0.102237605 0.014914474 -0.074462876 0.07446133 -0.080086574 -0.022092406 0.0762847 -0.11352418
-0.04309402 0.11664511 0.0753774 0.053046595 0.06383361 0.08515612 0.058365006 -0.11000045
-0.050410263 0.15625826 0.10481584 0.08486427 0.06705495 0.005096535 0.06592592 0.043629725
-0.059645697 -0.037989784 -0.014151885 0.07090118 0.005338018 0.07131978 -0.13154632 0.09067543
0.08076387 0.12892137 0.10268994 0.094497666 0.048400152 0.05493259 0.0056264065 -0.061356537

weight f4 [500, 32]
00000000: a81c cdbf ddcc 03bf 9555 fe3e b089 433d
00000010: ab95 bf3f 7134 aabe 265c 20bf 2b29 0f3e
00000020: c3db 0f3f 1a48 8e3e 9a79 8cbf 2d5b cf3d
00000030: 66d0 713f 7701 693f 6815 b13f 761a 6dbe
00000040: 8551 b23e 74a2 e53f 5a08 1440 2b60 b73f
00000050: ee65 e5be f98a 0dc0 47a1 6c3e 2c24 ef3d
00000060: 5bb2 7b3e 6ae8 a83f 0cd1 103e bee4 cc3f
00000070: ba7b 3fbf ad2a 85be 3acb aebf 1e98 d5bf
00000080: fe25 42bf f4b0 c63f b1b8 903f d303 b53f
00000090: b7eb 01bf 4c6e c53d 7114 b3bc 60ea aabf
000000a0: 5968 54bf ed67 063e cc68 f43f 4019 7e3f
000000b0: 6bc1 363d fcef a5be c42c 853e 9924 c13f
000000c0: 74ff afbf f572 87bd 176c 7ebf 53c0 023e
000000d0: fc2e 34bf 2009 9e3f 0872 5b3f 946a 96bf
000000e0: eece 2fbe a9fb e73f 89ef 22bf 6d34 91bf
000000f0: a71a 94bf 69c7 40bf d92c 23bf 095b 0d3f
00000100: 18e4 a13f 6c3a debf 8d40 10be 89a0 f03d
00000110: 4d5d 343e 75a7 a43e 3fd4 40bf ce7e acbe
00000120: 997e d9bd f21f c6bd 5229 27bf b12b 44bf
00000130: 9351 223d 505c eb3e 46f2 4b3f 594b 91bd
00000140: a69b 11bf a166 02be 7370 75bf e1cb 773e
00000150: 2df1 e63d a8f7 1e3f c8cf 6abe 0150 693f
00000160: 86ca 27bb 81ff d23e ec6b 293f 5229 a33f
00000170: 7c10 8dbe ed1b a63f c6b0 383f e398 1f3f
00000180: f76c e43f 9719 11bc 9665 eabe de40 2dbd
00000190: a5fc b8bf 028b f9bd d041 f8bf 8536 0ebf
000001a0: 2289 283f 3444 2e3f 8326 df3e 311c 1a3f
000001b0: 6c40 babe 85bc 293f 63c9 33bf 48c3 4b3f
000001c0: 66ba e63d 9293 82bf 73b0 963f 41c9 f63f
000001d0: b76c b33e 4e8c d4be fc16 b3bf 07e5 01be
000001e0: 658f 6c3f a985 a63f 8ae0 823e 1e3d 1fc0
000001f0: 5526 903e 5d5a 52bf 70b1 febf 25cc 98be
00000200: 216e 05c0 5a43 883f eb84 cbbe f351 7a3f
00000210: 771d 31bf a9c3 2cbf c6ae 073e 1863 1e40
00000220: 1d57 56bf 8906 893f d1b3 d6bf 0043 2abf
00000230: 52d1 80bf 204d bcbe cd06 b7bd 17dd c6bf
00000240: 1b75 243f 9a3e 76bf 4a7e d63e 0f37 69bf
00000250: fe2b b0bf 2933 afbf d453 243f 46d4 113d
00000260: 1234 0640 5c62 493f 9ff4 bbbd 6fbf 89be
00000270: 5a9e f23f 1191 333f 9d83 2b3f 5f5b 9abf
00000280: ecf8 1d3e 9c83 b5be 9e8f 833f b28f 4dbd
00000290: c802 ba3f 8e1b 8a3f 8811 fe3f ef8b 5b3e
000002a0: 1d5c d93e 0767 cc3e 861e 2dbf 892f cabf
000002b0: b6e9 4c3f fed7 c13e 0794 d03e edb6 603d
000002c0: 5560 fb3f fb98 bf3e 008c e23e 1a4f 82bf
000002d0: 72ab 513f 8221 8cbf 249f 6cbf a42b 4dbf
000002e0: 05de 483f 14c0 893f 6fb5 8dbf 06a5 04bf
000002f0: 30ef 913e 9ab3 c2bf 3c19 8e3e fe8f e93f
00000300: 834f 303f e86a a8be 611f 643f c263 f4bc
00000310: 6ced 2ebf b8a8 e9bd 2ff2 35bf 2fca 123f
00000320: 2211 1b40 863e d2be 87ec 9dbf 3524 6d3f
00000330: d222 aebf 6f92 b1be e10a cfbe 3795 a83f
00000340: 89c3 5fbf d97a 8e3c 4917 923f 842a a8be
00000350: 2e7a 5dbf 88fb 003f 7e93 0abf 7e13 803f
00000360: a494 683e 432b 8dbf 6df7 95be 7bff 993e
00000370: 9375 ec3f 9c73 a2bf ea13 3a3f c549 a0bf
00000380: d270 4a3f 20b5 ed3e b68c 1940 6eb6 4f3f
00000390: 1950 eebd 8fee bd3f 3538 903e 2d7e b03d
000003a0: fc02 42bf 6572 30bf 79a7 a8bd b080 213f
000003b0: a9d7 03c0 f080 cc3e b7ff ce38 bf8d a73f
000003c0: 4652 07bf bce5 bfbf 21b9 363e 53e9 703e
000003d0: 51cc 3cbe 7e29 a03f 93d3 7e3d c140 a0bf
000003e0: 98bf 52bf 6a45 ac3c e83a 34bf fd4d 503f
000003f0: 0486 b3be 0a57 57bf b4b1 9dbf f97a 013d
-1.602437 -0.5148447 0.4967467 0.04773873 1.496755 -0.33243135 -0.6264061 0.13980548
0.56194705 0.27789384 -1.097461 0.10124812 0.94458616 0.9101786 1.3834658 -0.23154625
0.3482782 1.7940202 2.3130097 1.4326223 -0.4480433 -2.2116072 0.23108397 0.11676821
0.24579756 1.3195927 0.14142245 1.6007307 -0.74798167 -0.26009122 -1.365577 -1.6687047
-0.7583922 1.5522752 1.1306363 1.4141792 -0.507503 0.09640178 -0.021860333 -1.3352776
-0.8297172 0.13125582 1.9094481 0.9925728 0.04461805 -0.32409656 0.26010716 1.5089294
-1.3749833 -0.06613723 -0.9938368 0.12768678 -0.7038419 1.2346535 0.8572087 -1.1751275
-0.17168781 1.8123676 -0.6364675 -1.1344124 -1.1570634 -0.75304276 -0.6374031 0.55217034
1.2647734 -1.7361579 -0.14087124 0.1174937 0.17613716 0.3215901 -0.7532386 -0.33690494
-0.1061985 -0.09674062 -0.65297425 -0.7662917 0.039628576 0.45968866 0.79666555 -0.070944495
-0.56878126 -0.12734462 -0.9587471 0.24198867 0.112764694 0.62096643 -0.22930825 0.911377
-0.002560289 0.4121056 0.661803 1.2746985 -0.2755164 1.2977272 0.72144735 0.6234266
1.7845753 -0.008856199 -0.4578063 -0.04229819 -1.4452101 -0.12184717 -1.9395084 -0.5555194
0.6583425 0.6807282 0.4358407 0.60199267 -0.36377275 0.6630328 -0.70229167 0.7959485
0.112660214 -1.0201285 1.1772598 1.9280168 0.3504388 -0.41513294 -1.3991389 -0.12685023
0.924063 1.300954 0.25561935 -2.4881053 0.28154245 -0.82169133 -1.98979 -0.2984325
-2.0848467 1.0645554 -0.39749846 0.97781295 -0.69185585 -0.67486054 0.13250265 2.4747982
-0.83726674 1.0705119 -1.6773626 -0.66508484 -1.006388 -0.36777592 -0.08936844 -1.5536221
0.6424119 -0.9618927 0.41893226 -0.9109964 -1.3763425 -1.3687488 0.6419041 0.03560283
2.0969281 0.7866571 -0.09177517 -0.26903865 1.8954575 0.7014323 0.669977 -1.2059134
0.15426987 -0.35451972 1.0278203 -0.050185867 1.4532099 1.0789659 1.98491 0.21440099
0.4245309 0.39922354 -0.676247 -1.5795757 0.80044115 0.378601 0.40737936 0.05486195
1.9638773 0.37421402 0.44247437 -1.018039 0.8190223 -1.0947726 -0.9243033 -0.80144715
0.78463775 1.0761743 -1.1070994 -0.51814306 0.28502798 -1.521106 0.27753627 1.8247068
0.68871325 -0.32894063 0.8911038 -0.029832724 -0.6833103 -0.11409134 -0.7107267 0.5733976
2.4229207 -0.41063327 -1.2337807 0.9263337 -1.3604376 -0.34682032 -0.40437987 1.3170537
-0.8740774 0.017392563 1.1413356 -0.32844937 -0.86514556 0.50383806 -0.54131305 1.0005949
0.22712952 -1.1028827 -0.29290333 0.3007773 1.8473381 -1.2691531 0.72686636 -1.2522513
0.790784 0.4642725 2.3992133 0.8113774 -0.11636371 1.4838427 0.28167883 0.08617816
-0.75785804 -0.6892455 -0.08235068 0.63086987 -2.0600379 0.39942122 9.870476e-05 1.3090132
-0.52859914 -1.4991984 0.17844059 0.23526506 -0.18437316 1.2512662 0.06221349 -1.2519761
-0.823236 0.021029193 -0.70402384 0.81369 -0.35063183 -0.84117186 -1.2319856 0.031611416

weight_ih_l0 f4 [384, 32]
00000000: 599f 693a 4e82 71bd 2a36 48bd 614c 4abd
00000010: 95f9 233d 9dbb e43c 927e d1bd 2126 e1bd
00000020: b8bb 9c3d 2fea d13c 3354 b4bd d225 b9bd
00000030: 2d57 16bc 79f7 053e bff9 323d 6055 97bd
00000040: daa1 1cbc 41a6 01bd 601a 053d 9dda 683d
00000050: 7b6d 1e3d 5e06 25bd dd45 263d 6b2b 093e
00000060: a615 26bd 0161 073e b04c 3e3d 3193 253e
00000070: ac8f 1ebe 18c2 763c 2b02 98bb e34c 403d
00000080: 2cc7 7fbd 2ef3 393d 55e7 2d3c 4246 893d
00000090: b7db 9cbb 0c39 2d3d e8cf 193b 3c3d e93b
000000a0: d964 a6bc 3757 ffbb 1ed9 f03d ec9e cabc
000000b0: 111b e53c d51a 123d 73d4 94bd d4dc 39bd
000000c0: 5626 223d 4406 193d 136d 7c3c 0a0a 12bd
000000d0: 4a6b 22bd 1888 2e3d 6274 d53b 21fb 3a3d
000000e0: 15c5 373d 19bd 02bc 963a c4bc 640a c9bd
000000f0: 99fd a93d 9892 43bd 34cd 423b d3ba adbd
00000100: e917 863d 1679 21bd 1233 5b3d e62f e5bc
00000110: 3049 89bd ec26 cd3c 7091 e23c 40ca 413d
00000120: b672 78bd 4afc a0bd 64d9 7d3d 8c88 cfbc
00000130: db0c 893d ebe6 29bd 1240 db3c 307e 393a
00000140: c586 9c3c 1d33 3b3d f57f 343c 619b 3fbd
00000150: e0d5 963c 17d3 86bc 533c 8b3d a30b f43c
00000160: 3b91 c8bc 95c2 643d 6ee0 143d 463d 6a3c
00000170: 81e9 8d3d da67 e63d f514 983d 41c9 793c
00000180: b9bd 40bd 68d2 7fbc 75a1 8abc b4cc 8f3b
00000190: b420 ab3b 5796 32bd 2a7f c13c 924d b3bc
000001a0: b78b 86bd 7832 6e3d c791 14bd 624d 6c3b
000001b0: 2944 acbc 958f 95bc 5676 0cbc c099 8fbd
000001c0: 0c8a 00bd 4d73 f13d 2ddf 813a 48ed e93d
000001d0: 3a40 e5bd bd79 56bd 8f52 b73d 5b48 823d
000001e0: a2cd a33d 2252 bebc 811a 81bd ed96 ca3d
000001f0: f7db 78bd c6dd 9bbd a4c9 f4bd 28bd fcbd
00000200: b988 893d 621d c5bc 0d50 18bd d1e8 34bd
00000210: 1e27 93bd 9f1b 85bd 960a bcbd 37b6 5cbd
00000220: 4845 6f3d 9674 dbbc c155 9dbd a1ff 0abd
00000230: f1ca 0a3b 1f61 c03c ddb5 f33d e1df b43b
00000240: db0f 2cbd 822c c5bc 8ea5 2b3d 07ec 9c3d
00000250: 6ef2 cbbd f3c0 2dbd 17e9 e8bc 4aca 143d
00000260: a46c 08bd 9c7c c93b c1b0 f23d 8f95 9c3d
00000270: 25b6 843d ba68 013d 0da7 edbc 77cf 2d3c
00000280: 762f 0b3e bc2d f2bd 60b1 72bd 0301 963b
00000290: 4f07 bfbd 9e46 9ebb 682c 4abd 4b5d 05be
000002a0: a144 09bd 81fe c4bd 5362 323d 0d75 78bd
000002b0: fa7d 9b3c f789 6dbd 236e 3fbd 0757 44bc
000002c0: 5669 e1bd e92b 87bc 3f0a 44be a8ff bebd
000002d0: 218e c53d 9bc2 293d 095a 3dbd e1e3 c63d
000002e0: a15c 4ebc c230 6bbd d071 8d3d 4c00 5639
000002f0: 5387 dc3c 1a21 303e b0e1 393e 8e6c 873d
00000300: df18 69bd 7d0d 8d3d 32d9 6d3d 38ad 65bd
00000310: f58e 193d dfd4 a73c d707 09bd 7fee fcbc
00000320: fd5a 913c b3a9 ebbd a1b5 2e3d 10f9 213d
00000330: ad4e b3bd 6646 6c3d 5576 cfbd dbcc 79bc
00000340: 660e efbc 5702 be3c 54fa 713c d20d a73d
00000350: f835 053d 0609 023d 4c1b 5a3d bc53 8c3d
00000360: ad06 a2bd 3219 833c 6045 b9bc 3166 a03c
00000370: ad6b 243d 04e3 c23c f566 a9bc daf0 803d
00000380: b689 8abd 5022 843d f71a 4b3b 53f1 9e3d
00000390: 605b 513c 80ed cc3d a4b6 d9bc 9b56 47bd
000003a0: 1a52 1fbd 88e2 4cbd 8e06 69bc f106 6cbb
000003b0: 0699 8c3b 6ce7 863b 7238 803d 101e 123d
000003c0: 911c 733d b104 313d 2a2b c4bd 1b3c a93d
000003d0: 5543 21ba 620b e6bc 1df3 f03b 2105 6ebd
000003e0: d632 76bd d7b9 26bd 1fb9 36bd faae 73bc
000003f0: 6acb 0a3d 6346 043c 351a 143d 7a20 30bd
0.0008911989 -0.05896216 -0.04887978 -0.049389247 0.04003294 0.027921492 -0.102292195 -0.10993601
0.07652992 0.025624363 -0.08805122 -0.09040417 -0.009176058 0.13082685 0.043695208 -0.07389331
-0.009560073 -0.031652693 0.032495856 0.05684911 0.038678627 -0.040289275 0.04059397 0.13395469
-0.04054799 0.13220598 0.046459854 0.1616943 -0.15484494 0.015060924 -0.0046389303 0.046948325
-0.062445804 0.04539793 0.010614236 0.06702854 -0.0047869342 0.042290732 0.002346987 0.0071178954
-0.02031176 -0.0077923792 0.11760162 -0.024733983 0.027967008 0.03567012 -0.07267084 -0.045376614
0.03958734 0.03735949 0.015406865 -0.035654105 -0.0396531 0.042610258 0.006514118 0.04564965
0.044865686 -0.007979655 -0.023953717 -0.09816435 0.08300323 -0.047747225 0.0029724361 -0.084828995
0.06547529 -0.039422117 0.0535155 -0.027976941 -0.067034125 0.025042973 0.02765724 0.04731202
-0.060656272 -0.0786062 0.061974898 -0.025333665 0.06691905 -0.041479986 0.02676395 0.00070759933
0.019107232 0.045703042 0.011016835 -0.04677904 0.01841253 -0.016458077 0.06798615 0.029790705
-0.024483314 0.05584963 0.036346845 0.014296835 0.06929303 0.11250277 0.07425872 0.015245737
-0.047055934 -0.01561413 -0.016922692 0.004388416 0.0052224044 -0.043600406 0.023620207 -0.021887574
-0.06569617 0.0581536 -0.036271837 0.0036056866 -0.021028595 -0.018256942 -0.008573135 -0.07011747
-0.03138165 0.1178957 0.000990843 0.11422211 -0.11193891 -0.052362192 0.08951294 0.06361457
0.07998206 -0.023232523 -0.06303883 0.09892068 -0.06075665 -0.07610659 -0.119525224 -0.12340766
0.06715531 -0.024061862 -0.037185717 -0.044167344 -0.071851954 -0.06499409 -0.091817066 -0.05388471
0.05841568 -0.026788991 -0.07682372 -0.033935193 0.0021178091 0.023483811 0.11899922 0.0055198525
-0.04200731 -0.024069075 0.041905932 0.07662206 -0.09958349 -0.04242034 -0.028431458 0.03632573
-0.033306733 0.006148888 0.118501194 0.076457135 0.06480054 0.031594016 -0.02901032 0.0106085455
0.13592324 -0.118251294 -0.05925119 0.0045777573 -0.09327566 -0.0048301956 -0.049358755 -0.1302387
-0.033512715 -0.09618855 0.0435508 -0.060658503 0.018980969 -0.0579929 -0.046735894 -0.01198364
-0.11006419 -0.01650043 -0.19144534 -0.09326106 0.096462496 0.041445356 -0.046228442 0.09711433
-0.012595327 -0.057419546 0.06906474 0.00020408741 0.026919996 0.17200127 0.18152499 0.06612502
-0.056908485 0.06887338 0.05806846 -0.056073397 0.03748985 0.020487247 -0.033454742 -0.030875443
0.017743582 -0.11506977 0.042653684 0.039544165 -0.087552406 0.057684325 -0.10129992 -0.015246595
-0.02918167 0.023194475 0.0147691555 0.08156933 0.03252217 0.031746887 0.05324869 0.068519086
-0.079114296 0.016003225 -0.022616088 0.019579979 0.04014175 0.02378989 -0.020678977 0.06295939
-0.067645475 0.06451857 0.0030991414 0.07760873 0.012778133 0.10006237 -0.026576348 -0.048666578
-0.038896658 -0.050020725 -0.014222754 -0.003601488 0.0042907028 0.004116943 0.06260766 0.0356732
0.059353415 0.043217365 -0.095785454 0.08263417 -0.0006151696 -0.0280816 0.0073532 -0.05811036
-0.060107075 -0.040704574 -0.04461014 -0.014873261 0.033885397 0.008073422 0.036157805 -0.042999722

weight_hh_l0 f4 [384, 128]
00000000: 6db2 3a3e bde5 1abc 2632 bf3d c996 893d
00000010: 0b18 17bd b6e2 ddbd 9de0 9b3c 32b9 08be
00000020: a52f 6f3d 2f20 d03d d92b bb3c fd83 903d
00000030: 734b 7a3d 8e82 393d 6681 953c 4aca 83bd
00000040: c13f 9e3c ca2a 84bd ca16 0fbc ad69 12bc
00000050: 9a43 0a3d 8a3c da3b 4e95 813b c9ac c73d
00000060: 2b72 8dbd e35e c03d 9296 513b ee99 6e3d
00000070: 9982 6dbd 1250 e8bb bebd c7bd 6aa8 2d3d
00000080: 0178 a93c e7a5 53bb d368 52bd 4a46 d03c
00000090: bd4e 5a3d 51f5 493c 3d1f 3b3d fbc5 a3bd
000000a0: a08d 063d c36c 07bd 204c 0d3c df56 d83d
000000b0: e26c 30bd 4d7b 55bd 9d50 6b3d c6b7 7ebc
000000c0: fdf5 c5bd f623 e03a 5f6a fabd b96e 973d
000000d0: 27ed 3e3d 884f b63c 1036 863d 3b3e 09bd
000000e0: ac49 1abc 1247 683d 9dc2 f53c a2ea 9fbc
000000f0: fc3f f5bd ef33 a6bd 0000 073d 6b84 08bd
00000100: ad0d 823d 345b 9d3d 2676 89bd fcf8 7f3d
00000110: 4387 c33c 37fa babd 157c 9dbd 08b6 da3d
00000120: 59af 453b 118c 8cbd f139 e33d 46fb cabc
00000130: 2df4 d7bd bcaa fe3c 0cf1 a2bd 410e f33d
00000140: d7dc d73c 2470 ccbd f641 b53d 794c 99bd
00000150: 7267 a63b 3901 703d 9e70 c4bd 650e ad3d
00000160: 0887 123c a49e a63d ecf6 13bc 2e2d f8bd
00000170: e25c 8dbd 8c29 13bd ead5 7a3b 0200 12bd
00000180: 129c a8bc e370 59bd 587c e2bd 74cc 89bb
00000190: 35fa 83bd 5368 8ebc 13db 923d 798e d73c
000001a0: 0e5c 67bc b14f bcbc 981b 28bd f4ee 4b3c
000001b0: 2bb4 993c 89a9 a73c 228c 643a 5993 babd
000001c0: 1577 143c 7340 473d d34d ec3d f9d9 fdbd
000001d0: 7e29 fd3c 6371 933d 2d39 c13c e560 1abd
000001e0: 3926 f5bd 133c 2e3d d926 4c3d b16f a3bd
000001f0: b04f 683d a970 4f3d 0e4f d93d 568c a6bd
00000200: dead 6abd eb32 71bd aaa7 903d 99aa 743d
00000210: 5223 d83d 1ff8 28bd d722 0bbd 8cda 99bd
00000220: a8f8 6d3d 743e 0abb aa49 55bd 1e48 033d
00000230: 8390 a43d 44cc b5bd b9fb d0bd cec9 80bd
00000240: c906 11bc 3006 c13a e07b 7d3d ed82 d2bc
00000250: 25b6 5bbd 3506 8dbd de8b 243d c69d 41bd
00000260: e293 673d 21cb aa3d 5284 243d c18a 80bd
00000270: 6118 7a3d a2bd 2fbd fdf3 443d b1af 543d
00000280: 068c 18bc 3436 93bd 712c 1dbd 6405 a6bd
00000290: 54fe d8bd 60b9 893d bf10 8fbd dc4a 56bd
000002a0: 6cf8 d23d 24aa f1bc ba4f 42bb db72 103c
000002b0: c723 f6bb a579 b23c d0d3 c03b b950 5bbb
000002c0: b4b7 903d 2bb5 43bc cc97 2b3d 51e0 903d
000002d0: 559f 753d 3280 0abd c737 89bd cbc9 2738
000002e0: a959 d0bd 58f5 9cbd ef94 913d 8064 9f3b
000002f0: 5618 cb3d c4ae 91bd 2a6a 21bd 1117 943d
00000300: 0d75 a9bd 6882 683b bf25 2fbd 180b aabd
00000310: d461 493d 4d7e a3bd 9df2 3cbd 37fa 913d
00000320: defb 5d3d 695f f63a e115 d0bd b5a8 803d
00000330: bd0a 543d 9bad 81bd 04cf 54ba 105c 8ebd
00000340: 1d8b 9d3d 934f f8bc fd4c 22bd faf9 dbbc
00000350: af40 bc3c 2d64 86bd 1e4e 9d3d 5598 023c
00000360: e693 2e3d 07ec 113c 15c6 11bd 0cfe 31bd
00000370: 261d 8abd 9322 863d 7652 6c3d 4be9 5bbd
00000380: 0bb0 663d 6f3a 933d 0926 a43d 0e8e b0bd
00000390: eb5a 143d 5a10 293d a592 6bbb 335f 15bd
000003a0: 7095 363d e2fa e6bc 53ee 02bd 4330 8d3d
000003b0: b8df e8bc c1b6 82bd e1da 9abc 5454 37bd
000003c0: 9920 c2bd 5cc7 9e3c cc2c a9bd d9ac 30bc
000003d0: 5ce4 c2bd c1dc 2d3d 2cab 873d 506c 5b3a
000003e0: 5211 a43d e26b 09bd 8b7f 9abc 96ad 8a3c
000003f0: 014a a63d 575a a53c c41e a0bd 983c 2d3d
0.18232127 -0.009454188 0.09335737 0.06718213 -0.036888164 -0.10834257 0.019028002 -0.13351896
0.058395047 0.101623885 0.022848057 0.07056425 0.06110711 0.045290522 0.018250179 -0.06435068
0.01931751 -0.06453474 -0.008733461 -0.008936328 0.033755876 0.006660049 0.003954566 0.09749753
-0.069065414 0.09393098 0.0031980616 0.058252268 -0.057985876 -0.0070896233 -0.09752987 0.04239694
0.020687105 -0.003229493 -0.0513695 0.025424141 0.053297747 0.012326554 0.045684088 -0.07996746
0.032849908 -0.033062708 0.008624107 0.10563444 -0.04307259 -0.052119542 0.057449926 -0.015546745
-0.09666059 0.0017100561 -0.1222732 0.073941655 0.046612885 0.02225472 0.0655328 -0.033506613
-0.009416979 0.056708403 0.030000025 -0.019521061 -0.11975095 -0.08115374 0.032958984 -0.03332941
0.06350265 0.07683411 -0.06711988 0.06249331 0.023868209 -0.09129756 -0.076896824 0.10679251
0.003016433 -0.06862653 0.11095036 -0.02477802 -0.1054462 0.031087272 -0.07956132 0.11867953
0.026350422 -0.099823266 0.08850472 -0.07485289 0.0050782496 0.058594916 -0.095917925 0.08450011
0.008943327 0.08135727 -0.009031039 -0.12117992 -0.069024816 -0.035928294 0.0038274475 -0.03564454
-0.020582233 -0.053086173 -0.11058873 -0.004205281 -0.064442076 -0.01738373 0.07170691 0.026313053
-0.014121069 -0.022987219 -0.04104194 0.012447108 0.018762669 0.020466583 0.0008718391 -0.091101356
0.0090615945 0.048645448 0.11538281 -0.123950906 0.030903574 0.07199361 0.023586834 -0.037690062
-0.11970181 0.04253776 0.049841736 -0.07980288 0.05671662 0.05064455 0.106107816 -0.08132236
-0.05729472 -0.05888645 0.070632294 0.059733007 0.10553612 -0.04125225 -0.033968773 -0.07512388
0.058098465 -0.0021094354 -0.052072205 0.0320512 0.08035376 -0.08876851 -0.10204262 -0.06288491
-0.008851715 0.0014726575 0.061885715 -0.025697196 -0.053640503 -0.068859495 0.04017245 -0.047269605
0.056537516 0.08339525 0.040165253 -0.06276465 0.061058406 -0.042905457 0.048084248 0.051925365
-0.009310728 -0.07188073 -0.03837246 -0.08106497 -0.10595384 0.067248106 -0.06985616 -0.052317485
0.10301289 -0.029500075 -0.0029649572 0.008816446 -0.007511589 0.02178652 0.005884625 -0.0033464862
0.070662886 -0.011945049 0.04189281 0.07074035 0.059966404 -0.033813663 -0.06700092 4.0003837e-05
-0.10173351 -0.07663983 0.07108485 0.0048642755 0.09916751 -0.07113412 -0.039407887 0.07230962
-0.08274279 0.0035478119 -0.042760607 -0.08302897 0.04916556 -0.07983074 -0.04612981 0.07127803
0.054195277 0.0018796745 -0.10160423 0.06282178 0.051768053 -0.06331941 -0.0008118006 -0.06951153
0.076925494 -0.030311381 -0.039624203 -0.026852597 0.022980062 -0.06562076 0.07680915 0.007970889
0.042621516 0.008906371 -0.035589296 -0.04345517 -0.06743841 0.06549563 0.05769583 -0.053689282
0.05632023 0.0718888 0.08015067 -0.08620845 0.03621952 0.04127536 -0.0035945561 -0.036467742
0.04457611 -0.028195802 -0.031965565 0.06893971 -0.02842699 -0.06382514 -0.018903198 -0.044758156
-0.09478874 0.019382171 -0.082604975 -0.010783398 -0.09516212 0.042446855 0.06624445 0.0008370327
0.08011116 -0.03355015 -0.018859645 0.016928475 0.08119584 0.020184679 -0.07818368 0.042294115

bias_ih_l0 f4 [384]
00000000: 59b7 873d 5bd7 4e3d c0cc 8d3d 9a2e 0b3c
00000010: 434a 1e3d 96e6 ad3d 8162 abbd 8334 0e3d
00000020: 9284 91bd 9c52 c73c 9664 51bd 99c6 513d
00000030: 0ef6 153c 3e25 1f3d 219d ac3d 340c 433d
00000040: d8a6 7abd d63d fb3c 494a b0bd c0de 30bc
00000050: f30a 763c 2f65 a23c 6d90 653d 7681 513d
00000060: b893 a0bd 6dfb dabc 3072 78bd 4d88 893d
00000070: 3ee0 4f3d 8d3e a03d f42e 3a3c 6c6c 88bc
00000080: ee93 45bc 5a81 1b3d b665 81bd 2cea e4bd
00000090: 05c8 f1bd 0778 c13d ab99 f23b 054a ea3a
000000a0: eebe beba e0f6 7dbc e26b 3abd 8449 463d
000000b0: 87b2 b2bd 2165 d5bd 012f e6bc 891c afbd
000000c0: 5c3b 03bd 6cd2 9abd b1fd 71bd 17c8 cbbc
000000d0: 4166 853d 4b09 c4bd cbd3 25ba cdab e2bd
000000e0: f6b2 393d cd66 363d da86 113b 388a e93b
000000f0: 0c99 7abd f4ad 54bd c358 1f3d 1e14 5d3d
00000100: 1731 c3bd 024b fcbc 6e42 5fbd b2b4 bdbd
00000110: ed18 29bd d939 063d d2df 8fbc 1027 56bd
00000120: e928 d9bd 4504 573d f11c 123e a0a9 fb3c
00000130: d166 263d fd77 c53c 9137 df3c 6324 cbbb
00000140: 8d9d cdbc 59ad b7bd ec04 97bd ea75 f1bc
00000150: 923b 7e3c 8f6a 84bc b3dd 593d 2065 a1bd
00000160: b81c 353d e8c1 a3bb 4f2d 22bd 5ca1 05bd
00000170: 2137 57bc 2f31 fe3c e9e2 99bd 2897 c5bd
00000180: 25fe b4bd 5fd4 963d 1958 9a3c 8809 373c
00000190: 0550 8c3c 5015 50bd 246d 44bd 9183 073b
000001a0: 2d8b 87bd 03da 483d 5376 af3d 0202 4dbd
000001b0: eb73 29bd 1393 f03c f698 48bc c5b5 073d
000001c0: 3c47 2a3d eee5 e73c 4e79 3ebd 168e e5bb
000001d0: 6e51 b93d e7c8 40bb 7acf 94bd 60f0 61bd
000001e0: b964 d1bd ecb2 b23d d679 3c3d ca21 213d
000001f0: 9d79 823d 501b f3bc 6ee0 8d3d 6a06 7a3d
00000200: 7504 edbd 6c01 4fbd 3ddc 8abd 20b8 8f3b
00000210: 15ef cb3c 19ed 68bd 8d02 85bc edc2 e9ba
00000220: f135 0e3d 54db d23c 5511 c7bc b195 283d
00000230: b0bc 1bbd a1dc 1ebd 9615 b5bd 485c d4bc
00000240: 5e87 f8bc bfb5 dd3d 741c 2a3d eaf8 70bc
00000250: 8203 633d b8f3 9fbd 6037 25bd dbd3 92bb
00000260: 362c e9bc df15 873d 28f2 653c d72f 88bc
00000270: 16e4 ee3c 0c29 0bbd 12c9 94bd 01db df3d
00000280: f919 403d fd38 0fbc 6ec7 903d ee8a 50bc
00000290: f2ee 883d cb7b 0bbc 1522 3a3d c20a e5bc
000002a0: 3035 3c3d e3ba bebd c013 9ebc 28ab a9bd
000002b0: 0649 8a3d ff72 c1bc a109 8e3d 985c 933d
000002c0: 3d0c 8a3d 0f02 383c 9c25 423d c631 e1bb
000002d0: 5e2d 693d 03c2 b03d 4d45 d13c 37c1 18bd
000002e0: 5ce8 213d 991d ecbc b950 763d 2755 313d
000002f0: 448f 86bc 9d9e 48bd 67b1 063e 1954 f0bc
00000300: 6f8c 393c 0f6e f4bd 2505 1cbd 73a4 cd3c
00000310: 00de ddbc 1a35 b03c 5d45 363d 0a93 c13d
00000320: 44f1 1c3d 8235 933d 4f85 a6bd f131 d93d
00000330: 256d a1bc 7580 80bc 8ffe a73c 1181 96bc
00000340: 776f 98bd 86ee 053c e70a d0bc 5a43 833d
00000350: 561a 81bd 7a9f 8d3d c427 5a3d 3a3c 103c
00000360: c4b1 22bc 01bc d43d b4d3 dc39 c5ed fd3c
00000370: fade 133d 8547 7c3d f6c5 b6bd 40ac f43d
00000380: 51cc cdbc b7bc ca3d cb8e 9f3d b094 f1bb
00000390: 2883 95bd 8b67 a83d c11b 943d bf1f d63d
000003a0: 6765 643b 2853 f4bd be36 003d 7a49 1b3d
000003b0: d99c e03d 778a 5dbc 3fb7 6abc 9c3e 4d3d
000003c0: e21d 2dbd 82d7 17bc 161c b93b 60a2 243e
000003d0: 6ef4 7c3d f1c0 bdbd 5ec8 6b3d ed89 f73d
000003e0: 137a d13c e259 283d 38f5 7bbd 3fc8 1d3d
000003f0: 506a 82bd df29 683d a6a4 8abd a187 813d
0.06626768 0.050498348 0.069238186 0.008494997 0.03864504 0.084912464 -0.083683975 0.034718048
-0.07105364 0.024331383 -0.051121317 0.051214788 0.009152902 0.038853876 0.084284075 0.04761906
-0.06119427 0.030669134 -0.08607919 -0.010795295 0.015017259 0.019823639 0.05604594 0.051148854
-0.07840675 -0.026731217 -0.060655773 0.067154504 0.050750963 0.078244306 0.011363734 -0.016653262
-0.012059195 0.037965156 -0.06318228 -0.11177477 -0.11805729 0.094467215 0.0074035726 0.0017874843
-0.0014552751 -0.015500754 -0.04551304 0.048409954 -0.08725458 -0.104196794 -0.028098585 -0.085503645
-0.03203903 -0.07559666 -0.05907983 -0.024875684 0.06513644 -0.09572085 -0.000632581 -0.11067925
0.045336686 0.044531632 0.0022205622 0.0071270727 -0.061181113 -0.051923707 0.03890301 0.053974263
-0.095308475 -0.030797485 -0.05450671 -0.092629805 -0.041283537 0.03277001 -0.01756278 -0.052283347
-0.10603506 0.052494306 0.14268853 0.030720532 0.040625397 0.024105066 0.027248176 -0.006199406
-0.02509954 -0.0896861 -0.07373986 -0.029475171 0.015517132 -0.016164092 0.053189944 -0.07880616
0.04421684 -0.0049974807 -0.03959399 -0.032624587 -0.013135702 0.031029312 -0.07513983 -0.096479714
-0.08837537 0.07364725 0.018840836 0.011171706 0.017128 -0.050801575 -0.047955647 0.0020677785
-0.066183425 0.049036037 0.085674904 -0.050050743 -0.041370314 0.029367005 -0.0122435 0.033132333
0.04157184 0.028307881 -0.046502404 -0.0070054634 0.090487346 -0.0029416622 -0.072661355 -0.05516088
-0.102242894 0.08725533 0.04601463 0.039338864 0.06370852 -0.02967611 0.06927572 0.061041273
-0.11573116 -0.050538465 -0.06780288 0.004385963 0.024894277 -0.05686674 -0.016236568 -0.0017834582
0.03471941 0.02573935 -0.024300257 0.04115838 -0.038021743 -0.038784627 -0.08842008 -0.02592291
-0.030337986 0.10825681 0.04153104 -0.014707783 0.055423267 -0.078101575 -0.040336013 -0.0044808215
-0.028463464 0.065959685 0.014034785 -0.016624374 0.029161494 -0.033974692 -0.072649136 0.109304436
0.04689977 -0.008741614 0.07069288 -0.012728436 0.066862 -0.008513401 0.04544266 -0.027959231
0.04594916 -0.093129896 -0.019296527 -0.082845986 0.06752209 -0.023614405 0.0693543 0.07195395
0.067406155 0.01123096 0.04739915 -0.0068723885 0.05692803 0.08630755 0.02554574 -0.03729364
0.039528236 -0.028822707 0.060135577 0.0432941 -0.016425736 -0.04897939 0.13153611 -0.029336976
0.011324986 -0.119350545 -0.038090844 0.02510283 -0.027083397 0.021509696 0.044499744 0.094518736
0.038316026 0.0718794 -0.08130895 0.10605229 -0.019705364 -0.015686253 0.020507125 -0.01837209
-0.07443135 0.008174544 -0.025395824 0.06409331 -0.06303851 0.06915183 0.05326058 0.008803422
-0.009930078 0.103874214 0.000421194 0.030997166 0.03610132 0.061591644 -0.08924477 0.119469166
-0.02512184 0.09899276 0.077909075 -0.0073724613 -0.07300407 0.08222874 0.07231856 0.10455274
0.003485048 -0.11929923 0.031302206 0.03791187 0.10967416 -0.013521782 -0.014325916 0.050108537
-0.042264827 -0.00926769 0.0056491 0.16077566 0.061756544 -0.09265316 0.057564132 0.12086854
0.025570905 0.041101344 -0.061513156 0.038521048 -0.06367934 0.056680556 -0.067696854 0.06324697
