storage/GridCityTest/model.pt (torch_old, 630155 bytes, 16 tensors)

weight_ih f4 [300, 75]
0.07622361 0.017071733 0.022715958 0.0933935 -0.13188823 0.13796659 0.106835365 0.14944519
0.082783066 0.021205058 0.051188417 0.07485101 0.0948562 -0.03130793 -0.021030411 0.07415744
0.14862636 0.08153591 0.17214493 0.07924793 -0.044241853 -0.02701893 0.030655578 -0.04291015
-0.061894182 0.018340595 0.11247288 0.08864613 -0.25686044 0.08229071 0.080910414 0.1800001
0.114788875 -0.18033004 -0.08465459 -0.044053406 0.14446887 -0.031163493 -0.040698703 -0.05366025
0.13058862 -0.0063611744 0.118027695 -0.107981496 -0.0318708 0.06294533 0.0041381917 0.05200025
-0.13669454 0.0036482275 -0.111011535 -0.015947016 0.09236518 -0.023148077 0.1150139 0.08436045
0.050235488 -0.04112696 0.07698267 -0.0095815 -0.08547336 0.045511484 0.07010208 0.13180211
-0.06472785 -0.04244598 -0.018942008 0.04136969 -0.12264719 -0.07353016 0.058472544 -0.024262115
0.058519945 -0.15940656 0.037913993 0.057284176 0.12889133 0.14350758 0.018789954 0.15490313
-0.029006168 0.0010620208 0.11551612 0.14198285 0.17465661 0.014529821 0.054674145 0.1920728
0.14623417 0.19346751 0.090621434 0.010916902 0.10097874 0.1396549 -0.026020162 -0.058369607
0.15944819 0.10542738 0.0769527 0.069200665 0.12231186 0.07982796 0.11114698 0.10881557
-0.06605017 -0.011093349 0.24757709 -0.027688023 0.1539731 0.020830145 0.053438287 0.09286889
0.10480828 -0.063709825 0.014437094 0.11711799 0.09175812 0.04607425 0.04541908 0.07262331
-0.17578258 0.12806416 0.1243875 -0.00016096121 0.07339305 -0.063911304 -0.15455292 -0.02223071
0.099851 0.10719949 -0.20597339 -0.050301492 0.17132647 0.14672044 0.13394782 0.081583574
0.03804151 0.029825494 -0.030642996 -0.09696696 -0.19016366 -0.14455193 -0.14385325 0.2575779
0.12879378 -0.02662806 0.057555992 0.037977856 0.15115286 0.077762574 0.0017961466 0.22190285
0.07831464 0.12885588 -0.028725319 0.028416527 0.05199688 0.03202908 0.26530385 0.06972476
-0.06525192 0.1074777 0.0702661 0.22144802 0.00046344587 0.05537737 0.00014365719 -0.002156485
0.058714204 0.0028073145 -0.06929706 0.07180496 0.021307187 0.144954 0.11676261 0.06576836
0.14374405 -0.024721626 -0.039421126 0.050017983 -0.03469118 0.1402366 -0.056733746 -0.021868592
-0.10180011 0.047991917 -0.054057196 -0.15290345 -0.09808469 -0.062436443 0.1387965 0.13070506
0.007386216 -0.0800125 0.099385455 -0.14812297 0.11913875 0.060017794 0.08009231 -0.039515313
0.02796568 -0.08449738 0.08407422 -0.010727247 0.0695537 -0.09054109 0.025318218 -0.11676951
-0.14868039 -0.18704394 0.022414528 -0.042713054 -0.103868164 -0.024365382 0.10067418 0.11788054
0.10191564 -0.10149282 0.038537253 0.35355923 -0.08380202 0.18590248 -0.09619577 0.06805248
0.05645077 -0.065966666 -0.03997938 0.1085322 0.069447435 0.16597082 -0.046815377 -0.11116566
0.09570979 -0.0044171 -0.043565013 0.0047913585 -0.20413537 0.04307985 0.0565016 -0.089077406
-0.15855013 -0.08137556 -0.024268126 -0.0413882 -0.094596304 -0.012345644 -0.10426723 -0.11832332
-0.09325021 0.098891355 0.104958534 -0.054985747 -0.02279858 0.13418308 -0.013419392 -0.07276461
00000000: 201b 9c3d 05da 8b3c d116 ba3c 1745 bf3d
00000010: b50d 07be 1d47 0d3e 80cc da3d 2908 193e
00000020: 2b8a a93d 3bb6 ad3c f2aa 513d 7d4b 993d
00000030: f843 c23d be3c 00bd f847 acbc dbdf 973d
00000040: 8231 183e 4dfc a63d c346 303e bd4c a23d
00000050: f236 35bd ce56 ddbc 6821 fb3c 8ec2 2fbd
00000060: c184 7dbd 043f 963c 2e58 e63d 1a8c b53d
00000070: 3683 83be 0888 a83d 5cb4 a53d f251 383e
00000080: 6e16 eb3d 70a8 38be 635f adbd 5871 34bd
00000090: a6ef 133e 954a ffbc afb3 26bd daca 5bbd
000000a0: 06b9 053e 6671 d0bb 81b8 f13d 6725 ddbd
000000b0: f58a 02bd 7be9 803d ab99 873b 37fe 543d
000000c0: a7f9 0bbe 1a17 6f3b 045a e3bd 51a3 82bc
000000d0: f529 bd3d 09a1 bdbc 688c eb3d 2cc5 ac3d
000000e0: bac3 4d3d be74 28bd 17a9 9d3d b9fb 1cbc
000000f0: a80c afbd 406a 3a3d ae91 8f3d 22f7 063e
00000100: 0990 84bd d6db 2dbd 452c 9bbc 4473 293d
00000110: 732e fbbd fb96 96bd e880 6f3d 58c1 c6bc
00000120: 9cb2 6f3d 793b 23be b44b 1b3d d0a2 6a3d
00000130: 17fc 033e a7f3 123e 64ed 993c ed9e 1e3e
00000140: 589e edbc 8133 8b3a b793 ec3d f463 113e
00000150: 2fd9 323e 7d0e 6e3c fff1 5f3d bbae 443e
00000160: 69be 153e 591c 463e bb97 b93d cedc 323c
00000170: f1cd ce3d b201 0f3e 3c28 d5bc f814 6fbd
00000180: 6346 233e 4fea d73d 6199 9d3d 14b9 8d3d
00000190: a47e fa3d d77c a33d 07a1 e33d b3da de3d
000001a0: 5045 87bd e1c0 35bc d984 7d3e fed1 e2bc
000001b0: 20ab 1d3e fba3 aa3c 1be2 5a3d 0b32 be3d
000001c0: b9a5 d63d 4c7a 82bd 9089 6c3c 8fdb ef3d
000001d0: aeeb bb3d 5ab8 3c3d 5b09 3a3d 88bb 943d
000001e0: 5900 34be 4023 033e e0be fe3d b2c7 28b9
000001f0: 184f 963d eee3 82bd 1f43 1ebe 2e1d b6bc
00000200: ae7e cc3d 688b db3d b0ea 52be f008 4ebd
00000210: 3570 2f3e e23d 163e 9e29 093e 4a15 a73d
00000220: 6ad1 1b3d 9854 f43c 0507 fbbc 9d96 c6bd
00000230: 43ba 42be 6c05 14be 444e 13be 40e1 833e
00000240: 84e2 033e 1723 dabc d5bf 6b3d ab8e 1b3d
00000250: d1c7 1a3e fc41 9f3d ae6c eb3a 803a 633e
00000260: 6d63 a03d ccf2 033e 5c51 ebbc c7c9 e83c
00000270: aefa 543d ed30 033d e8d5 873e dbcb 8e3d
00000280: cca2 85bd 451d dc3d ace7 8f3d 45c3 623e
00000290: a7fa f239 62d3 623d afa2 1639 d153 0dbb
000002a0: 4e7e 703d ecfa 373b 9eeb 8dbd 7b0e 933d
000002b0: 698c ae3c d26e 143e 3c21 ef3d 90b1 863d
000002c0: a431 133e 0285 cabc 0c78 21bd a8df 4c3d
000002d0: 5718 0ebd 2f9a 0f3e a561 68bd c325 b3bc
000002e0: 937c d0bd 2c93 443d 146b 5dbd b992 1cbe
000002f0: a0e0 c8bd 5bbd 7fbd ab20 0e3e 8cd7 053e
00000300: 1208 f23b 98dd a3bd 9a8a cb3d 8cad 17be
00000310: 04ff f33d 38d5 753d 7007 a43d cfda 21bd
00000320: 4818 e53c f60c adbd 1b2f ac3d 56c1 2fbc
00000330: 2c72 8e3d 9b6d b9bd 2768 cf3c da24 efbd
00000340: ac3f 18be 7288 3fbe ac9e b73c e2f3 2ebd
00000350: d5b8 d4bd e999 c7bc 442e ce3d 5a6b f13d
00000360: 26b9 d03d 78db cfbd 3dd9 1d3d b705 b53e
00000370: 65a0 abbd 385d 3e3e 4a02 c5bd 195f 8b3d
00000380: ec38 673d 8819 87bd 6bc1 23bd 2146 de3d
00000390: 753a 8e3d 41f4 293e 7bc1 3fbd d2aa e3bd
000003a0: 7f03 c43d 52bd 90bb 3a71 32bd d400 9d3b
000003b0: dd08 51be 7f74 303d 396e 673d 376e b6bd
000003c0: f75a 22be 3ba8 a6bd f3cd c6bc ac86 29bd
000003d0: b5bb c1bd 6245 4abc 0f8a d5bd 7f53 f2bd
000003e0: f7f9 bebd 8d87 ca3d 80f4 d63d bc38 61bd
000003f0: 16c4 babc 4a67 093e 02dd 5bbc 9d05 95bd

weight_hh f4 [300, 75]
-0.1013904 -0.098102465 0.066881336 0.026903875 0.1024115 -0.048784394 -0.043151457 0.06316586
0.062073182 -0.057308014 0.0034493636 -0.04528321 0.04645382 -0.0042788764 -0.10210812 0.13808705
-0.04486613 -0.10470379 0.0053346725 0.0805185 -0.042572856 0.12411079 0.07110304 -0.04390287
-0.057770755 -0.00023025823 0.041852567 -0.048850235 -0.11806491 0.02788874 0.11780197 -0.06894716
-0.07879007 -0.040127818 0.04013494 0.03622456 0.08241672 0.020862255 -0.0989305 0.03735964
-0.010523071 -0.010953098 -0.073028505 0.13863873 -0.099247605 -0.051443834 0.1509698 0.09491472
0.08207672 -0.047292102 -0.10628861 0.10660106 0.060113616 0.08796453 -0.06422792 -0.007577412
-0.106461026 0.09364581 0.034266166 0.076838136 0.12366073 -0.090227045 0.088396 -0.015654366
-0.08581773 -0.06695495 0.06055007 -0.04028082 0.0024782247 0.051588222 0.077499144 -0.06405582
0.07299909 0.10969346 -0.054064423 -0.08213072 -0.051057164 -0.05880978 -0.028071037 0.109708205
-0.117101006 -0.0013904292 0.111362465 -0.11023611 -0.061446268 -0.0007956424 -0.10563237 -0.069208704
-0.115500785 -0.029119086 -0.005919298 -0.06547241 -0.072038986 -0.02758252 -0.030100811 0.035461202
0.064311296 0.09181335 -0.060559224 -0.1055004 0.065566264 -0.027277978 -0.10620206 0.04742866
0.069658905 -0.10927191 0.04916489 0.06155506 0.059571393 -0.118536055 0.050777838 0.09744254
-0.1436967 -0.037852634 -0.06384469 0.12999332 -0.027011482 0.026697742 0.063209094 0.020684294
0.013503636 0.048046295 0.13749045 0.07545232 0.17738572 -0.06799118 0.04087547 -0.02790672
0.02298546 -0.059696343 -0.008760171 0.1246991 0.12187 0.04654461 0.033389695 0.11202314
0.0701473 -0.05472507 0.09191808 -0.08807629 0.110106766 -0.07703675 -0.005797591 0.032591436
-0.012425226 0.049502272 -0.061826143 0.09219259 0.12509942 -0.00046681362 0.12351336 0.14335376
-0.11645471 0.099489406 -0.0033730322 0.021986188 0.001420383 0.059896246 -0.20145452 0.1390431
0.10454468 -0.03249703 -0.003012826 -0.05190476 -0.03320931 -0.014108393 -0.012438076 -0.06677098
0.003787541 0.07305916 0.07979326 -0.0228105 0.025265042 0.040467538 -0.02842088 0.031358648
0.20985363 -0.04676054 -0.08890879 -0.026204107 0.026976665 -0.0017714313 -0.062961124 0.052768633
-0.14097366 -0.030613834 0.1526438 -0.028633157 -0.072739564 0.086292416 0.016983705 -0.05714227
0.10192493 0.17200947 -0.022627486 0.017349644 0.020069843 0.09290862 0.08762547 0.07772597
0.03157925 0.007840244 0.110164456 0.025331276 0.067271985 -0.14822355 0.11904562 0.12940867
-0.070149675 -0.091256075 0.02761093 -0.10441542 -0.12853366 -0.09333035 0.053086832 0.11318445
0.036818456 0.053494472 -0.012573678 -0.08575397 -0.10535363 0.087631874 0.0480506 0.008663356
0.20583506 0.1468766 -0.0675047 0.043927163 0.11031546 -0.05837158 0.11006039 0.10106247
0.04452275 -0.05575794 0.09448941 0.021612354 0.09327075 0.18014193 0.15522444 -0.036935043
-0.0589307 0.17882077 0.0030613428 0.1628476 -0.071002625 -0.0909943 -0.08712582 0.07475098
0.08414436 0.11222984 -0.013657284 -0.010666603 -0.055767413 0.06535371 0.04221791 -0.013460549
00000000: c5a5 cfbd f2e9 c8bd 15f9 883d 8465 dc3c
00000010: 1fbd d13d 25d2 47bd 95bf 30bd 1a5d 813d
00000020: 7340 7e3d cfbb 6abd b80e 623b e37a 39bd
00000030: 5c46 3e3d d135 8cbb 101e d1bd b166 0d3e
00000040: 8cc5 37bd f16e d6bd 7ace ae3b e2e6 a43d
00000050: e060 2ebd cc2d fe3d 789e 913d 7fd3 33bd
00000060: 07a1 6cbd 7971 71b9 996d 2b3d 2f17 48bd
00000070: 04cc f1bd ed76 e43c 2942 f13d 2b34 8dbd
00000080: b05c a1bd 115d 24bd 8964 243d 3460 143d
00000090: 19ca a83d 52e7 aa3c 139c cabd 6c06 193d
000000a0: f568 2cbc 9f74 33bc f88f 95bd 50f7 0d3e
000000b0: 5442 cbbd c5b6 52bd d497 1a3e a662 c23d
000000c0: d717 a83d 5db5 41bd d8ad d9bd a851 da3d
000000d0: b239 763d bf26 b43d ed89 83bd f04b f8bb
000000e0: 3d08 dabd 60c9 bf3d ae5a 0c3d 505d 9d3d
000000f0: d641 fd3d f5c8 b8bd f608 b53d 963d 80bc
00000100: 35c1 afbd ad1f 89bd 5a03 783d 80fd 24bd
00000110: b669 223b 2c4e 533d dfb7 9e3d b32f 83bd
00000120: 8c80 953d f7a6 e03d a872 5dbd 2734 a8bd
00000130: 5121 51bd 86e2 70bd 3bf5 e5bc b2ae e03d
00000140: a7d2 efbd 103f b6ba 0112 e43d 78c3 e1bd
00000150: 15af 7bbd a892 50ba c955 d8bd 4bbd 8dbd
00000160: ad8b ecbd 268b eebc acf6 c1bb 6616 86bd
00000170: 2d89 93bd bdf4 e1bc fa95 f6bc c43f 113d
00000180: a4b5 833d a308 bc3d f30c 78bd 9810 d8bd
00000190: 9b47 863d 1176 dfbc 7780 d9bd 8e44 423d
000001a0: 54a9 8e3d f3c9 dfbd 2061 493d 2921 7c3d
000001b0: 2201 743d 08c3 f2bd 6cfc 4f3d f48f c73d
000001c0: 3a25 13be 5d0b 1bbd 01c1 82bd f81c 053e
000001d0: 2f47 ddbc 39b5 da3c c573 813d 1c72 a93c
000001e0: 5b3e 5d3c 31cc 443d 4cca 0c3e bf86 9a3d
000001f0: 9aa4 353e f63e 8bbd 096d 273d a29c e4bc
00000200: 014c bc3c 2784 74bd d286 0fbc 3e62 ff3d
00000210: fb96 f93d 90a5 3e3d a2c3 083d 636c e53d
00000220: 63a9 8f3d 6527 60bd 8c3f bc3d 5861 b4bd
00000230: a87f e13d 72c5 9dbd b8f9 bdbb 997e 053d
00000240: 2d93 4bbc e5c2 4a3d 693d 7dbd 78cf bc3d
00000250: 101a 003e aabe f4b9 93f4 fc3d 54cb 123e
00000260: cf7f eebd 1ac1 cb3d 170e 5dbb 611c b43c
00000270: 252c ba3a c455 753d 184a 4ebe 5061 0e3e
00000280: 851b d63d 9b1b 05bd d572 45bb 169a 54bd
00000290: 7c06 08bd e426 67bc 12c9 4bbc 39bf 88bd
000002a0: 6538 783b 0aa0 953d a66a a33d 16dd babc
000002b0: a2f8 ce3c 4ac1 253d e8d2 e8bc ed71 003d
000002c0: dfe3 563e fb87 3fbd d015 b6bd ffa9 d6bc
000002d0: 2bfe dc3c 5f2f e8ba c3f1 80bd ec23 583d
000002e0: 665b 10be ddc9 fabc a84e 1c3e 1590 eabc
000002f0: 7bf8 94bd 14ba b03d 6921 8b3c 030e 6abd
00000300: 05be d03d 4023 303e 475d b9bc d720 8e3c
00000310: 8369 a43c e046 be3d fb74 b33d cb2e 9f3d
00000320: 3e59 013d 5e74 003c e79d e13d 8983 cf3c
00000330: e5c5 893d eac7 17be 31ce f33d b583 043e
00000340: a2aa 8fbd 77e4 babd 5130 e23c c0d7 d5bd
00000350: 549e 03be fc23 bfbd 9471 593d 40cd e73d
00000360: f3ce 163d 051d 5b3d d401 4ebc c79f afbd
00000370: a5c3 d7bd 5778 b33d b5d0 443d c0f0 0d3c
00000380: 6dc6 523e d266 163e e73f 8abd f8ec 333d
00000390: 12ed e13d 0a17 6fbd 5767 e13d d7f9 ce3d
000003a0: 7d5d 363d 7062 64bd aa83 c13d 640c b13c
000003b0: bc04 bf3d 2077 383e 28f3 1e3e 3349 17bd
000003c0: 5161 71bd cb1c 373e cfa0 483b 85c1 263e
000003d0: d369 91bd 385b babd 066f b2bd 0b17 993d
000003e0: e153 ac3d c2d8 e53d cdc2 5fbc fac2 2ebc
000003f0: 5f6c 64bd 2ad8 853d b0ec 2c3d a289 5cbc

bias_ih f4 [300]
-0.019715685 0.18043068 0.009392511 0.045978125 0.0979547 0.020487571 0.08431753 -0.064622685
0.058291037 -0.025926026 0.0687181 0.037986524 -0.07708739 0.13162331 -0.026337098 0.06637163
0.026660556 0.002266545 0.07838554 0.060971223 0.17539886 0.02388481 0.17328109 0.1004829
0.10949267 -0.076173134 0.05917757 0.07878747 -0.024661455 0.10837469 0.15666164 0.09102923
0.053642936 0.061149385 -0.035210025 0.07285993 0.18851086 0.049951024 0.077406816 0.1579512
-0.14922918 -0.13214983 -0.06914524 0.10070832 0.035235573 0.0946406 0.16261806 -0.0016285399
0.093870185 0.15737553 0.0012706927 -0.04310117 -0.07097655 -0.057936262 0.061284874 0.07129043
-0.032451432 -0.09550813 0.09513237 0.08710395 0.0031367745 -0.005729891 0.014856897 -0.023703685
-0.089055955 0.10621118 -0.11169183 0.05936881 0.15166652 0.038896415 -0.018983666 0.105337664
-0.019549802 0.15158193 -0.111204855 -0.14385019 0.018728014 -0.037519503 0.17088148 -0.11577079
0.010480176 0.09871882 0.013771382 0.109042265 0.0899901 -0.116436474 -0.0065707862 0.08705267
0.06785216 0.018854303 -0.09036651 0.046768676 0.10820947 0.004110531 0.05717298 0.06077295
-0.032522477 -0.120474674 -0.053451166 -0.03308478 0.11494919 -0.09018535 0.013365918 0.016098186
0.041667733 0.04642932 -0.104129665 -0.14763804 0.096018046 0.04071201 -0.05157416 -0.079287514
0.01701033 -0.042918053 0.026777502 -0.09475222 -0.05016721 -0.12285312 -0.016570931 -0.054592337
-0.03543456 -0.12506081 0.011098883 -0.009932715 -0.06144917 -0.09264766 -0.007289714 -0.11133699
-0.074002855 0.105924286 -0.14978111 0.097930826 -0.058041368 0.11790526 -0.10798772 -0.062834345
-0.047486268 0.16070268 0.024988862 0.026266491 -0.053775765 -0.07796225 -0.023272969 -0.109265074
-0.16641068 -0.10261764 -0.01566589 -0.028680203 -0.050873313 -0.03645598 -0.06688537 -0.11014183
-0.053008147 0.06552967 0.047933538 0.0038509632 -0.059352435 0.015443791 -0.12052272 -0.032741718
-0.020597598 0.1042865 0.051337883 -0.046994507 0.1190993 -0.028888386 -0.026621882 -0.032191254
-0.030473066 0.020187926 -0.04096595 -0.21410228 0.018068004 0.0011347403 -0.05982422 -0.12700681
-0.14478402 -0.14328423 0.06631801 0.048132688 0.21264581 -0.0656637 0.07211206 -0.12439884
0.11989983 0.15306576 -0.03632944 0.0034062373 -0.019272937 0.00036547464 -0.03451531 0.076729216
-0.040226273 0.16414772 0.09832656 0.033060584 0.061941985 0.099502444 0.06776756 0.08838759
-0.11464507 -0.068134844 -0.003988162 0.09080547 0.039599076 0.05474301 -0.07795913 -0.11516506
0.049286693 -0.032072198 -0.04125655 0.12265382 0.11854213 -0.014890412 0.056273594 -0.07860783
0.08838569 -0.062312387 -0.13842918 0.07850869 -0.07759623 -0.13749316 0.021125095 0.09450488
-0.11121758 0.059387613 0.022780938 -0.0221989 -0.042830396 -0.024660366 0.109640986 0.04478974
0.034253363 -0.026657162 0.14774801 0.0781448 -0.0051964186 0.093948975 -0.018880192 -0.07582482
0.015206747 -0.01040123 0.0016340503 -0.014358656 -0.19452253 0.06868249 -0.07329281 0.0558369
-0.14153995 -0.030940147 0.042029906 0.13730824 0.047868684 -0.016836932 -0.08194658 0.06520799
00000000: ca82 a1bc d2c2 383e 0ce3 193c 8f53 3c3d
00000010: 799c c83d 8dd5 a73c abae ac3d e658 84bd
00000020: 95c2 6e3d d162 d4bc 13bc 8c3d c297 1b3d
00000030: fedf 9dbd 43c8 063e e6c0 d7bc d9ed 873d
00000040: 3d67 da3c 518a 143b 9988 a03d f6bc 793d
00000050: c29b 333e 14aa c33c 9970 313e fbc9 cd3d
00000060: b13d e03d a900 9cbd 2e64 723d 535b a13d
00000070: d206 cabc 8df3 dd3d e96b 203e 886d ba3d
00000080: b2b8 5b3d c777 7a3d 6338 10bd 9637 953d
00000090: fe08 413e 7299 4c3d 7787 9e3d f6bd 213e
000000a0: 89cf 18be 4952 07be 059c 8dbd 2a40 ce3d
000000b0: 2d53 103d eed2 c13d 5985 263e bb74 d5ba
000000c0: 033f c03d 0d27 213e 5f8d a63a da8a 30bd
000000d0: 275c 91bd 934e 6dbd d905 7b3d b800 923d
000000e0: cbeb 04bd c499 c3bd c3d4 c23d 8e63 b23d
000000f0: 5892 4d3b cfc1 bbbb 586a 733c 3b2e c2bc
00000100: f862 b6bd 3f85 d93d b0be e4bd b62c 733d
00000110: 784e 1b3e d951 1f3d a283 9bbc 46bb d73d
00000120: e826 a0bc 4b38 1b3e 5fbf e3bd 774d 13be
00000130: 7e6b 993c 0dae 19bd 8efb 2e3e 3c19 edbd
00000140: 0bb5 2b3c 182d ca3d 5da1 613c 8d51 df3d
00000150: bb4c b83d 3f76 eebd c04f d7bb ac48 b23d
00000160: 13f6 8a3d 5774 9a3c 1412 b9bd 8390 3f3d
00000170: ed9c dd3d a2b1 863b 372e 6a3d 0fed 783d
00000180: 4a36 05bd 6dbb f6bd 9cef 5abd e883 07bd
00000190: 7b6a eb3d 19b3 b8bd b9fc 5a3c 58e0 833c
000001a0: c9ab 2a3d ac2c 3e3d ef41 d5bd 6d2e 17be
000001b0: 1ca5 c43d a3c1 263d 6d3f 53bd 7e61 a2bd
000001c0: 3f59 8b3c d7ca 2fbd 7e5c db3c 740d c2bd
000001d0: 227c 4dbd 6b9a fbbd c3bf 87bc 379c 5fbd
000001e0: d423 11bd f10f 00be 17d8 353c d4bc 22bc
000001f0: 20b2 7bbd 0ebe bdbd 8ede eebb a604 e4bd
00000200: cf8e 97bd d5ee d83d 3860 19be f58f c83d
00000210: c9bc 6dbd 5078 f13d aa28 ddbd 4baf 80bd
00000220: f680 42bd 3e8f 243e 71b5 cc3c d32c d73c
00000230: fa43 5cbd acaa 9fbd f4a6 bebc 5ec6 dfbd
00000240: 9067 2abe 3229 d2bd c155 80bc bff2 eabc
00000250: 8960 50bd de52 15bd 32fb 88bd 0a92 e1bd
00000260: 121f 59bd 6b34 863d f555 443d 7160 7c3b
00000270: 8a1b 73bd f407 7d3c 9ed4 f6bd 2e1c 06bd
00000280: 4bbc a8bc 2994 d53d ac47 523d 507d 40bd
00000290: 55ea f33d 56a7 ecbc 2216 dabc fada 03bd
000002a0: a7a2 f9bc 2661 a53c e9cb 27bd a13d 5bbe
000002b0: 5a03 943c 91bb 943a 3e0a 75bd 130e 02be
000002c0: 4342 14be 1ab9 12be bdd1 873d c826 453d
000002d0: d3bf 593e b17a 86bd 7daf 933d d2c4 febd
000002e0: 0b8e f53d 45bd 1c3e 2ece 14bd 2e3b 5f3b
000002f0: 47e2 9dbc 2d9d bf39 ed5f 0dbd 3524 9d3d
00000300: 4ec4 24bd 5716 283e 6f5f c93d 896a 073d
00000310: e1b6 7d3d f0c7 cb3d b8c9 8a3d 8e04 b53d
00000320: 09cb eabd 488a 8bbd 21af 82bb 38f8 b93d
00000330: a432 223d 353a 603d 09a9 9fbd a9db ebbd
00000340: d8e0 493d 235e 03bd a1fc 28bd ed31 fb3d
00000350: 37c6 f23d eaf6 73bc 247f 663d 24fd a0bd
00000360: 8e03 b53d 463b 7fbd 61c0 0dbe 2ac9 a03d
00000370: c6ea 9ebd 02cb 0cbe 890e ad3c c68b c13d
00000380: 0bc6 e3bd 6d40 733d 179f ba3c 78da b5bc
00000390: ed6e 2fbd 8904 cabc 748b e03d 7275 373d
000003a0: 414d 0c3d 1f60 dabc 414b 173e 620a a03d
000003b0: b846 aabb 5268 c03d a2aa 9abc 0b4a 9bbd
000003c0: b825 793c ec69 2abc a12d d63a 9140 6bbc
000003d0: ea30 47be 68a9 8c3d 8a1a 96bd 3cb5 643d
000003e0: d9ef 10be 3176 fdbc 8d27 2c3d 889a 0c3e
000003f0: f411 443d 9bed 89bc 9cd3 a7bd c48b 853d

bias_hh f4 [300]
-0.016500143 0.15553904 -0.042132203 -0.051573735 0.14826271 -0.11382508 0.100313924 -0.023915617
0.15807801 -0.05034176 0.18504162 0.061437402 -0.052034926 0.100745186 0.08879132 0.00093905145
0.10020169 0.11728003 -0.0061532347 0.041243277 0.14788446 0.1330077 0.118700854 -0.00995345
0.13680503 0.07997216 -0.026747491 0.022193238 -0.040623352 -0.031878844 -0.0038148435 -0.024252485
0.08580313 0.03153524 -0.10536036 0.1749561 0.033036042 -0.00789657 0.113525316 0.14696772
-0.058973994 0.0027732186 0.07134597 0.13101327 0.061945003 0.06852518 -0.008024868 -0.12985753
0.18850294 0.07192261 -0.05437713 0.040596735 -0.022816772 0.020275377 0.052124873 0.094500646
-0.03184481 0.03183615 -0.00038486026 -0.08105628 0.075993314 -0.11048916 0.15316682 0.104627974
-0.025972055 -0.0244165 0.0066712643 0.032024354 0.13035533 0.075053215 -0.04214791 0.113461085
0.06672589 0.14387107 -0.10396525 -0.011001473 0.036664885 -0.037873678 0.012209965 0.08315689
0.044635933 -0.0067260256 -0.010342636 0.11276626 -0.00082585914 0.014470977 -0.058819745 0.025746211
0.062498882 0.015555042 0.049196955 0.013777462 0.024586618 0.007140647 0.017450305 -0.04972406
-0.08511007 -0.055705737 0.03192214 -0.118511245 0.061214387 -0.046288773 0.04463581 -0.096042365
-0.018420666 -0.07893173 -0.1237956 -0.0016076788 0.0139311105 -0.171794 -0.089608915 -0.024367489
-0.07928133 0.115917325 -0.07394724 -0.13050947 -0.0123256445 0.10353536 -0.03072181 0.007151419
0.040161796 -0.073152 0.05384627 -0.0032925936 -0.044568244 -0.12436537 -0.09149372 -0.07233264
-0.0018234306 -0.039624896 -0.18151918 0.018781174 0.023073737 0.09648928 -0.11103102 0.027297163
0.0904672 0.1818872 0.07162372 0.09385713 -0.054502316 -0.0007717507 -0.024833007 -0.09565336
-0.1253304 -0.09641902 -0.050806943 -0.002034979 -0.11734328 0.07488531 0.06636146 0.08190994
-0.08580903 -0.063704684 -0.0020544997 -0.046432514 0.03352722 -0.03169272 -0.027466018 0.062998
-0.041412383 -0.046786964 0.12781452 -0.016963122 0.11301221 -0.060924206 0.116301514 -0.107265934
0.05740723 -0.09499061 0.012107974 -0.02966275 0.14955087 0.017331028 -0.04334134 -0.07462645
-0.04232428 -0.15023482 -0.032192025 -0.062081978 0.0013333706 0.14802743 0.12304803 -0.04320435
-0.038200755 -0.035333477 0.038901366 0.031694062 -0.07937535 -0.11108324 -0.07741392 0.04440309
-0.061048426 0.051203296 0.06479296 0.06437013 0.04892492 -0.06379445 0.16487873 -0.008255769
-0.03559127 0.035345685 0.01404155 -0.053754352 0.00054392946 -0.06602161 0.07929079 0.10557717
0.016188223 0.0026661686 0.16457887 -0.06457269 0.14274216 -0.087000735 -0.02705463 -0.12688507
0.09249906 0.0030387938 -0.092377424 0.10293445 -0.09214067 -0.05527762 0.11459714 -0.11253335
-0.058717072 0.11625686 0.09209121 0.061396997 0.05374383 0.08425211 0.07653335 -0.094666734
-0.05713739 0.13858101 0.09582327 0.118390396 0.09756034 0.02289929 0.09446834 0.044881813
-0.06028084 -0.023917263 0.0041126264 0.11442321 -0.022351239 0.05030929 -0.15737425 0.12921025
0.06813571 0.11383127 0.13469665 0.092719145 0.03415186 0.07872182 -0.054077223 -0.043129105
00000000: 4f2b 87bc a045 1f3e d192 2cbd fb3e 53bd
00000010: 2ed2 173e 201d e9bd 6371 cd3d afea c3bc
00000020: 34df 213e 2933 4ebd 8d7b 3d3e c9a5 7b3d
00000030: 9322 55bd 7e53 ce3d 39d8 b53d ad2a 763a
00000040: 8b36 cd3d 8330 f03d 13a1 c9bb b6ee 283d
00000050: 066f 173e 2c33 083e 6f19 f33d cc13 23bc
00000060: 9e16 0c3e 72c8 a33d 8e1d dbbc 98ce b53c
00000070: ac64 26bd 6493 02bd 7402 7abb 26ad c6bc
00000080: 8db9 af3d 192b 013d 2cc7 d7bd b127 333e
00000090: cd50 073d 9d60 01bc f67f e83d b57e 163e
000000a0: b78e 71bd e3be 353b d61d 923d 5828 063e
000000b0: 0bba 7d3d ee56 8c3d bc7a 03bc 5ff9 04be
000000c0: ea06 413e 294c 933d 8eba 5ebd c348 263d
000000d0: 3dea babc 8c18 a63c e480 553d 8e89 c13d
000000e0: b46f 02bd 9f66 023d 12c7 c9b9 d600 a6bd
000000f0: 62a2 9b3d 2448 e2bd c3d7 1c3e 3147 d63d
00000100: 59c3 d4bc 1d05 c8bc 9f9a da3b f82b 033d
00000110: de7b 053e 80b5 993d 49a3 2cbd 495e e83d
00000120: 95a7 883d f052 133e bceb d4bd 863f 34bc
00000130: eb2d 163d 6e21 1bbd 4e0c 483c 294e aa3d
00000140: 2bd4 363d fe65 dcbb 2974 29bc fff1 e63d
00000150: 787e 58ba ad17 6d3c f9ec 70bd b8e9 d23c
00000160: d4fe 7f3d 93da 7e3c bf82 493d ddba 613c
00000170: e069 c93c 17fc e93b f1f3 8e3c 75ab 4bbd
00000180: 304e aebd b32b 64bd cac0 023d 06b6 f2bd
00000190: f0bb 7a3d 4c99 3dbd 0ad4 363d dcb1 c4bd
000001a0: f0e6 96bc f5a6 a1bd 8c88 fdbd c0b8 d2ba
000001b0: 503f 643c c4ea 2fbe e184 b7bd 549e c7bc
000001c0: 405e a2bd 1066 ed3d a771 97bd 46a4 05be
000001d0: 80f1 49bc 590a d43d 4eac fbbc 7356 ea3b
000001e0: b280 243d b7d0 95bd e88d 5c3d 8ec8 57bb
000001f0: 318d 36bd 45b3 febd 0f61 bbbd 2323 94bd
00000200: 2e00 efba b74d 22bd 2ae0 39be fada 993c
00000210: 2205 bd3c 2c9c c53d 3b64 e3bd 4d9e df3c
00000220: de46 b93d a340 3a3e 75af 923d 2b38 c03d
00000230: d23d 5fbd 504f 4aba 976e cbbc e9e5 c3bd
00000240: 9d56 00be 5677 c5bd f11a 50bd 485d 05bb
00000250: ac51 f0bd 785d 993d 84e8 873d 66c0 a73d
00000260: a5bc afbd 9a77 82bd c9a4 06bb 0530 3ebd
00000270: d753 093d 3ad0 01bd 6a00 e1bc 1805 813d
00000280: 08a0 29bd b0a3 3fbd cfe1 023e 3ff6 8abc
00000290: f272 e73d a98b 79bd 7d2f ee3d 3eae dbbd
000002a0: d823 6b3d 708a c2bd 8660 463c 4cff f2bc
000002b0: dd23 193e cdf9 8d3c b086 31bd c1d5 98bd
000002c0: 395c 2dbd 28d7 19be c9db 03bd ac49 7ebd
000002d0: 7ec4 ae3a 8194 173e 9b00 fc3d 0bf7 30bd
000002e0: 6578 1cbd d6b9 10bd 0a57 1f3d a2d1 013d
000002f0: 8b8f a2bd 9c7f e3bd 308b 9ebd 04e0 353d
00000300: ea0d 7abd 8cba 513d 2cb2 843d 7dd4 833d
00000310: 7f65 483d aaa6 82bd f8d5 283e 3443 07bc
00000320: 27c8 11bd a3c6 103d 880e 663c 862d 5cbd
00000330: 7d96 0e3a 5636 87bd 3663 a23d d838 d83d
00000340: 2a9d 843c e3ba 2e3b 5d87 283e b03e 84bd
00000350: 002b 123e 712d b2bd aca1 ddbc 29ee 01be
00000360: 2670 bd3d 8026 473b 6030 bdbd 4ccf d23d
00000370: 3fb4 bcbd c96a 62bd e8b1 ea3d e377 e6bd
00000380: 5081 70bd 1418 ee3d 519a bc3d 6b7b 7b3d
00000390: 7e22 5c3d 5f8c ac3d 84bd 9c3d a2e0 c1bd
000003a0: e508 6abd 2ee8 0d3e fe3e c43d aa76 f23d
000003b0: b7cd c73d 4b97 bb3c 9e78 c13d fed5 373d
000003c0: 0be9 76bd 23ee c3bc 36c3 863b b756 ea3d
000003d0: f219 b7bc 1d11 4e3d b726 21be b14f 043e
000003e0: bc8a 8b3d 5e20 e93d ebed 093e 89e3 bd3d
000003f0: d2e2 0b3d e838 a13d 1480 5dbd 25a8 30bd

weight f4 [500, 32]
-1.6021804 -0.42802796 0.5186923 0.083276615 1.4952546 -0.2906701 -0.5563944 0.17985635
0.5185099 0.1652219 -1.0214849 0.17468785 0.87600976 0.89867586 1.2659229 -0.15330388
0.3732986 1.6909618 2.3114862 1.4164039 -0.41952983 -2.2241688 0.19703841 0.0572908
0.28084913 1.2153947 0.07566288 1.4864503 -0.64569366 -0.32098988 -1.3676465 -1.5826442
-0.76326525 1.5590689 1.1278254 1.4147404 -0.5069203 0.088904485 -0.012485107 -1.332187
-0.8328843 0.13485253 1.9111497 0.9919918 0.045426663 -0.32523096 0.25597033 1.5081438
-1.3767071 -0.06588042 -0.99043787 0.12096389 -0.704986 1.2351185 0.8557573 -1.1795986
-0.17184144 1.8048505 -0.6381458 -1.1417819 -1.1553375 -0.7620232 -0.64413756 0.5504557
1.22113 -1.6753665 -0.21123649 0.0925373 0.14375877 0.33792108 -0.7995694 -0.35803962
-0.08404703 -0.124045275 -0.5665304 -0.66289884 -0.0041266195 0.38555175 0.68516845 -0.06903234
-0.5446383 -0.11033539 -0.9585106 0.25230473 0.10348608 0.60268646 -0.21785347 0.8920899
-0.030063314 0.41343138 0.6599479 1.224983 -0.24118203 1.3044288 0.7266452 0.59235805
1.7715778 0.006355733 -0.44562036 -0.036499307 -1.433535 -0.12363927 -1.9230655 -0.5398263
0.6425284 0.67391753 0.42630926 0.60481477 -0.3651822 0.67696863 -0.69691813 0.81155026
0.121743284 -1.0223906 1.1916096 1.9308618 0.34097707 -0.41961387 -1.413034 -0.1387102
0.93012977 1.294389 0.24151424 -2.4980056 0.27995768 -0.84281284 -2.0088103 -0.29867893
-2.0975637 1.0785915 -0.37875095 0.979586 -0.66981995 -0.67099166 0.15317968 2.4860773
-0.84400034 1.063274 -1.6909144 -0.6631131 -0.9983478 -0.3469325 -0.07912062 -1.533138
0.66376007 -0.9685979 0.439342 -0.89861804 -1.374436 -1.3787897 0.6318635 0.0171943
2.1084204 0.78773254 -0.112924635 -0.2805278 1.900237 0.6748718 0.6509038 -1.2013508
0.10142335 -0.25840357 1.0638374 -0.051701106 1.4683417 1.066816 2.0452847 0.25927186
0.3879072 0.3856405 -0.6163047 -1.5491681 0.80322003 0.37890485 0.34297165 0.09496883
1.987198 0.3016071 0.45144144 -1.0368778 0.84794253 -1.0991087 -0.94768625 -0.8632537
0.8144638 0.9930405 -1.1600404 -0.60053504 0.35132167 -1.5829296 0.24220687 1.8494732
0.66500974 -0.29559922 0.86141413 -0.050578967 -0.683314 -0.15264352 -0.69912505 0.5827271
2.4041085 -0.4011343 -1.2107177 0.9442298 -1.3459717 -0.35738826 -0.431267 1.3100753
-0.8709231 0.03642292 1.1504416 -0.3376118 -0.8745895 0.49384227 -0.543948 0.99158925
0.22405303 -1.1228632 -0.29365966 0.27228957 1.842927 -1.2784224 0.7223505 -1.2658637
0.7636702 0.47347718 2.3674674 0.7738222 -0.110875875 1.4984293 0.25971812 0.08487423
-0.73902756 -0.72178316 -0.050381333 0.6988047 -2.0400543 0.36490148 -0.029227402 1.3166493
-0.50135934 -1.4571185 0.19391 0.27905634 -0.18342465 1.1909772 0.0725823 -1.2774774
-0.8008131 0.035407268 -0.7214267 0.80310214 -0.30881888 -0.83758867 -1.2232839 0.0073765083
00000000: 3f14 cdbf 7b26 dbbe 05c9 043f ee8c aa3d
00000010: 8164 bf3f b6d2 94be dd6f 0ebf 432c 383e
00000020: 11bd 043f ee2f 293e 04c0 82bf 5fe1 323e
00000030: 2d42 603f 9f0f 663f c309 a23f b1fb 1cbe
00000040: fe20 bf3e 7071 d83f 64ef 1340 b94c b53f
00000050: 9dcc d6be c858 0ec0 70c4 493e c2a9 6a3d
00000060: 75cb 8f3e 0e92 9b3f 24f5 9a3d 0144 be3f
00000070: 2e4c 25bf c958 a4be 0a0f afbf 1694 cabf
00000080: 5a65 43bf 928f c73f 955c 903f 3716 b53f
00000090: 87c5 01bf 8e13 b63d 568e 4cbc 1b85 aabf
000000a0: e837 55bf c816 0a3e 8ea0 f43f 2df3 7d3f
000000b0: 4f11 3a3d ac84 a6be 8b0e 833e db0a c13f
000000c0: f037 b0bf 50ec 86bd 568d 7dbf eabb f73d
000000d0: f679 34bf 5d18 9e3f e912 5b3f 16fd 96bf
000000e0: 34f7 2fbe 5705 e73f 865d 23bf e925 92bf
000000f0: 19e2 93bf f413 43bf 33e6 24bf aaea 0c3f
00000100: fd4d 9c3f 6972 d6bf 614e 58be 3284 bd3d
00000110: 8035 133e fe03 ad3e 95b0 4cbf f850 b7be
00000120: d920 acbd 730b febd 2308 11bf bdb3 29bf
00000130: 9838 87bb 0a67 c53e 3367 2f3f d460 8dbd
00000140: 6a6d 0bbf 85f7 e1bd f360 75bf 162e 813e
00000150: 83f0 d33d a949 1a3f fb14 5fbe 0160 643f
00000160: 5747 f6bc 47ad d33e 58f2 283f 3ecc 9c3f
00000170: 6cf8 76be 86f7 a63f 6b05 3a3f c7a4 173f
00000180: 10c3 e23f c143 d03b 5a28 e4be 4c80 15bd
00000190: 137e b7bf 9636 fdbd 0327 f6bf 0e32 0abf
000001a0: be7c 243f dc85 2c3f 3545 da3e 24d5 1a3f
000001b0: 29f9 babe d14d 2d3f 3a69 32bf c2c1 4f3f
000001c0: 8b54 f93d b2dd 82bf aa86 983f 7b26 f73f
000001d0: 8c94 ae3e a1d7 d6be 4cde b4bf 0c0a 0ebe
000001e0: fc1c 6e3f 8aae a53f 824f 773e 53df 1fc0
000001f0: 9d56 8f3e 95c2 57bf 5990 00c0 72ec 98be
00000200: 7c3e 06c0 490f 8a3f a5eb c1be 26c6 7a3f
00000210: 5279 2bbf 1cc6 2bbf 22db 1c3e e41b 1f40
00000220: 6810 58bf 5d19 883f e26f d8bf c8c1 29bf
00000230: b993 7fbf 23a1 b1be fe09 a2bd de3d c4bf
00000240: 2eec 293f 08f6 77bf 6ff1 e03e d50b 66bf
00000250: 85ed afbf 2e7c b0bf cec1 213f 10db 8c3c
00000260: 5cf0 0640 d7a8 493f 0845 e7bd 57a1 8fbe
00000270: f73a f33f 66c4 2c3f a2a1 263f ddc5 99bf
00000280: 0cb7 cf3d 794d 84be d32b 883f 8ac4 53bd
00000290: 9ff2 bb3f 6d8d 883f f2e5 0240 48bf 843e
000002a0: c69b c63e ac72 c53e 25c6 1dbf 244b c6bf
000002b0: d49f 4d3f d1ff c13e fb99 af3e 057f c23d
000002c0: 815c fe3f 3f6c 9a3e 5523 e73e 69b8 84bf
000002d0: c312 593f 98af 8cbf 919b 72bf 32fe 5cbf
000002e0: b380 503f e737 7e3f 347c 94bf aabc 19bf
000002f0: 6fe0 b33e 709d cabf 1405 783e 8abb ec3f
00000300: 143e 2a3f c858 97be a385 5c3f e42b 4fbd
00000310: abed 2ebf 954e 1cbe dcf9 32bf 9a2d 153f
00000320: eadc 1940 7a61 cdbe ccf8 9abf 0bb9 713f
00000330: cd48 acbf 98fb b6be 07cf dcbe 8cb0 a73f
00000340: d1f4 5ebf 3330 153d ac41 933f 74db acbe
00000350: 19e5 5fbf e5d8 fc3e 2d40 0bbf cbd8 7d3f
00000360: 286e 653e fbb9 8fbf 8f5a 96be 8a69 8b3e
00000370: 08e5 eb3f 58a3 a3bf f6eb 383f d207 a2bf
00000380: e47f 433f 9a6b f23e 9684 1740 3619 463f
00000390: e412 e3bd 88cc bf3f c6f9 843e 8ad2 ad3d
000003a0: e930 3dbf c8c6 38bf a85c 4ebd dde4 323f
000003b0: 4090 02c0 5ed4 ba3e 4e6e efbc f787 a83f
000003c0: 1659 00bf dc82 babf 5890 463e 79e0 8e3e
000003d0: acd3 3bbe f171 983f 07a6 943d 6184 a3bf
000003e0: 1602 4dbf 3607 113d 6caf 38bf 1a98 4d3f
000003f0: 821d 9ebe 366c 56bf 9194 9cbf a3b6 f13b

weight_ih_l0 f4 [384, 32]
0.01909882 -0.11393152 -0.057319462 -0.058273274 0.053577773 0.05405625 -0.1510406 -0.1447735
0.11989417 0.034324676 -0.090607986 -0.10219447 0.023324536 0.11478405 0.074441485 -0.10947547
-0.004944618 0.018116571 0.022870885 0.10291964 0.06362592 -0.09196572 0.06921318 0.14421748
-0.036842022 0.19134173 0.067150414 0.21029076 -0.1498384 0.059822008 0.013128672 0.044672992
-0.076384574 0.04604302 0.0020054472 0.05247444 -0.01042351 0.041627508 -0.028358426 0.01168275
-0.028629255 -0.024664396 0.10015611 -0.003579123 0.044326693 0.04594005 -0.0703687 -0.03315885
0.041794438 0.0502402 0.01789098 -0.01165517 -0.03808568 0.01319803 0.028938675 0.042246155
0.0581112 0.010734127 -0.034363057 -0.085755534 0.08251161 -0.032757618 -0.0060315235 -0.10320917
0.071639135 -0.0727557 0.035107538 -0.018286437 -0.049672715 0.04876214 -0.025518918 0.03014631
-0.040221293 -0.10251866 0.04186806 -0.0013544534 0.0573041 -0.0508048 0.042578332 0.010677545
0.023210661 0.07067723 0.025797592 0.0014775345 -0.0063592405 -0.042359903 0.0499101 0.060753204
-0.04073628 0.09821146 0.06965642 0.05924923 0.06218927 0.1411204 0.08735916 0.004080564
-0.105516806 -0.028939774 -0.033223912 0.01692977 0.04653452 -0.057216853 -0.041128542 -0.017651943
-0.046956487 0.03655998 -0.076680355 0.03308135 -0.0124890935 -0.010317553 0.0051772306 -0.059738062
-0.037660327 0.1915608 0.066215456 0.18303365 -0.15291157 -0.13184378 0.10227136 0.08373776
0.071967006 0.03890705 -0.031956017 0.17201354 -0.1054741 -0.062215954 -0.16168028 -0.18990728
0.08609884 -0.03085723 -0.077945024 -0.048562203 -0.11151151 -0.06320995 -0.10975157 -0.07682742
0.061890855 -0.042647444 -0.035042573 -0.018361904 -0.01909573 -0.024636697 0.08494581 -0.0013045118
-0.07776557 -0.030868476 0.017256081 0.07432118 -0.080890045 -0.03350463 -0.0058411392 0.040225726
-0.05297447 -0.01511792 0.13427126 0.063252926 0.090674676 0.07009169 -0.00446742 0.009056385
0.15400825 -0.12252548 -0.07611746 0.0138103 -0.10000486 0.0034794991 -0.04376091 -0.13516973
-0.038335662 -0.10678924 0.05834008 -0.07091285 -0.00047172376 -0.07860257 -0.07332294 -0.0081174215
-0.12680578 -0.028719606 -0.21996282 -0.11358022 0.106743135 0.058795992 -0.051378537 0.09977949
-0.018557863 -0.06240495 0.07771271 -0.0076207793 0.02654433 0.18262361 0.1992004 0.097053245
-0.009122272 0.015925102 0.04763206 -0.050062127 0.041865636 0.04009184 -0.06679453 -0.052292753
0.0112295505 -0.12625998 0.008428036 -0.0012171713 -0.08557611 0.08223635 -0.053038057 -0.017305136
-0.06263472 0.01018431 -0.05401558 0.10327797 0.042815108 0.07368151 0.044025995 0.09904328
-0.07950057 0.033466324 -0.0022418841 0.062370434 0.026775926 0.09201474 0.0039798976 0.10574402
-0.07288859 0.08119411 -0.021035448 0.07198469 -0.002516555 0.096766345 -0.020679388 -0.044116575
-0.0455796 -0.055993617 -0.0013336686 0.00662338 -0.0012651661 -0.0161308 0.037993256 0.039852872
0.07524462 0.034621704 -0.101285584 0.06611167 -0.005141765 -0.022244899 -0.0027473469 -0.05750357
-0.06277476 -0.05126343 -0.04479593 -0.03567007 0.040883537 -0.00044062684 0.04617268 -0.030677082
00000000: 2175 9c3c ee54 e9bd d0c7 6abd f5af 6ebd
00000010: 5e74 5b3d 166a 5d3d 63aa 1abe 813f 14be
00000020: 138b f53d 0898 0c3d ae90 b9bd 564b d1bd
00000030: 1913 bf3c e613 eb3d c774 983d ad34 e0bd
00000040: 7606 a2bb 3469 943c b95b bb3c 88c7 d23d
00000050: 4e4e 823d 8658 bcbd a4bf 8d3d bfad 133e
00000060: a9e7 16bd 16ef 433e 2886 893d 7656 573e
00000070: 3d6f 19be ec07 753d a419 573c 07fb 363d
00000080: 846f 9cbd 9b97 3c3d d26d 033b 70ef 563d
00000090: 5fc7 2abc 9b81 2a3d ee4f e8bc 0169 3f3c
000000a0: e687 eabc fd0c cabc a61e cd3d b88f 6abb
000000b0: e88f 353d a22b 3c3d 771d 90bd 93d1 07bd
000000c0: a530 2b3d abc8 4d3d 1b90 923c 53f5 3ebc
000000d0: bbff 1bbd 8d3c 583c cd10 ed3c 4e0a 2d3d
000000e0: 0206 6e3d 31de 2f3c 47c0 0cbd 99a0 afbd
000000f0: d9fb a83d da2c 06bd 16a4 c5bb 545f d3bd
00000100: 8ab7 923d f100 95bd eccc 0f3d 70cd 95bc
00000110: 9e75 4bbd cfba 473d 0d0d d1bc 65f5 f63c
00000120: 15bf 24bd 4ef5 d1bd d87d 2b3d ea87 b1ba
00000130: b4b7 6a3d b218 50bd 9e66 2e3d dff0 2e3c
00000140: 4924 be3c 39bf 903d 7955 d33c d5a9 c13a
00000150: 2d61 d0bb 9481 2dbd 886e 4c3d 5ad8 783d
00000160: 16db 26bd 1723 c93d 06a8 8e3d 52af 723d
00000170: 2dba 7e3d de81 103e 5ce9 b23d 40b6 853b
00000180: 3219 d8bd 1b13 edbc cc15 08bd 4db0 8a3c
00000190: fb9a 3e3d 385c 6abd 6776 28bd cf9a 90bc
000001a0: 7255 40bd ebbf 153d 970a 9dbd 4f80 073d
000001b0: 0e9f 4cbc f40a 29bc c2a5 a93b e6af 74bd
000001c0: b741 1abd 8428 443e f89b 873d 2c6d 3b3e
000001d0: da94 1cbe 0e02 07be a673 d13d b47e ab3d
000001e0: 7063 933d 005d 1f3d 50e4 02bd 5124 303e
000001f0: ce02 d8bd 28d6 7ebd 848f 25be 0e77 42be
00000200: 9754 b03d 4dc8 fcbc a4a1 9fbd 29e9 46bd
00000210: 2660 e4bd 3874 81bd 6ec5 e0bd b257 9dbd
00000220: 4481 7d3d 16af 2ebd cd88 0fbd b46b 96bc
00000230: a66e 9cbc e6d2 c9bc 12f8 ad3d 27fc aaba
00000240: 8e43 9fbd e3df fcbc a05c 8d3c b435 983d
00000250: aea9 a5bd 273c 09bd 0767 bfbb bbc3 243d
00000260: c2fb 58bd 27b1 77bc 687e 093e c08a 813d
00000270: a5b3 b93d 3b8c 8f3d 6f63 92bb 3b61 143c
00000280: 57b4 1d3e a4ee fabd 79e3 9bbd 9944 623c
00000290: 59cf ccbd 4f08 643b a43e 33bd ef69 0abe
000002a0: db05 1dbd 51b4 dabd 02f6 6e3d c23a 91bd
000002b0: b151 f7b9 62fa a0bd 562a 96bd effe 04bc
000002c0: 60d9 01be 6145 ebbc ef3d 61be bf9c e8bd
000002d0: 259c da3d 11d4 703d 4d72 52bd 3059 cc3d
000002e0: a906 98bc 559c 7fbd d727 9f3d bbb7 f9bb
000002f0: 7f73 d93c af01 3b3e 31fb 4b3e dac3 c63d
00000300: 9575 15bc 5c75 823c d619 433d f20d 4dbd
00000310: 4d7b 2b3d 5737 243d 92cb 88bd ed30 56bd
00000320: 26fc 373c 4c4a 01be bf15 0a3c 7e89 9fba
00000330: 8742 afbd 886b a83d 6f3e 59bd 80c3 8dbc
00000340: a246 80bd 18dc 263c 713f 5dbd 6683 d33d
00000350: e55e 2f3d 55e6 963d 9a54 343d 34d7 ca3d
00000360: 32d1 a2bd fc13 093d 93ec 12bb 2478 7f3d
00000370: 3059 db3c 3972 bc3d cd69 823b 5290 d83d
00000380: 9d46 95bd 1949 a63d 8852 acbc b66c 933d
00000390: c9ec 24bb 6f2d c63d d267 a9bc 95b3 34bd
000003a0: adb1 3abd 9059 65bd 7ece aeba f008 d93b
000003b0: eed3 a5ba bd24 84bc d19e 1b3d c43c 233d
000003c0: da19 9a3d 7dcf 0d3d d16e cfbd 8e65 873d
000003d0: 407c a8bb ef3a b6bc d50c 34bb dd88 6bbd
000003e0: 0e90 80bd 9af9 51bd f07b 37bd c81a 12bd
000003f0: 7f75 273d ef03 e7b9 901f 3d3d 814e fbbc

weight_hh_l0 f4 [384, 128]
0.21273524 -0.01588423 0.1253783 0.054818697 -0.04743656 -0.09970867 0.017545016 -0.15366672
0.061445255 0.08729455 0.030424092 0.0628013 0.0307996 0.044854555 0.014440081 -0.047795705
0.008221633 -0.066372424 -0.016444141 -0.012582486 0.054548796 0.028936492 0.008899902 0.094709784
-0.07021437 0.13594346 -0.016902465 0.06922623 -0.053481486 -0.018747952 -0.10240316 0.04244948
0.005041488 -0.012044926 -0.06746679 0.017680502 0.061305676 -0.007250074 0.031027148 -0.08493561
0.032545097 -0.01967403 -0.0014330107 0.116150066 -0.045971952 -0.04361592 0.05419494 -0.020677311
-0.09893435 0.02130309 -0.12240204 0.082072556 0.06042833 -0.00562584 0.07781284 -0.014233108
-0.016356658 0.07257066 0.028296892 -0.0074741417 -0.14644006 -0.11439072 0.04127315 -0.02293873
0.05463564 0.07389614 -0.08555361 0.03158019 0.01733023 -0.089987405 -0.08902368 0.13663433
-0.0061395993 -0.05984338 0.14246857 -0.029073011 -0.1338598 0.019597176 -0.08187099 0.12498555
0.044275288 -0.118728004 0.087070815 -0.08362035 -0.0019252565 0.05094015 -0.080340624 0.07871195
0.0154650705 0.076580055 -0.029335668 -0.14448111 -0.07031585 -0.039815556 0.024283003 -0.016248744
-0.0098331515 -0.07474727 -0.11125975 -0.01994088 -0.05743816 -0.033349544 0.095540375 0.038572963
-0.0023723324 -0.029370593 -0.046412304 0.001068048 0.01574323 0.01654121 -0.023760304 -0.06856649
0.023812633 0.02140456 0.10988162 -0.11605613 0.03741517 0.0610374 0.03614527 -0.026633501
-0.12832092 0.02868525 0.07146494 -0.055473335 0.057137944 0.06075204 0.10447514 -0.06713985
-0.06309643 -0.0566911 0.065571174 0.05950959 0.104610376 -0.03638577 -0.042248886 -0.06393764
0.05177213 0.0024664027 -0.055398982 0.037188195 0.08873953 -0.08674581 -0.09570841 -0.07510299
-0.014758349 0.0048070946 0.05268069 -0.030034352 -0.05273278 -0.061672635 0.039260425 -0.049049854
0.055436898 0.08469915 0.050506037 -0.06158076 0.059441186 -0.04178441 0.040961474 0.050393097
-0.0017496948 -0.06194315 -0.03176861 -0.068662 -0.10652524 0.07967367 -0.065255955 -0.04338753
0.10888854 -0.036074117 -0.008007868 -0.007999424 -0.00247102 0.017721174 0.0040265624 -0.0023159317
0.07605228 -0.018476615 0.041130092 0.067211725 0.059943948 -0.025894172 -0.0755859 -0.0007301656
-0.08772677 -0.08289867 0.07708951 0.005845659 0.105985574 -0.075560406 -0.040422 0.07201169
-0.079669 -0.009493056 -0.04610751 -0.073078774 0.051927652 -0.07849134 -0.044590224 0.06793147
0.05448907 -0.0004414754 -0.106621005 0.065284565 0.06652695 -0.047364715 -0.002198911 -0.07116436
0.06894338 -0.039363593 -0.039960433 -0.030711642 0.03572367 -0.05767743 0.07500478 0.011580751
0.04353972 0.00755686 -0.03244347 -0.040636834 -0.065190755 0.06608446 0.054687906 -0.052449156
0.05407411 0.07403514 0.07581587 -0.08463662 0.026543159 0.04370376 -0.0006775105 -0.04154154
0.037872616 -0.016731886 -0.024536474 0.06343129 -0.028910393 -0.06310537 -0.020157978 -0.051579453
-0.09855023 0.025385726 -0.07689486 -0.01971422 -0.089601636 0.03511105 0.07191628 -0.0011028734
0.08147845 -0.030800212 -0.020977136 0.018404173 0.08558564 0.015817361 -0.09664673 0.036991786
00000000: 44d7 593e a51f 82bc 2b63 003e 9289 603d
00000010: d74c 42bd 0f34 ccbd 91ba 8f3c cf5a 1dbe
00000020: 05ae 7b3d 7cc7 b23d f23b f93c f89d 803d
00000030: 714f fc3c 69b9 373d 1796 6c3c 6ec5 43bd
00000040: 07b4 063c 44ee 87bd ddb5 86bc c526 4ebc
00000050: 8f6e 5f3d 390c ed3c e5d0 113c 34f7 c13d
00000060: 8dcc 8fbd c334 0b3e 0a77 8abc 7bc6 8d3d
00000070: 670f 5bbd 4e95 99bc bfb8 d1bd 82df 2d3d
00000080: 1133 a53b 1558 45bc 072c 8abd b3d6 903c
00000090: a91b 7b3d 0792 edbb a52c fe3c b9f2 adbd
000000a0: 024e 053d 6e2b a1bc dcd3 bbba 16e0 ed3d
000000b0: 164d 3cbd 9ba6 32bd 83fb 5d3d 7763 a9bc
000000c0: 189e cabd d183 ae3c ecad fabd a815 a83d
000000d0: b283 773d f758 b8bb 575c 9f3d fb31 69bc
000000e0: 66fe 85bc ed9f 943d e2ce e73c a5e9 f4bb
000000f0: 62f4 15be af45 eabd 090e 293d 01ea bbbc
00000100: 9fc9 5f3d dc56 973d bb36 afbd 3b5a 013d
00000110: 20f8 8d3c 514b b8bd 0c52 b6bd dfe9 0b3e
00000120: b12e c9bb 551e 75bd 48e3 113e 862a eebc
00000130: 8b12 09be 428a a03c faab a7bd 6df8 ff3d
00000140: 015a 353d ab27 f3bd 2f52 b23d 2541 abbd
00000150: e358 fcba 9ea6 503d a089 a4bd bb33 a13d
00000160: 3561 7d3c 01d6 9c3d 5b51 f0bc dbf2 13be
00000170: c201 90bd a315 23bd 26ed c63c 161c 85bc
00000180: 3a1b 21bc 1915 99bd 27dc e3bd 0e5b a3bc
00000190: 4744 6bbd 8899 08bd acaa c33d affe 1d3d
000001a0: 2279 1bbb 999a f0bc d41a 3ebd befd 8b3a
000001b0: f2f7 803c 6e81 873c f8a4 c2bc 976c 8cbd
000001c0: b612 c33c 9e58 af3c 9d09 e13d d6ae edbd
000001d0: a640 193d 5a02 7a3d 100d 143d 802e dabc
000001e0: 8f66 03be 54fd ea3c 365c 923d 0238 63bd
000001f0: 7a09 6a3d 22d7 783d 10f7 d53d 9e80 89bd
00000200: b338 81bd ed34 68bd 2e4a 863d 54c0 733d
00000210: f73d d63d 3f09 15bd 2b0d 2dbd bdf1 82bd
00000220: 030f 543d 5fa3 213b 0bea 62bd a652 183d
00000230: 12bd b53d caa7 b1bd c502 c4bd 99cf 99bd
00000240: 01cd 71bc d584 9d3b b5c7 573d 9a0a f6bc
00000250: 54fe 57bd 729c 7cbd 8acf 203d 80e8 48bd
00000260: cd11 633d bf76 ad3d 6bdf 4e3d 1b3c 7cbd
00000270: 9a78 733d 2126 2bbd 38c7 273d fe68 4e3d
00000280: 0456 e5ba 1ab8 7dbd cd1f 02bd aa9e 8cbd
00000290: e829 dabd f32b a33d eaa4 85bd 1fb7 31bd
000002a0: f400 df3d 74c2 13bd 6f33 03bc 0410 03bc
000002b0: d6f0 21bb ff2b 913c 41f1 833b e3c6 17bb
000002c0: 4cc1 9b3d 455c 97bc 0778 283d 4da6 893d
000002d0: c987 753d 0420 d4bc c8cc 9abd 9568 3fba
000002e0: 18aa b3bd c7c6 a9bd 1be1 9d3d f18c bf3b
000002f0: f70e d93d 6abf 9abd 8a91 25bd dd7a 933d
00000300: 8029 a3bd c388 1bbc 3adb 3cbd 53aa 95bd
00000310: 17b2 543d 11c0 a0bd 3da4 36bd a81f 8b3d
00000320: ee2f 5f3d d375 e7b9 1d5c dabd eab3 853d
00000330: 483f 883d 8101 42bd 9b1b 10bb 9fbe 91bd
00000340: 3032 8d3d b83b 21bd 8dad 23bd fb96 fbbc
00000350: fc52 123d 2b3f 6cbd 1b9c 993d 31bd 3d3c
00000360: b556 323d 899f f73b 72e3 04bd cf72 26bd
00000370: bb82 85bd 4a57 873d 6d00 603d edd4 56bd
00000380: d07c 5d3d bc9f 973d 5a45 9b3d f755 adbd
00000390: 0a71 d93c b702 333d f69a 31ba 7627 2abd
000003a0: 5120 1b3d 4f11 89bc b700 c9bc 44e8 813d
000003b0: 7dd5 ecbc 633d 81bd 5822 a5bc fa44 53bd
000003c0: b4d4 c9bd baf5 cf3c 0d7b 9dbd b77f a1bc
000003d0: 1081 b7bd 9bd0 0f3d d848 933d 4a8e 90ba
000003e0: 2cde a63d ba50 fcbc 3ed8 abbc 59c4 963c
000003f0: 8647 af3d 6993 813c b9ee c5bd b384 173d

bias_ih_l0 f4 [384]
0.0809012 0.045541145 0.08712386 0.030603975 -0.0017080223 0.07554069 -0.060736343 0.017659334
-0.07503173 -0.012777487 -0.051578283 0.02222235 -0.007139452 0.0056944937 0.09131207 0.024798578
-0.033316012 -0.0016173066 -0.11236166 -0.02638066 -0.023424698 0.018359536 0.07106346 0.040132504
-0.124383025 -0.038273595 -0.014051738 0.019052891 0.066473834 0.06669802 0.013752767 -0.05118608
-0.033044692 0.007864248 -0.109902 -0.10651173 -0.09564963 0.12811898 -0.016302628 -0.023089608
-0.037036516 0.0030243702 -0.06642423 0.040925253 -0.08477377 -0.13004416 -0.039960843 -0.12737307
-0.058846157 -0.107317425 -0.102801934 -0.05760859 0.06655128 -0.10411317 -0.023588425 -0.12883897
0.06999711 0.023148831 -0.028443431 -0.012424315 -0.09658182 -0.06852058 0.009706948 0.0182738
-0.10702357 -0.03788992 -0.06376746 -0.09294776 -0.06396151 0.0010337451 -0.035361547 -0.085971214
-0.14349513 0.036075152 0.13883609 0.0020378563 0.06272592 0.058680058 -0.0017371656 -0.030612305
0.0038882077 -0.11356046 -0.08891606 -0.023095148 0.040389586 -0.014352479 0.0166198 -0.095536284
-0.00049781083 -0.036537204 -0.006358679 -0.07998187 -0.0030889725 0.0159422 -0.0544789 -0.11307279
-0.086603776 0.05503162 0.021722866 0.0024705294 0.029543659 -0.08821414 -0.053523827 0.0179855
-0.045920104 0.067062505 0.109754816 -0.054713234 -0.0805237 -0.012895332 -0.012841575 0.03314453
-0.005993827 0.024568334 -0.08806901 -0.046976443 0.039375648 -0.0015481145 -0.0914992 -0.038500477
-0.09191955 0.075285055 0.020572886 0.015615732 0.023499673 -0.06664156 0.06782914 0.070962325
-0.10536071 -0.0024317347 -0.10806681 -0.017303903 0.027248697 -0.03632951 -0.040938728 0.031728104
0.045225687 0.08008661 0.007898109 0.11609367 -0.01655834 -0.05611165 -0.12268977 -0.019729232
-0.022586737 0.11939254 0.062265255 0.0011336633 0.073952526 -0.042563517 -0.06637966 -0.017063342
0.018484643 0.053401235 -0.008227566 0.03900222 -0.03859543 -0.0174291 -0.09891033 0.1407246
0.07515373 0.021480769 0.095509246 0.020399736 0.016199283 -0.01735112 0.05637749 -0.0059029097
0.07121802 -0.09102641 0.0063799503 -0.033889253 0.07412004 -0.025024092 0.08181153 0.096562
0.122828834 0.046257652 0.10808909 0.018204048 0.07517121 0.0891784 0.0829006 -0.019435456
0.09298991 -0.011270719 0.101672195 0.06679721 0.006765328 -0.06386657 0.14568198 0.010262827
0.029108081 -0.09843184 -0.036922455 0.044439476 0.010595881 0.070407435 0.06008151 0.08404734
0.07552771 0.11024889 -0.05542924 0.123561524 -0.015234375 -0.08530481 0.07491891 -0.026025848
-0.12122112 0.044624586 0.0076772557 0.08398311 -0.09775699 0.109699205 0.040630836 0.02874198
0.03509269 0.10411238 -0.014395952 0.07005519 0.023504995 0.039836027 -0.101338856 0.16100302
-0.008695243 0.0710979 0.054451324 0.017909 -0.03820097 0.09433152 0.10525366 0.10265212
-0.018613596 -0.15604353 0.053175 0.058949497 0.15061739 -0.019123025 -0.025965275 0.07621498
-0.017406402 -0.043219194 0.064960755 0.22391066 0.025519563 -0.11333719 0.076788776 0.1460279
0.0025418636 0.07011427 -0.027924139 0.044539105 -0.033949878 0.08004459 -0.110277966 0.07138709
00000000: 87af a53d 5a89 3a3d ff6d b23d 30b5 fa3c
00000010: b8df dfba 14b5 9a3d acc6 78bd 4faa 903c
00000020: 3caa 99bd aa58 51bc c043 53bd a50b b63c
00000030: 10f2 e9bb e098 ba3b d301 bb3d 6326 cb3c
00000040: 5f76 08bd cefb d3ba df1d e6bd 411c d8bc
00000050: 27e5 bfbc bd66 963c b889 913d fb61 243d
00000060: 87bc febd c6c4 1cbd 4339 66bc cf14 9c3c
00000070: 6f23 883d f998 883d 4953 613c 7fa8 51bd
00000080: df59 07bd 0cd9 003c 4d14 e1bd d222 dabd
00000090: f4e3 c3bd 9f31 033e 178d 85bc 6b26 bdbc
000000a0: 9ab3 17bd 8334 463b 6d09 88bd 3da1 273d
000000b0: df9d adbd 4c2a 05be fbad 23bd 166e 02be
000000c0: ab08 71bd 3dc9 dbbd d289 d2bd fcf6 6bbd
000000d0: 0a4c 883d 4939 d5bd 833c c1bc 5dee 03be
000000e0: a55a 8f3d 9ea2 bd3c 3302 e9bc 5b8f 4bbc
000000f0: b0cc c5bd 8554 8cbd e409 1f3c f0b2 953c
00000100: 2c2f dbbd 7632 1bbd 8498 82bd 655b bebd
00000110: 41fe 82bd bb7e 873a 45d7 10bd ad11 b0bd
00000120: 63f0 12be 8ac3 133d 0c2b 0e3e 8e8d 053b
00000130: 7276 803d 805a 703d 9bb1 e3ba a8c6 fabc
00000140: 4dd1 7e3b 6392 e8bd a019 b6bd 0932 bdbc
00000150: 8d6f 253d a926 6bbc 3f26 883c 87a8 c3bd
00000160: 857f 02ba 09a8 15bd 775c d0bb 89cd a3bd
00000170: 5c70 4abb 3799 823c 4425 5fbd b592 e7bd
00000180: 525d b1bd d668 613d 27f4 b13c 9be8 213b
00000190: 8b05 f23c 9da9 b4bd cd3b 5bbd 5456 933c
000001a0: b816 3cbd 1158 893d 22c7 e03d fc1a 60bd
000001b0: 9ce9 a4bd f146 53bc 7865 52bc 8fc2 073d
000001c0: dd67 c4bb 8843 c93c 865d b4bd 5f6a 40bd
000001d0: 5c48 213d 1aea caba ef63 bbbd adb2 1dbd
000001e0: 5140 bcbd 0d2f 9a3d 7888 a83c 21d9 7f3c
000001f0: 6382 c03c 5f7b 88bd 01ea 8a3d b254 913d
00000200: 5bc7 d7bd bd5d 1fbb 2252 ddbd eac0 8dbc
00000210: a938 df3c 41ce 14bd 5eaf 27bd 54f5 013d
00000220: 923e 393d 7304 a43d 1267 013c 85c2 ed3d
00000230: 5ba5 87bc 54d5 65bd c644 fbbd 339f a1bc
00000240: d207 b9bc 1384 f43d da09 7f3d 6e97 943a
00000250: 6c74 973d 1557 2ebd 0ff2 87bd 6cc8 8bbc
00000260: 1b6d 973c 41bb 5a3d eacc 06bc cbc0 1f3d
00000270: 3e16 1ebd 79c7 8ebc 8091 cabd 1c1a 103e
00000280: 33ea 993d 70f8 af3c 5a9a c33d 591d a73c
00000290: 5cb4 843c f023 8ebc 15ec 663d 326d c1bb
000002a0: c1da 913d 0e6c babd e70e d13b 75cf 0abd
000002b0: 3fcc 973d 53ff ccbc ce8c a73d 4cc2 c53d
000002c0: af8d fb3d aa78 3d3d d05d dd3d a820 953c
000002d0: 5df3 993d 2aa3 b63d cac7 a93d 1b37 9fbc
000002e0: 7e71 be3d d2a8 38bc 8339 d03d facc 883d
000002f0: afaf dd3b 7acc 82bd a82d 153e 6b25 283c
00000300: 1274 ee3c a296 c9bd 003c 17bd 2b06 363d
00000310: 599a 2d3c c631 903d 0818 763d 0321 ac3d
00000320: 46ae 9a3d 2cca e13d c509 63bd d30d fd3d
00000330: 9a99 79bc 4ab4 aebd 166f 993d 2934 d5bc
00000340: c742 f8bd 45c8 363d 7d91 fb3b 56ff ab3d
00000350: d134 c8bd faa9 e03d 856c 263d 4d74 eb3c
00000360: 5abd 0f3d df38 d53d 00dd 6bbc 1879 8f3d
00000370: 8c8d c03c 1a2b 233d bf8a cfbd fadd 243e
00000380: 7e76 0ebc c79b 913d 5a08 5f3d e5b5 923c
00000390: 9f78 1cbd e230 c13d 3b8f d73d 463b d23d
000003a0: 8a7b 98bc e0c9 1fbe 07ce 593d 0775 713d
000003b0: 723b 1a3e e4a7 9cbc 21b5 d4bc 9916 9c3d
000003c0: df97 8ebc 9c06 31bd 250a 853d d648 653e
000003d0: 670e d13c 541d e8bd 6f43 9d3d 5688 153e
000003e0: 6595 263b 1298 8f3d 2ac1 e4bc a36e 363d
000003f0: 070f 0bbd 6bee a33d 6ad9 e1bd 6533 923d
