scripts/storage/GridCity/model.pt (torch_old, 76703 bytes, 11 tensors)

weight f4 [16, 3, 2, 2]
-0.0032245112 -0.14029026 -0.16042247 0.09454801 -0.5393822 0.2473978 -0.04423333 0.22356343
0.023816332 0.006131344 0.01632285 0.051354427 0.201387 -0.15939091 -0.118611984 -0.0051400387
-0.034006238 -0.010989249 0.20807254 -0.025835704 -0.056932703 -0.15524085 -0.10960481 -0.22249725
-0.09415927 0.08160944 0.10039653 0.09736011 -1.5951052 0.26503026 -0.098366916 0.20133136
0.22572586 -0.3365053 -0.13178077 -0.1696685 0.26354635 -0.14323662 0.205546 -0.22025876
0.217285 -0.34581417 0.112289265 -0.035555016 -0.16588557 0.12085113 -0.2159146 0.10594733
-0.12469707 -0.20005278 -0.3374548 -0.14601572 0.1564777 -0.22300766 0.31251255 0.24729225
0.08636549 -0.1612199 0.12455992 0.1522123 -0.21268298 0.16572766 0.08252333 0.2882031
-0.12235667 -0.041765355 -0.045362454 -0.0846181 -0.21213631 -0.23589016 0.06432172 -0.18530637
0.08293837 -0.10156706 0.12925884 0.029378237 0.12076177 -0.114965856 -2.1059732 0.12203751
0.001127233 -0.499763 0.03927165 -0.003639748 0.2360472 -0.25090945 -0.21275249 0.21320677
-0.16535142 0.15244232 0.23166032 -0.19536184 0.03669475 0.043370124 -0.054793194 -0.22686788
0.03162666 -0.012951394 -0.060192525 -0.038406055 0.3101506 0.019611895 -0.16132219 0.3325002
-0.2570166 -0.3101495 0.2669016 -0.17202002 0.018419122 0.029959753 -0.06552035 0.1545424
0.18975632 -1.5834577 -0.027144974 0.34576795 0.08017543 0.13283531 -0.26785716 -0.17078078
-0.18725702 0.11415715 0.17585872 -0.068238296 0.21240827 -1.0140768 -0.46021473 0.14600119
0.074056625 0.23270997 -0.078954354 0.05332387 0.25883162 0.13451225 0.057723477 0.010400138
0.11825235 0.011877559 -0.13042895 -0.28911644 -0.24421182 -0.094482854 -0.20932499 0.114898376
0.06600627 -0.111772925 0.15722379 0.08047659 0.03613865 0.17139512 -0.1600437 0.21052504
-0.061582632 -0.011094699 -0.35579062 -0.20643584 -0.2601026 -0.13944057 0.2629949 -0.12852384
-0.26558915 0.07869976 0.097243585 0.20565735 -0.16921249 -0.0076383413 -0.06901488 0.04108714
-0.19192134 -0.110961005 -0.09915803 0.059892673 0.15729325 0.09064609 0.19917533 0.1191539
0.22625718 -0.03111597 -0.058103114 0.30404866 0.040582925 0.0002619567 -0.055601455 -0.017219685
-0.38030645 0.16669053 -1.8650758 -0.21932667 -0.033675343 -0.058172967 0.10701061 -0.19047174
00000000: 5252 53bb 40a8 0fbe ca45 24be 63a2 c13d
00000010: f414 0abf d955 7d3e 022e 35bd d0ed 643e
00000020: 781a c33c 71e9 c83b 7fb7 853c 0559 523d
00000030: 6538 4e3e 5f37 23be d7ea f2bd c56d a8bb
00000040: 204a 0bbd 400c 34bc f810 553e 66a5 d3bc
00000050: 4432 69bd 75f7 1ebe 7d78 e0bd 52d6 63be
00000060: 93d6 c0bd da22 a73d b29c cd3d bd64 c73d
00000070: 682c ccbf 0cb2 873e 9874 c9bd cf29 4e3e
00000080: ae24 673e 6c4a acbe 8af1 06be 94bd 2dbe
00000090: 8cef 863e 9fac 12be a77a 523e 838b 61be
000000a0: f67f 5e3e 8e0e b1be eaf7 e53d 23a2 11bd
000000b0: e8dd 29be cc80 f73d b818 5dbe eafa d83d
000000c0: 2d61 ffbd a3da 4cbe e0c6 acbe 2585 15be
000000d0: b13b 203e 1f5c 64be a501 a03e 2e3a 7d3e
000000e0: 64e0 b03d d416 25be 4519 ff3d 8bdd 1b3e
000000f0: 91c9 59be 83b4 293e fe01 a93d 5b8f 933e
00000100: 2296 fabd 2612 2bbd fbcd 39bd 414c adbd
00000110: 433a 59be 318d 71be 1bbb 833d f4c0 3dbe
00000120: 98db a93d 6402 d0bd 6e5c 043e a1aa f03c
00000130: f251 f73d 3873 ebbd 44c8 06c0 cdee f93d
00000140: aabf 933a f0e0 ffbe 4fdb 203d d788 6ebb
00000150: 5bb6 713e 3477 80be cadb 59be e052 5a3e
00000160: e251 29be d719 1c3e 5d38 6d3e ef0c 48be
00000170: 3c4d 163d dfa4 313d d46e 60bd 0e50 68be
00000180: f58a 013d 1532 54bc 708c 76bd ab4f 1dbd
00000190: 0fcc 9e3e 20a9 a03c a531 25be 773d aa3e
000001a0: ae97 83be eacb 9ebe 54a7 883e 0426 30be
000001b0: b3e3 963c 286e f53c 892f 86bd 5d40 1e3e
000001c0: 7b4f 423e beae cabf 235f debc 7f08 b13e
000001d0: 0433 a43d fb05 083e 9324 89be 28e1 2ebe
000001e0: 4ec0 3fbe 39cb e93d 4f14 343e 85c0 8bbd
000001f0: 8e81 593e 45cd 81bf 44a1 ebbe 5681 153e
00000200: 00ab 973d 864b 6e3e d2b2 a1bd 216a 5a3d
00000210: 9485 843e 94bd 093e 746f 6c3d 5765 2a3c
00000220: 4a2e f23d 189a 423c 2b8f 05be 1207 94be
00000230: aa12 7abe 3a80 c1bd 4a59 56be d74f eb3d
00000240: 4c2e 873d 34e9 e4bd 46ff 203e e9d0 a43d
00000250: 1f06 143d 3482 2f3e 7fe2 23be e093 573e
00000260: 123e 7cbd 8ac6 35bc 302a b6be eb63 53be
00000270: 2b2c 85be 82c9 0ebe 44a7 863e c19b 03be
00000280: 4dfb 87be 572d a13d a527 c73d d797 523e
00000290: 0a46 2dbe 0d4b fabb ac57 8dbd fd4a 283d
000002a0: 0787 44be 863f e3bd 5d13 cbbd 0552 753d
000002b0: 7b11 213e a8a4 b93d 9ef4 4b3e f606 f43d
000002c0: f6af 673e ebe6 febc 88fd 6dbd 44ac 9b3e
000002d0: 483a 263d 3c57 8939 5abe 63bd 4c10 8dbc
000002e0: 87b7 c2be ecb0 2a3e ceba eebf 2c97 60be
000002f0: 28ef 09bd c746 6ebd 6128 db3d 060b 43be

bias f4 [16]
-0.182315 -0.02566578 0.1767027 -0.2053588 0.008342182 0.09700077 0.23524147 -0.20270015
0.12867188 -0.21762262 0.3283025 -0.13178961 0.0507965 0.078053966 -0.05486427 0.089652345
00000000: c9b0 3abe 0b41 d2bc 8df1 343e 9449 52be
00000010: a6ad 083c 57a8 c63d 24e3 703e a190 4fbe
00000020: 90c2 033e 77d8 5ebe 4417 a83e dbf3 06be
00000030: fe0f 503d c2da 9f3d 5bb9 60bd a69b b73d

weight f4 [64, 16, 2, 2]
-0.0036125346 0.005336376 -0.017749444 0.06597412 -0.067596756 0.0066689705 0.07637966 0.044031736
0.10411952 -0.16158926 -0.123323046 0.14769168 -0.10659893 0.04084927 -0.090941854 -0.027027128
0.05808001 -0.114546694 -0.059100732 0.03105924 0.062208444 0.07868234 -0.074580826 -0.10703528
0.080297105 -0.066183716 -0.017660355 0.26997325 -0.083311126 0.02285671 0.045815032 -0.106583886
-0.15719727 -0.042320073 0.0138354525 -0.013989401 -0.081847526 -0.039651528 -0.10661279 -0.094201945
-0.13870856 0.052778736 0.12478779 -0.013751513 -0.023414522 0.03063772 0.022863397 -0.03160476
0.03867503 0.016509663 -0.039573394 -0.07070609 0.12004214 0.037003547 -0.09627647 0.0513896
0.052112937 -0.120729014 0.06378749 -0.12590656 0.07863507 -0.09858424 0.041659206 0.1493616
-0.03480741 0.15016647 -0.04293242 -0.0410647 -0.07269731 0.016383741 -0.119152725 0.0025130603
-0.066478275 0.0911855 0.13474438 0.020736229 -0.0927192 -0.030048909 -0.12581527 0.12176421
-0.027300851 0.047389895 0.041074485 -0.032562308 0.024598114 0.055230133 0.044395447 -0.053885862
-0.09016095 -0.21904603 -0.13569863 -0.06159784 -0.028621804 0.047301486 0.04407719 -0.075518586
-0.068463 -0.035262126 -0.069576055 0.12693183 -0.016864913 0.17402461 -0.0268714 -0.06692366
-0.1717246 -0.0011951921 0.071661495 -0.13081114 -0.10007915 0.0462113 0.051293217 0.07376129
-0.09396971 -0.05941812 -0.050049927 0.021576611 0.009034912 -0.08934265 -0.121843725 0.0952402
-0.05287291 0.020121718 0.07018049 0.06958243 0.08139512 -0.21562754 0.011445999 -0.034838952
-0.070809714 -0.08214286 -0.00996956 -0.025079874 -0.087813765 -0.07004825 -0.08222118 0.107816964
-0.0062670093 -0.11345294 -0.1703452 -0.060246084 -0.10760172 -0.027631205 0.07876916 0.07315879
-0.030704072 -0.027926313 0.022184981 0.09389059 0.12928319 0.0015455475 0.051239777 0.0032379073
-0.079446346 -0.11037028 0.039592694 -0.10126407 0.12813255 -0.114902005 -0.16528858 -0.1120085
0.026951134 -0.10028603 -0.19874758 0.053710487 0.043837782 -0.020788483 -0.0005184075 0.038316965
-0.006089013 0.15778445 0.027879989 0.027464317 -0.020856649 -0.10592776 0.09537497 0.035172336
-0.07247852 0.10640985 0.06916941 0.0638835 -0.13627133 -0.08972007 0.0023408146 0.07410653
0.01709856 -0.05166549 0.09439119 0.04998658 0.03166905 -0.074080646 -0.020203315 -0.009185397
-0.054038882 0.109515004 0.008441534 -0.100995935 -0.054902695 -0.09552105 -0.016291035 -0.01053227
0.09106731 -0.06286399 -0.043119032 -0.027933726 0.092487715 -0.01656418 0.07529136 0.15089405
-0.090386145 0.12404131 -0.03500639 -0.074308835 -0.09016987 0.10572331 -0.0025539005 0.021600612
-0.0073233466 0.073497556 -0.087263785 -0.14969127 0.034978222 -0.017584292 -0.009657694 -0.07722008
-0.0041277506 -0.016268149 0.0578736 -0.14177361 0.059602465 -0.007917038 0.089295775 0.15777238
-0.06584509 0.13425945 -0.1273979 0.1493399 0.013430222 0.08174419 -0.069133535 0.08323102
-0.09370089 -0.043846387 0.05047455 0.08972964 0.095118694 0.07156434 0.1382999 0.0783751
-0.051172376 -0.05936709 0.15993086 -0.03361208 0.10556227 -0.14438483 0.06740091 -0.09602741
00000000: 46c0 6cbb c4dc ae3b 4867 91bc 701d 873d
00000010: 2b70 8abd 6187 da3b f06c 9c3d 9f5a 343d
00000020: 9d3c d53d a877 25be cb90 fcbd 7d3c 173e
00000030: 8a50 dabd 9051 273d b93f babd ff67 ddbc
00000040: 4ee5 6d3d 7597 eabd 9c13 72bd f36f fe3c
00000050: 48ce 7e3d 3524 a13d d5bd 98bd 5035 dbbd
00000060: cf72 a43d 548b 87bd 73ac 90bc ef39 8a3e
00000070: 069f aabd ff3d bb3c 8ba8 3b3d a748 dabd
00000080: 52f8 20be d057 2dbd 18ae 623c cd33 65bc
00000090: ad9f a7bd a469 22bd ce57 dabd f3ec c0bd
000000a0: 9e09 0ebe 842e 583d be90 ff3d 074e 61bc
000000b0: d0cf bfbc f5fb fa3c 054c bb3c fe73 01bd
000000c0: b569 1e3d 463f 873c b617 22bd 5bce 90bd
000000d0: a7d8 f53d 0891 173d 992c c5bd e77d 523d
000000e0: 6074 553d c640 f7bd 04a3 823d a6ed 00be
000000f0: 6c0b a13d 89e6 c9bd d8a2 2a3d 3ff2 183e
00000100: 3792 0ebd 3dc5 193e e8d9 2fbd 7533 28bd
00000110: 54e2 94bd 3237 863c 5806 f4bd 28b2 243b
00000120: c325 88bd 77bf ba3d 6efa 093e 06df a93c
00000130: 90e3 bdbd 2129 f6bc b8d5 00be 845f f93d
00000140: 09a6 dfbc e81b 423d b83d 283d 0e60 05bd
00000150: fc81 c93c fe38 623d 00d8 353d 6cb7 5cbd
00000160: 4ea6 b8bd 9a4d 60be 95f4 0abe 044e 7cbd
00000170: 4678 eabc 34bf 413d 498a 343d 7da9 9abd
00000180: 5436 8cbd 056f 10bd e47d 8ebd 6bfa 013e
00000190: 4928 8abc 8233 323e 6921 dcbc 460f 89bd
000001a0: 93d8 2fbe fea7 9cba 43c3 923d 5bf3 05be
000001b0: 4cf6 ccbd 0f48 3d3d d618 523d 2910 973d
000001c0: 3173 c0bd 6a60 73bd 2701 4dbd 6fc1 b03c
000001d0: 2b07 143c 47f9 b6bd 3489 f9bd 4b0d c33d
000001e0: 4491 58bd 4dd6 a43c caba 8f3d 3c81 8e3d
000001f0: 7cb2 a63d 77cd 5cbe 0088 3b3c 4ab3 0ebd
00000200: af04 91bd 843a a8bd 5e57 23bc 4f74 cdbc
00000210: b4d7 b3bd 7575 8fbd 9463 a8bd 24cf dc3d
00000220: 7c5b cdbb 045a e8bd f96e 2ebe 99c4 76bd
00000230: 4a5e dcbd d65a e2bc ba51 a13d 47d4 953d
00000240: 1b87 fbbc b9c5 e4bc 47bd b53c b649 c03d
00000250: d062 043e f893 ca3a cde0 513d 1233 543b
00000260: c4b4 a2bd d009 e2bd f32b 223d 8963 cfbd
00000270: 2e35 033e be51 ebbd 6941 29be b664 e5bd
00000280: a0c8 dc3c c362 cdbd 7c84 4bbe 87ff 5b3d
00000290: 3f8f 333d 9c4c aabc bde5 07ba 40f2 1c3d
000002a0: 5886 c7bb 3f92 213e 9364 e43c d9fc e03c
000002b0: 90db aabc a7f0 d8bd f453 c33d de10 103d
000002c0: 9e6f 94bd 68ed d93d b1a8 8d3d 5ad5 823d
000002d0: b68a 0bbe 28bf b7bd 5a68 193b 2ac5 973d
000002e0: 4812 8c3c 319f 53bd 2b50 c13d babe 4c3d
000002f0: 68b7 013d 98b7 97bd 6c81 a5bc 597e 16bc
00000300: e057 5dbd 6749 e03d 5c4e 0a3c f5d6 cebd
00000310: a6e1 60bd 8aa0 c3bd c774 85bc 8b8f 2cbc
00000320: 7f81 ba3d d6be 80bd 959d 30bd 45d5 e4bc
00000330: 336a bd3d 9ab1 87bc 5b32 9a3d f883 1a3e
00000340: 5f1c b9bd 5f09 fe3d dc62 0fbd 3b2f 98bd
00000350: fbaa b8bd 7685 d83d 575f 27bb c4f3 b03c
00000360: aff8 efbb e385 963d 5bb7 b2bd ab48 19be
00000370: 5345 0f3d ef0c 90bc 4e3b 1ebc 9025 9ebd
00000380: 1542 87bb c844 85bc de0c 6d3d 1a2d 11be
00000390: b721 743d 77b6 01bc b4e0 b63d 158f 213e
000003a0: cad9 86bd 4f7b 093e 9874 02be 8fec 183e
000003b0: 6f0a 5c3c 7f69 a73d e295 8dbd 0675 aa3d
000003c0: 41e6 bfbd 4598 33bd 67be 4e3d 2cc4 b73d
000003d0: 97cd c23d 5390 923d 7d9e 0d3e 2083 a03d
000003e0: 209a 51bd e82a 73bd eac4 233e d2ac 09bd
000003f0: 0831 d83d 9ed9 13be 7d09 8a3d 05aa c4bd

bias f4 [64]
-0.16481455 -0.044002272 -0.07704465 0.069370024 -0.01570269 -0.060720798 0.018729946 0.007274935
0.015582213 0.08534344 -0.07822832 0.046011224 0.039610982 -0.07645558 0.010198191 -0.07503754
-0.011395424 -0.07635545 -0.14083217 0.09002564 0.112487644 0.012280571 -0.07610216 0.1081905
-0.01343017 -0.06662137 -0.07770415 0.02309758 -0.055009644 0.060328003 -0.102791615 -0.039273128
-0.13847953 -0.06100458 -0.12535706 -0.05768895 0.16124526 -0.005842612 -0.09448557 0.16093631
0.045140166 -0.08656359 -0.084149696 0.026914906 -0.056208607 0.006936267 -0.12262501 -0.09370538
0.059927568 -0.013904024 0.029330302 -0.0012201922 -0.10152869 0.11770481 0.009435572 0.09662051
-0.0035184305 -0.02375331 -0.045996007 -0.088413455 0.022436425 0.054940827 -0.061256167 -0.10132159
00000000: 25c5 28be ba3b 34bd 96c9 9dbd df11 8e3d
00000010: eea2 80bc 5fb6 78bd 8b6f 993c 9462 ee3b
00000020: 8a4c 7f3c 8bc8 ae3d 2b36 a0bd 4476 3c3d
00000030: 203f 223d be94 9cbd 5016 273c 48ad 99bd
00000040: dfb3 3abc 3f60 9cbd 4f36 10be 5d5f b83d
00000050: ec5f e63d 7334 493c 73db 9bbd fb92 dd3d
00000060: 370a 5cbc c970 88bd 5a23 9fbd 2337 bd3c
00000070: cb51 61bd 7f1a 773d 6984 d2bd dcdc 20bd
00000080: 94cd 0dbe f0df 79bd 9a5d 00be 404b 6cbd
00000090: 7a1d 253e 6273 bfbb a781 c1bd 7dcc 243e
000000a0: e5e4 383d 4048 b1bd ad56 acbd a67c dc3c
000000b0: ff3a 66bd a049 e33b d222 fbbd 9be8 bfbd
000000c0: 9c76 753d b4cd 63bc 1a46 f03c dbee 9fba
000000d0: 46ee cfbd 380f f13d a897 1a3c f9e0 c53d
000000e0: 7895 66bb 4d96 c2bc 4f66 3cbd 1d12 b5bd
000000f0: 98cc b73c a209 613d bfe7 7abd b281 cfbd

weight f4 [64, 64]
-0.03941023 0.006279179 0.10219422 0.1735707 -0.03784417 0.024072666 -0.41147757 -0.14559896
0.009951242 0.0020617151 0.037489865 0.046662938 -0.054475155 -0.002340931 0.049289845 -0.12347138
0.029697025 -0.2575798 -0.038460337 -0.055591684 -0.026124608 -0.0911768 -0.059555337 -0.22005497
0.1604115 0.12079185 -0.3993693 -0.092735484 0.11056814 -0.17559224 -0.03744377 0.05286016
-0.079243034 0.16904728 0.06897363 -0.30365843 0.2565881 0.11310083 0.25167254 0.21040606
-0.04577982 0.2317586 -0.011054962 -0.2445126 0.015843596 0.1669853 -0.090626836 0.028214091
0.029268395 0.075518094 -0.1592328 -0.06502896 0.042876385 0.06932414 -0.05192582 0.054634187
0.122394815 0.035571303 0.06368143 0.17511517 -0.04912103 0.21898086 0.070860036 0.2838774
0.023881534 -0.19482204 0.25260177 0.07263982 -0.03343506 0.018501075 0.18302801 0.046538815
0.16638768 -0.044593867 0.0087200245 -0.060220685 -0.11710466 0.19979125 -0.037526913 0.0028384405
0.08372478 0.21255068 -0.25367692 -0.03948435 -0.13989608 -0.046948332 -0.076719254 -0.16255587
-0.044185087 -0.1496096 0.15105319 -0.24910358 0.04779461 -0.14713925 0.0039631054 -0.0861147
-0.2589356 0.121040635 -0.1798662 0.0058636186 0.16192141 0.24520963 0.07722103 -0.043757502
0.12553704 0.005912239 0.23699017 0.075228624 -0.107879885 -0.12405504 -0.056834508 0.07148993
0.32326335 0.13738309 0.0880475 -0.11755545 0.10316715 0.19204853 0.20199919 0.27649534
-0.17626119 0.030572655 -0.14186163 0.20683375 -0.25020126 0.055080812 -0.09290753 -0.14329602
-0.070661634 0.11236724 0.13068664 -0.08376513 -0.26509285 -0.07983423 -0.066582374 0.27904305
-0.02666341 0.38357803 0.045467604 -0.011125334 -0.028967647 -0.08392415 0.03725348 -0.16272381
0.010989045 -0.13266312 0.039784 0.041142445 -0.010258975 -0.1429433 -0.061646778 0.47593245
-0.04492168 -0.021066064 0.044585515 0.038107365 0.06978297 0.08263777 -0.095703185 -0.19106764
-0.0043944204 0.11619908 -0.09035767 0.2241004 -0.22881292 0.037734758 -0.09145238 -0.0517735
-0.18322086 -0.12629989 -0.097086884 0.0155331595 -0.14487302 0.062427066 -0.23028806 0.031145286
-0.05388888 -0.23782581 0.10514533 -0.15958066 0.020598106 -0.00898956 0.021725195 -0.07442659
0.12150841 -0.23195504 0.022822106 -0.0064832447 0.016321195 -0.09208545 0.054035403 -0.20031172
-0.10686042 0.16055882 0.15577884 0.023030438 -0.10325382 -0.16289645 -0.071593516 -0.043754168
0.03236892 -0.1670372 0.056357995 0.30430037 -0.08881739 -0.09247516 0.08345961 -0.16098854
-0.022535913 -0.024687814 0.008492842 -0.072020695 0.0046102093 0.05717753 -0.085817836 -0.01611131
-0.26122293 0.19877195 0.21342623 0.15554775 -0.007096574 -0.12793629 0.21182162 -0.017726632
0.0380801 0.09947004 0.073078796 -0.2708162 -0.07784703 -0.27315962 -0.101942874 0.0658824
0.04179002 0.08780194 -0.07354844 0.019399876 0.14163457 0.11845933 0.06150828 0.18671976
0.07478904 0.22682193 -0.037868854 0.0455228 0.016750278 0.11833882 0.25781894 0.17251794
-0.026903626 -0.024234857 0.007885425 -0.12900792 0.10016841 0.003019035 0.09196479 0.12528533
00000000: 9f6c 21bd 92c1 cd3b 344b d13d 85bc 313e
00000010: 7d02 1bbd 0a34 c53c 30ad d2be e517 15be
00000020: 890a 233c d71d 073b f98e 193d a321 3f3d
00000030: 5721 5fbd 4e6a 19bb 26e4 493d 90de fcbd
00000040: 2d47 f33c 80e1 83be 9688 1dbd 1bb4 63bd
00000050: 4603 d6bc e7ba babd 4cf0 73bd 1756 61be
00000060: ea42 243e b861 f73d 227a ccbe 1aec bdbd
00000070: 8d71 e23d 74ce 33be a35e 19bd e583 583d
00000080: 2c4a a2bd bb1a 2d3e 0c42 8d3d 1e79 9bbe
00000090: 845f 833e 68a1 e73d 39db 803e b074 573e
000000a0: 9f83 3bbd 2052 6d3e df1f 35bc 8361 7abe
000000b0: 6eca 813c 32fe 2a3e 909a b9bd 3d21 e73c
000000c0: 46c4 ef3c 3ba9 9a3d ec0d 23be e72d 85bd
000000d0: 269f 2f3d d1f9 8d3d 2bb0 54bd 19c8 5f3d
000000e0: 22aa fa3d 37b3 113d 696b 823d 6451 333e
000000f0: 2233 49bd 853c 603e 111f 913d 6158 913e
00000100: 35a3 c33c 6e7f 47be 0555 813e 30c4 943d
00000110: 34f3 08bd 918f 973c b26b 3b3e 7c9f 3e3d
00000120: 8861 2a3e 0fa8 36bd 6fde 0e3c f7a9 76bd
00000130: 91d4 efbd 1496 4c3e d2b5 19bd 2105 3a3b
00000140: e677 ab3d e3a6 593e f1e1 81be 57ba 21bd
00000150: eb40 0fbe e54c 40bd fc1e 9dbd 0c75 26be
00000160: 6cfb 34bd 4233 19be b0ad 1a3e 0215 7fbe
00000170: 48c4 433d acab 16be f0dc 813b e75c b0bd
00000180: 3593 84be 27e4 f73d d82e 38be 9923 c03b
00000190: bace 253e 3c18 7b3e 0f26 9e3d 113b 33bd
000001a0: c88c 003e 75bb c13b 8dad 723e 7711 9a3d
000001b0: 21f0 dcbd 9210 febd 4dcb 68bd 5069 923d
000001c0: c682 a53e 27ae 0c3e 3f52 b43d e9c0 f0bd
000001d0: 4c49 d33d 5fa8 443e e0d8 4e3e cc90 8d3e
000001e0: d07d 34be 8173 fa3c 2d44 11be 3acc 533e
000001f0: 611a 80be 6b9c 613d 4e46 bebd 31bc 12be
00000200: 0cb7 90bd cc20 e63d b8d2 053e 0d8d abbd
00000210: 40ba 87be 2180 a3bd 575c 88bd bbde 8e3e
00000220: 396d dabc 5764 c43e 3d3c 3a3d 0847 36bc
00000230: 8f4d edbc 6de0 abbd 1b97 183d 12a1 26be
00000240: 650b 343c d7d8 07be 8cf4 223d fb84 283d
00000250: 4315 28bc ba5f 12be 5581 7cbd 6bad f33e
00000260: ccff 37bd bd92 acbc 4d9f 363d 7816 1c3d
00000270: 60ea 8e3d fe3d a93d 0800 c4bd 3ca7 43be
00000280: 12ff 8fbb c9f9 ed3d 710d b9bd 937a 653e
00000290: ef4d 6abe c38f 1a3d 634b bbbd 7310 54bd
000002a0: 409e 3bbe c254 01be 7dd5 c6bd cb7e 7e3c
000002b0: 9859 14be 86b3 7f3d a2d0 6bbe 6624 ff3c
000002c0: 96ba 5cbd 9c88 73be 6f56 d73d 1d69 23be
000002d0: 5cbd a83c f348 13bc 09f9 b13c f86c 98bd
000002e0: 67d9 f83d 9f85 6dbe 6df5 ba3c 6671 d4bb
000002f0: 07b4 853c 4c97 bcbd 3a54 5d3d 841e 4dbe
00000300: a3d9 dabd 8869 243e 7d84 1f3e 54aa bc3c
00000310: bd76 d3bd 54ce 26be 9f9f 92bd 9237 33bd
00000320: 4695 043d cd0b 2bbe a4d7 663d 42cd 9b3e
00000330: e4e5 b5bd 9e63 bdbd dfec aa3d 2eda 24be
00000340: 3c9d b8bc 193e cabc 9025 0b3c 967f 93bd
00000350: 3d11 973b fc32 6a3d 43c1 afbd defb 83bc
00000360: 03bf 85be e08a 4b3e 688c 5a3e e947 1f3e
00000370: 618a e8bb bb01 03be c4e7 583e 7137 91bc
00000380: e1f9 1b3d f3b6 cb3d 56aa 953d 6ca8 8abe
00000390: 436e 9fbd 94db 8bbe 6dc7 d0bd 5aed 863d
000003a0: 032c 2b3d 81d1 b33d 91a0 96bd 7dec 9e3c
000003b0: a708 113e ce9a f23d 1bf0 7b3d 7733 3f3e
000003c0: ff2a 993d 0244 683e 5f1c 1bbd 1e76 3a3d
000003d0: e137 893c a05b f23d d800 843e 8ba8 303e
000003e0: fe64 dcbc 2e88 c6bc df31 013c a71a 04be
000003f0: 1825 cd3d 01db 453b 0958 bc3d cc4a 003e

bias f4 [64]
0.026923772 0.016769731 -0.012339117 0.06996588 -0.0054657864 0.010274746 0.0050867503 -0.041074462
-0.019312114 0.0045011635 0.013160924 0.058568954 -0.057308137 0.011314462 -0.058173843 -0.023847854
-0.06556724 0.050138023 0.008056105 -0.014687317 -0.03248031 -0.0040665916 -0.0011813738 0.037443507
0.10870573 0.05207311 -0.025423842 0.09042757 -0.004655874 0.03802054 0.05037794 0.062783755
-0.004832584 -0.0308777 -0.031511106 -0.029133163 0.031315416 -0.070750356 -0.01946667 -0.01661164
-0.032409817 0.1091966 0.0015327295 0.0035096633 0.013036823 -0.10415342 -0.024174483 -0.016945532
0.039529864 -0.0076790885 -0.023220178 0.034922253 0.058938358 0.039210234 -0.08701241 -0.01543975
-0.006901736 0.050069235 0.020762498 0.02952448 -0.070493564 0.060797837 -0.048865885 0.03185467
00000000: 3e8f dc3c ad60 893c 022a 4abc 454a 8f3d
00000010: 571a b3bb 6957 283c c1ae a63b b23d 28bd
00000020: 7034 9ebc 7f7e 933b eba0 573c 00e6 6f3d
00000030: f0bb 6abd 4b60 393c b247 6ebd 935c c3bc
00000040: 1e48 86bd 875d 4d3d c1fd 033c 13a3 70bc
00000050: 130a 05bd 0b41 85bb 54d8 9aba 5d5e 193d
00000060: 1ca1 de3d 9d4a 553d a945 d0bc 1732 b93d
00000070: 4d90 98bb 6dbb 1b3d 1959 4e3d c594 803d
00000080: a75a 9ebb 3bf3 fcbc ca11 01bd aca8 eebc
00000090: 9844 003d 90e5 90bd 9178 9fbc 2215 88bc
000000a0: 28c0 04bd 78a2 df3d dee5 c83a 6102 663b
000000b0: 6698 553c 634e d5bd 9109 c6bc 5bd1 8abc
000000c0: 11ea 213d dda0 fbbb 3e38 bebc a30a 0f3d
000000d0: 5969 713d e99a 203d 9033 b2bd 01f7 7cbc
000000e0: f527 e2bb 6615 4d3d 1d16 aa3c 53dd f13c
000000f0: ee5e 90bd 2707 793d 9827 48bd 0b7a 023d

weight f4 [7, 64]
-0.21538514 -0.028361304 -0.15826917 0.17140225 0.10610803 -0.064636596 -0.32629985 -0.34712136
0.072315335 -0.044522192 0.12651327 -0.03666837 -0.10134245 0.15069148 -0.096903935 0.1576419
-0.049851645 0.035250187 -0.12983155 -0.37246266 -0.062454186 0.21874219 0.0007359622 -0.09611505
-0.057408348 -0.004956163 0.26934305 0.14618081 0.03841254 0.25766408 -0.11654635 0.14365178
0.14907192 -0.027993862 -0.15212718 -0.060215507 0.012963301 0.00020389858 0.25087142 -0.032305147
-0.037395626 -0.09477695 0.04780136 0.05115374 -0.1886921 -0.045861777 -0.1154844 -0.188147
0.29213038 0.20385009 -0.13998966 -0.033876784 0.18298347 0.071196854 -0.279622 0.09507594
-0.28635064 0.28307 -0.20719704 -0.013546763 0.047883954 0.09383922 -0.2117806 0.08113988
0.05100808 0.34711325 0.034182966 -0.10820292 0.11778744 -0.18889917 -0.32465562 -0.20200384
0.0765525 -0.05937071 -0.11496128 0.26017 -0.19272113 0.13959537 -0.26702136 -0.09202197
-0.013180435 0.2966941 0.1858077 0.114502996 0.08212141 0.009641366 0.14710155 -0.16575189
0.077996984 -0.16841196 -0.19599095 0.031482328 0.058776006 0.29989517 0.063328035 0.073008075
-0.04471542 -0.12815583 -0.041468192 -0.076627925 0.0674513 -0.00281082 0.12084152 0.04733419
-0.23029746 0.06571044 0.03178685 -0.054115266 -0.25209153 -0.11138003 -0.19063222 -0.107329026
0.08677945 -0.20897987 0.20184493 0.061858475 0.1490051 0.047710475 -0.06566665 0.03761479
-0.106355146 -0.17223123 0.1977258 -0.012326753 0.10500703 -0.049923275 -0.21419111 0.24527769
-0.37848002 -0.21736304 0.16773559 -0.14676575 0.0035941403 -0.61043406 0.31714302 -0.11469488
-0.17338341 0.23982096 -0.049613412 -0.3703302 0.077932134 -0.015631562 -0.012418463 0.0040665213
-0.09557955 0.007653344 0.010079639 0.4189712 -0.11369472 -0.20439167 0.05474412 0.049332306
-0.06601543 -0.0976056 -0.34230655 0.018010715 0.050985172 -0.33730823 -0.15395114 -0.065340005
-0.14116248 0.17048694 0.38292387 -0.11011364 -0.11161919 -0.21165766 -0.31643796 -0.11315841
-0.06017326 -0.121617995 -0.20177312 0.1698416 0.50466466 0.115392685 -0.026589936 0.41140732
-0.46899727 0.14498207 0.044317983 0.13267058 0.12449619 -0.34851792 -0.06691063 -0.12038481
0.107600436 0.21278584 0.1957755 0.1599845 0.31066415 -0.07584032 -0.069412194 0.37321782
-0.030277297 0.049817372 -0.08602715 -0.22781031 0.035428215 0.05190525 -0.21864529 -0.031149678
0.043606617 -0.016609326 0.094364166 0.020463422 -0.0945925 -0.12544243 -0.15368102 0.20469242
0.039747503 -0.104838185 -0.019579023 -0.034751907 -0.0062657734 0.26016796 -0.05344049 -0.24939516
-0.015425787 -0.11151989 -0.1219202 0.2732863 -0.10425219 -0.083375156 -0.043747693 -0.16691205
0.0947692 0.13145272 0.0628351 -0.25114346 0.020453412 0.11353569 0.00595387 0.08562262
0.13596544 0.004993586 -0.21863858 0.13836724 -0.06565612 -0.08473958 0.003319224 -0.06596527
-0.13350174 -0.27780214 -0.18604551 0.26773092 0.1780699 -0.052104548 -0.13065107 0.009422067
0.043845955 -0.17940857 0.06298028 -0.06740178 -0.080359995 -0.02931738 -0.031152615 0.16346939
00000000: ec8d 5cbe f755 e8bc 5011 22be 1284 2f3e
00000010: 2b4f d93d 3160 84bd c610 a7be e4b9 b1be
00000020: 101a 943d e75c 36bd b28c 013e 9331 16bd
00000030: a18c cfbd de4e 1a3e 9275 c6bd e16c 213e
00000040: 3d31 4cbd 8062 103d 90f2 04be 6db3 bebe
00000050: f6cf 7fbd f4fd 5f3e 96ed 403a f8d7 c4bd
00000060: 0425 6bbd 4f67 a2bb 55e7 893e 6cb0 153e
00000070: 7856 1d3d 8cec 833e daaf eebd 7419 133e
00000080: 4fa6 183e 6253 e5bc 3ac7 1bbe 89a4 76bd
00000090: 0664 543c 9ccd 5539 3872 803e 6752 04bd
000000a0: 282c 19bd 6b1a c2bd 5ccb 433d 9686 513d
000000b0: 8038 41be 8fd9 3bbd 1683 ecbd 9ba9 40be
000000c0: 1d92 953e 14be 503e 7359 0fbe 62c2 0abd
000000d0: 0560 3b3e a8cf 913d 9d2a 8fbe 2db7 c23d
000000e0: 8d9c 92be 8dee 903e 762b 54be 3ef3 5dbc
000000f0: f721 443d c72e c03d 03dd 58be aa2c a63d
00000100: d9ed 503d d4b8 b13e 7003 0c3d 7e99 ddbd
00000110: 8b3a f13d c96e 41be 4339 a6be 18da 4ebe
00000120: 8fc7 9c3d b42e 73bd d270 ebbd 0135 853e
00000130: b058 45be 17f2 0e3e 06b7 88be 0476 bcbd
00000140: c0f2 57bc 4ae8 973e 6044 3e3e 8c80 ea3d
00000150: 452f a83d d2f6 1d3c caa1 163e ddba 29be
00000160: e2bc 9f3d 2f74 2cbe dab1 48be 9df3 003d
00000170: 1cbf 703d dc8b 993e 21b2 813d 4285 953d
00000180: 8427 37bd 483b 03be 8dda 29bd 1aef 9cbd
00000190: e823 8a3d bc35 38bb c27b f73d 7fe1 413d
000001a0: 19d3 6bbe 3293 863d ee32 023d f8a7 5dbd
000001b0: 2412 81be 371b e4bd 1835 43be 52cf dbbd
000001c0: 6db9 b13d d2fe 55be 70b0 4e3e 505f 7d3d
000001d0: cb94 183e 0f6c 433d 3d7c 86bd f711 1a3d
000001e0: bad0 d9bd 625d 30be a278 4a3e 26f6 49bc
000001f0: ed0d d73d 597c 4cbd ea54 5bbe 132a 7b3e
00000200: 22c8 c1be 6b94 5ebe e1c2 2b3e c349 16be
00000210: ab8b 6b3b 6845 1cbf 9260 a23e 26e5 eabd
00000220: 6c8b 31be a093 753e 6f37 4bbd ec9b bdbe
00000230: e29a 9f3d c30d 80bc cf76 4bbc 7440 853b
00000240: 36bf c3bd e7c8 fa3b 1225 253c 6583 d63e
00000250: c7d8 e8bd 0d4c 51be 5f3b 603d ac10 4a3d
00000260: 1933 87bd 72e5 c7bd ce42 afbe 358b 933c
00000270: d4d5 503d aab3 acbe 5ea5 1dbe fbd0 85bd
00000280: e68c 10be 2194 2e3e 990e c43e 4383 e1bd
00000290: 9a98 e4bd c9bc 58be 2804 a2be 99bf e7bd
000002a0: 3c78 76bd db12 f9bd 9d9d 4ebe f5ea 2d3e
000002b0: b431 013f 0053 ec3d 23d3 d9bc fba3 d23e
000002c0: 6920 f0be 2e76 143e c686 353d ccda 073e
000002d0: dcf7 fe3d f170 b2be 7108 89bd 508c f6bd
000002e0: 9e5d dc3d 88e4 593e 5f79 483e fad2 233e
000002f0: 5f0f 9f3e 2b52 9bbd fb27 8ebd 6816 bf3e
00000300: 1808 f8bc 4d0d 4c3d 012f b0bd 1b47 69be
00000310: 2d1d 113d 999a 543d 8de4 5fbe 9c2d ffbc
00000320: da9c 323d 4810 88bc 0042 c13d e8a2 a73c
00000330: b6b9 c1bd fb73 00be 8f5e 1dbe e49a 513e
00000340: 47ce 223d 67b5 d6bd 3064 a0bc 0458 0ebd
00000350: 1e51 cdbb bc34 853e 6ae4 5abd 7261 7fbe
00000360: 71bc 7cbc 8a64 e4bd 4cb1 f9bd 2fec 8b3e
00000370: 2c82 d5bd 98c0 aabd c830 33bd feea 2abe
00000380: 5b16 c23d 8b9b 063e b0af 803d e095 80be
00000390: ea8d a73c 6685 e83d ae18 c33b ea5a af3d
000003a0: 863a 0b3e 3ca1 a33b cbe2 5fbe 24b0 0d3e
000003b0: b776 86bd f28b adbd 5787 593b cd18 87bd
000003c0: aeb4 08be 153c 8ebe b782 3ebe 0714 893e
000003d0: f557 363e 946b 55bd 65c9 05be 035f 1a3c
000003e0: d197 333d e1b6 37be cefb 803d f209 8abd
000003f0: c893 a4bd 012b f0bc c533 ffbc 8564 273e

bias f4 [7]
0.06676547 0.047521465 -0.020137178 0.020158535 0.022521326 -0.1812451 -0.027278531
00000000: 56bc 883d dea5 423d b9f6 a4bc 8323 a53c
00000010: a57e b83c 5198 39be 3a77 dfbc

weight f4 [64, 64]
-0.018704507 -0.2449476 0.09726317 -0.16424751 -0.0538385 -0.028403973 -0.28444764 -0.10472309
-0.13267738 -0.2554416 0.22270623 0.08307371 -0.30465516 -0.0717598 0.001277726 -0.17867444
-0.14403416 0.017135452 0.020357113 -0.07823105 0.17417334 -0.2560579 0.03690601 -0.26638386
-0.07407964 -0.34531668 -0.12702145 -0.022236593 -0.14784968 0.07180557 0.017258452 -0.061393883
-0.12006411 -0.004510656 -0.10914823 0.019194154 0.003495502 -0.23450512 0.14424957 -0.06139908
-0.18880704 -0.18024592 0.047260515 -0.036968336 0.08286783 0.078783795 -0.0077062016 -0.010724777
-0.029101927 0.14978597 -0.013674446 -0.03217136 -0.025286682 -0.14758803 -0.1361304 -0.2682208
-0.27044186 0.071966596 -0.066084564 0.15024655 -0.13207638 0.0021058768 -0.031279143 -0.06845011
0.10826467 0.04930784 0.13923474 -0.17701608 0.07359679 -0.13881555 -0.17914537 -0.027433231
0.08091193 -0.06901891 -0.09850328 -0.07766026 -0.14264512 0.12264485 -0.09285573 -0.0799377
0.08856337 -0.03936003 -0.097010456 0.074487284 -0.25745067 0.09530215 -0.03519961 -0.034494497
-0.03816613 0.013853064 0.16132551 0.18870223 0.17089142 -0.12003061 -0.10231199 0.025069196
-0.22251885 0.12897114 0.27728826 0.034923382 0.08167676 0.15268734 -0.13483602 -0.05954359
0.036948077 -0.024325151 0.11725038 -0.14235647 -0.121399745 -0.13201866 -0.05725884 0.13511837
0.051738504 0.08674803 0.12070775 -0.071866736 -0.17700236 -0.071638614 0.10172945 -0.14207028
-0.058881767 -0.42835683 -0.0625154 0.11941884 0.016120931 -0.12899356 0.11370141 0.13236699
0.12365701 -0.065264925 0.1221544 0.29686636 0.17110205 0.035924353 -0.15083767 0.0571781
-0.035346005 -0.12964937 0.2155974 0.03286889 0.20936784 0.20245107 -0.13827498 0.13759671
-0.0076853065 -0.14765131 0.0030307632 -0.10831546 -0.16861413 0.074413076 -0.0091868015 -0.104130864
0.055658616 0.0337742 0.09222819 -0.036336433 -0.21848427 -0.106914744 0.04842543 0.019293765
-0.16960062 0.052586924 -0.2564122 -0.043090783 -0.009493402 0.14608115 0.0002897976 -0.29729927
-0.048273932 -0.017460482 -0.12122787 -0.1112369 0.12734015 -0.12195087 0.28702196 -0.1148617
0.10022768 -0.13749085 -0.10250236 0.22093944 0.13026628 0.0038735075 0.1552661 -0.14686006
-0.3627668 0.14167817 -0.0010188149 -0.027811715 -0.04045526 0.14855333 0.11147401 -0.05083519
0.08545739 -0.0045610503 -0.04126851 -0.005215306 -0.03239424 0.13016483 -0.11506823 -0.025861075
-0.097924255 -0.05619225 -0.16015218 0.06706939 -0.17269224 0.04333895 -0.23829585 -0.13534959
0.33796546 -0.04161877 -0.16137345 0.0068543213 -0.07904788 0.056109156 0.054923676 0.11426555
-0.026033409 0.24913934 -0.23782247 -0.03190674 -0.074267395 -0.15478869 0.04998467 -0.0955289
-0.11322822 -0.057031427 -0.10696379 -0.12897712 0.019761307 -0.076720625 -0.03326357 0.094273284
-0.21972902 0.051333882 0.37933746 -0.09023788 0.097876444 0.31236124 0.160172 0.13673192
-0.17493154 0.29093036 -0.19141881 0.41580233 -0.14266978 -0.086541824 0.038210947 0.07660554
-0.015899088 -0.106604286 -0.18774135 0.039070807 -0.124580644 -0.19667563 0.07719384 0.12329808
00000000: 323a 99bc 8bd3 7abe ea31 c73d 8030 28be
00000010: c285 5cbd 73af e8bc 1fa3 91be 0f79 d6bd
00000020: 94dc 07be 3ec9 82be 1a0d 643e 8d22 aa3d
00000030: c3fb 9bbe cdf6 92bd 5f79 a73a 6ff6 36be
00000040: b17d 13be a65f 8c3c f6c3 a63c 9a37 a0bd
00000050: 7f5a 323e 051a 83be c22a 173d 7763 88be
00000060: 11b7 97bd 59cd b0be e911 02be 8429 b6bc
00000070: e865 17be cc0e 933d 9961 8d3c 2778 7bbd
00000080: 2ce4 f5bd 20ce 93bb 1b89 dfbd 0f3d 9d3c
00000090: cb14 653b 1c22 70be 29b6 133e 9a7d 7bbd
000000a0: a256 41be 6392 38be 3e94 413d 1c6c 17bd
000000b0: 9cb6 a93d 6659 a13d 4e84 fcbb fab6 2fbc
000000c0: 2a67 eebc 7e61 193e c90a 60bc 1ec6 03bd
000000d0: 0426 cfbc 5121 17be c465 0bbe 3d54 89be
000000e0: 5b77 8abe 3963 933d 5857 87bd 3bda 193e
000000f0: 083f 07be c002 0a3b 8f1e 00bd 922f 8cbd
00000100: deb9 dd3d 05f7 493d 8d93 0e3e b443 35be
00000110: eab9 963d aa25 0ebe e271 37be a8bb e0bc
00000120: 27b5 a53d c959 8dbd 16bc c9bd 580c 9fbd
00000130: 9011 12be 392d fb3d 252b bebd 60b6 a3bd
00000140: b660 b53d fc37 21bd 6bad c6bd ca8c 983d
00000150: 93d0 83be c62d c33d 772d 10bd 1a4a 0dbd
00000160: 1754 1cbd f6f7 623c 8432 253e 283b 413e
00000170: 29fe 2e3e 9cd2 f5bd f388 d1bd ea5d cd3c
00000180: fbdb 63be 0311 043e baf8 8d3e d20b 0f3d
00000190: 2546 a73d 125a 1c3e 7412 0abe fbe3 73bd
000001a0: de56 173d 8a45 c7bc f820 f03d e5c5 11be
000001b0: 6ea0 f8bd e62f 07be 3f88 6abd 785c 0a3e
000001c0: c1eb 533d f3a8 b13d a035 f73d de2e 93bd
000001d0: 1b40 35be 44b7 92bd 8857 d03d df7a 11be
000001e0: 022e 71bd 9651 dbbe 1308 80bd dd91 f43d
000001f0: 0b10 843c e316 04be 49dc e83d 368b 073e
00000200: e33f fd3d 9ea9 85bd 162c fa3d defe 973e
00000210: 6035 2f3e 6a25 133d 3175 1abe 9533 6a3d
00000220: f9c6 10bd cec2 04be 91c5 5c3e 87a1 063d
00000230: 8664 563e 554f 4f3e f597 0dbe 27e6 0c3e
00000240: 06d5 fbbb e831 17be c59f 463b 7fd4 ddbd
00000250: 2fa9 2cbe e265 983d 3d84 16bc 9042 d5bd
00000260: 4afa 633d d156 0a3d 22e2 bc3d 83d5 14bd
00000270: 57ba 5fbe 1ef6 dabd be59 463d f50d 9e3c
00000280: c9ab 2dbe 6365 573d 7648 83be f67f 30bd
00000290: 378a 1bbc 4c96 153e faef 9739 9c37 98be
000002a0: e3ba 45bd 4909 8fbc 5146 f8bd 2cd0 e3bd
000002b0: 7565 023e 61c1 f9bd 8bf4 923e 9c3c ebbd
000002c0: 2b44 cd3d 67ca 0cbe c2ec d1bd f33d 623e
000002d0: 8664 053e acda 7d3b 14fe 1e3e 7c62 16be
000002e0: 92bc b9be 1514 113e c189 85ba 65d5 e3bc
000002f0: 6ab4 25bd 5d1e 183e 7c4c e43d 8f38 50bd
00000300: 4904 af3d dd74 95bb 2b09 29bd 28e5 aabb
00000310: d3af 04bd ee49 053e e4a8 ebbd 9bda d3bc
00000320: 838c c8bd d829 66bd effe 23be ad5b 893d
00000330: 3cd6 30be 2f84 313d d403 74be 1599 0abe
00000340: cf09 ad3e 7278 2abd 153f 25be 379a e03b
00000350: dbe3 a1bd b7d2 653d a6f7 603d 0f04 ea3d
00000360: 0444 d5bc 621e 7f3e bc87 73be a4b0 02bd
00000370: 8119 98bd ed80 1ebe babc 4c3d a8a4 c3bd
00000380: 32e4 e7bd c999 69bd d50f dbbd 9412 04be
00000390: 77e2 a13c b41f 9dbd 623f 08bd 5a12 c13d
000003a0: a500 61be 7a43 523d 8538 c23e a3ce b8bd
000003b0: 7273 c83d d0ed 9f3e 2104 243e 7403 0c3e
000003c0: 4121 33be d3f4 943e 4b03 44be 0be4 d43e
000003d0: 0718 12be d73c b1bd 1583 1c3d 5ee3 9c3d
000003e0: ce3e 82bc 5953 dabd 453f 40be b608 203d
000003f0: 2324 ffbd 5665 49be ce17 9e3d b483 fc3d

bias f4 [64]
0.004806931 -0.017765276 0.03811312 -0.012674284 -0.044861633 0.017570531 -0.00866108 0.023738408
0.014774546 0.016263166 -0.007948072 0.031085463 -0.010502517 0.0050306506 0.029042052 0.021631729
-0.03871042 0.08099639 0.011682438 0.003482839 0.014207775 0.053906433 -0.019737484 -0.028743032
0.0026890296 -0.0033700678 -0.022879753 0.0032898097 0.036290824 0.008451534 0.01921623 -0.01990715
0.008524168 -0.02067172 -0.010578332 -0.0055056745 0.029966313 -0.0009011297 -0.06990576 0.0037663602
0.016299987 -0.027699893 -0.039751697 -0.052561976 0.02381465 -0.001263817 0.01617024 0.0056679533
-0.0137934685 -0.012564147 -0.008367092 0.032005668 -0.0050063306 -0.03829738 -0.049868688 -0.0017142008
-0.060424853 0.0020714628 0.029478628 0.032967474 0.041383285 0.03384312 -0.0089131305 0.006203198
00000000: 7683 9d3b 7c88 91bc 811c 1c3d cda7 4fbc
00000010: d5c0 37bd 13f0 8f3c 34e7 0dbc 0d77 c23c
00000020: f010 723c 553a 853c a138 02bc f1a6 fe3c
00000030: c012 2cbc 28d8 a43b 99e9 ed3c 0635 b13c
00000040: d18e 1ebd 6fe1 a53d b267 3f3c 5840 643b
00000050: bac7 683c fecc 5c3d 81b0 a1bc 8276 ebbc
00000060: 6e3a 303b 5bdc 5cbb 526e bbbc d999 573b
00000070: b0a5 143d 4e78 0a3c 5b6b 9d3c 5214 a3bc
00000080: f4a8 0b3c bd57 a9bc bd50 2dbc f268 b4bb
00000090: ea7b f53c ca39 6cba c02a 8fbd 0ad5 763b
000000a0: 8d87 853c e3ea e2bc add2 22bd 3a4b 57bd
000000b0: f116 c33c a9a6 a5ba 7377 843c 3dba b93b
000000c0: 00fe 61bc dad9 4dbc 2116 09bc 6018 033d
000000d0: 250c a4bb b7dd 1cbd 1c43 4cbd 09af e0ba
000000e0: 0d80 77bd 61c1 073b 2a7d f13c e708 073d
000000f0: 8581 293d 159f 0a3d 6108 12bc 3244 cb3b

weight f4 [1, 64]
0.09804825 0.111708075 -0.048511386 0.10436293 -0.061786078 0.016482424 -0.10608716 -0.07802506
0.19565843 -0.053974286 0.019375874 0.09456083 0.09516037 0.052647337 -0.05686093 0.013909993
0.03525819 0.1335401 -0.018194601 -0.17306261 0.0160451 -0.07082776 -0.03091883 -0.33475122
0.1044492 -0.1329583 0.045078892 -0.08715545 0.17001073 0.06414896 -0.039529007 0.032085493
-0.028472817 -0.09120396 0.035513658 0.055123385 -0.13594134 0.065406464 0.032794088 -0.11476612
-0.08437142 0.033837434 -0.077315375 -0.14680375 0.05931129 0.055717923 0.08531999 0.36157003
-0.049878977 0.05818375 -0.024805278 0.14389174 0.10289607 -0.064087436 -0.063447185 -0.034378067
-0.104085125 0.09976607 0.127904 -0.01644399 0.22065626 -0.0636293 -0.12879096 -0.019898547
00000000: 85cd c83d 34c7 e43d e0b3 46bd 3bbc d53d
00000010: 6613 7dbd 2606 873c 3a44 d9bd 9acb 9fbd
00000020: af5a 483e 2414 5dbd 27ba 9e3c 1ca9 c13d
00000030: 71e3 c23d bca4 573d 02e7 68bd bde6 633c
00000040: e46a 103d bcbe 083e d80c 95bc 5337 31be
00000050: 0371 833c 250e 91bd 7c49 fdbc 8364 abbe
00000060: 76e9 d53d 3826 08be a5a4 383d 8e7e b2bd
00000070: 4b17 2e3e 8860 833d 2be9 21bd 146c 033d
00000080: d33f e9bc 24c9 babd c576 113d 0fc9 613d
00000090: 3534 0bbe d3f3 853d 1853 063d 800a ebbd
000000a0: ecca acbd 1f99 0a3d 8657 9ebd b953 16be
000000b0: 65f0 723d 7a38 643d 3fbc ae3d b51f b93e
000000c0: e64d 4cbd 1552 6e3d 7034 cbbc 5b58 133e
000000d0: 2dbb d23d 4640 83bd 99f0 81bd 04d0 0cbd
000000e0: 952a d5bd 2752 cc3d 44f9 023e 8cb5 86bc
000000f0: b7f3 613e 1450 82bd c7e1 03be 4702 a3bc
