scripts/storage/GridCity/model.pt (torch_old, 76649 bytes, 11 tensors)

weight f4 [16, 3, 2, 2]
00000000: fc69 e2bc 2d46 20be 8597 fabd 89d9 bc3d
00000010: 7ad1 12bf 2399 573e 5012 49bd f60e 7a3e
00000020: 0cbf 323d 9c75 633c 02ef 31bb c3fe 663d
00000030: bcfa 5b3e c86e 1ebe 7261 e1bd 0c6f 513b
00000040: cfad 32bd 8045 33bd 1f7e 543e bba8 1ebd
00000050: 5713 aebd 75f7 1ebe f434 0abe 5009 6dbe
00000060: 53df aabd 614f ae3d e03a af3d 04d9 ac3d
00000070: 2b72 d3bf f9b9 8e3e 0587 c0bd 2cb4 463e
00000080: 4ac0 6a3e 0bf9 90be d85f e2bd cc49 1dbe
00000090: 7105 853e e25a 20be 215d 533e 46cf 69be
000000a0: 7da7 6f3e 3b48 babe 7005 cc3d 6584 75bd
000000b0: 05f2 20be 4cd1 cf3d 5002 5bbe 9e6c c83d
000000c0: 7d90 0bbe 381a 52be b4b9 aebe a465 18be
000000d0: 0bb2 243e 26fa 6fbe e458 9c3e b290 863e
000000e0: b1f6 bf3d 744c 27be b1ee ec3d 864a 1f3e
000000f0: fa97 5ebe e7d3 353e 828e a03d 8369 963e
00000100: d290 e5bd bd3f 84bc a59c 72bd 423b cabd
00000110: b42a 43be 6d67 6abe 5047 873d dc5e 7fbe
00000120: 844a 983d d650 f3bd dc0d 073e 30c7 9f3c
00000130: 1514 003e 84e5 0cbe 41ef 0ac0 a28d f23d
00000140: 1632 2e3c 0e3a 00bf 2da4 303d dd77 a9bc
00000150: 35ea 7d3e 9110 81be 97a9 5abe 18dc 3c3e
00000160: 7a0f 31be da8c 103e 19e9 793e 8891 42be
00000170: dceb 243d 105b 333d f5e8 69bd 433d 88be
00000180: 05ef f73c df5c 38bc 821f 8fbd 70a5 26bd
00000190: a556 9e3e cf41 623d fc36 21be 57a9 b23e
000001a0: 5a71 85be 40be 9abe e4dd 7f3e c6c1 25be
000001b0: e425 a33c 42aa d43c 723e 95bd 17b5 103e
000001c0: 4b0b 373e d9ed e5bf 3289 0dbd 7878 b43e
000001d0: ed3f 6e3d a8db e43d 415e 71be c1ba 0bbe
000001e0: ddd8 3dbe 6756 013e 7993 253e 73be 91bd
000001f0: 3a27 6e3e 52a7 8fbf 1aac 04bf 0e55 2a3e
00000200: eb44 7d3d 17ac 533e 4ae2 dbbd 72aa 923b
00000210: 3ef8 883e 8363 053e 0984 6a3d dbdb dd3b
00000220: 0fa4 e83d 9fa0 b2ba 3c92 13be 98f3 8cbe
00000230: 3ce4 7abe d6a8 d1bd 8fdc 45be dfb9 b53d
00000240: ba6b 713d 9a78 dbbd 18c3 273e 830c be3d
00000250: 493e 9b3c 0424 233e a55d 1bbe 01cd 583e
00000260: 681d 6fbd 04bb bd3a 8458 c8be bdef 67be
00000270: 2e49 7dbe 4baa 05be 0da7 8a3e a604 f0bd
00000280: 4dfb 87be 2ccd 9a3d 6953 b73d e854 523e
00000290: 0a46 2dbe 77f8 8c3c e61f a1bd 27e5 db3c
000002a0: a48a 44be 04ab aebd 7b1a b2bd 6b5e 3d3d
000002b0: 543f 533e 6067 dd3d 1483 3a3e 23c4 0d3e
000002c0: e8c4 673e 2a88 09bd 1003 babc 6d27 9a3e
000002d0: d2e5 273d 26ef 423c 03a3 6abd 7392 b8bc
000002e0: a2d7 cdbe bf6f 233e 417c f9bf 9862 56be
000002f0: 9abe f4bc ed65 49bc efce c83d 61c2 4dbe
-0.027638428 -0.1565177 -0.12235931 0.09221179 -0.57350886 0.21054511 -0.04908973 0.2441977
0.043639228 0.013883021 -0.0027150516 0.056395303 0.21482366 -0.15471947 -0.11004914 0.0031957058
-0.043622788 -0.043767452 0.20751236 -0.038735133 -0.084997825 -0.15524085 -0.13496763 -0.23148084
-0.08343377 0.08511234 0.085561514 0.0843983 -1.6519216 0.2787626 -0.09400753 0.19404668
0.22924915 -0.28315005 -0.11053437 -0.15360183 0.25980714 -0.15659669 0.20640995 -0.22832975
0.23403735 -0.36383232 0.099619746 -0.059940714 -0.15717323 0.10147342 -0.21387601 0.09786342
-0.13629337 -0.20517814 -0.34126055 -0.14882523 0.16083543 -0.23435268 0.30536568 0.2628227
0.093732245 -0.16337758 0.11568964 0.15555772 -0.21737662 0.17756616 0.07839681 0.29377374
-0.11209263 -0.016143674 -0.05923142 -0.09874584 -0.19059259 -0.22891016 0.06605399 -0.2493853
0.07436088 -0.118806526 0.1318888 0.01950416 0.1250766 -0.13759428 -2.170853 0.118434206
0.010632059 -0.50088584 0.04312532 -0.020687038 0.24796374 -0.25207952 -0.21353756 0.18443334
-0.1729106 0.1411623 0.24405326 -0.19000828 0.040263996 0.043788016 -0.05710693 -0.2660924
0.03026534 -0.011252611 -0.069884315 -0.040685117 0.3092548 0.05523854 -0.15743631 0.3489482
-0.26063043 -0.30223274 0.24986988 -0.161872 0.019915529 0.025960092 -0.07287301 0.1413158
0.17875402 -1.796321 -0.034554668 0.3524816 0.058166433 0.111747086 -0.23571111 -0.1364546
-0.18539758 0.12630616 0.16169538 -0.071164034 0.23257151 -1.1222937 -0.51825106 0.16634008
0.061833303 0.20671116 -0.107365206 0.004475885 0.26751894 0.13026242 0.057254825 0.0067705936
0.11359417 -0.0013628191 -0.14411253 -0.27529597 -0.24501127 -0.10237281 -0.19322418 0.08873343
0.058940627 -0.10716362 0.16383016 0.0927973 0.018950598 0.15931708 -0.15172441 0.21171953
-0.058377653 0.0014475291 -0.39130032 -0.22650047 -0.24734947 -0.13053243 0.27080575 -0.117196366
-0.26558915 0.07558665 0.08951456 0.20540202 -0.16921249 0.017208321 -0.07867412 0.026842667
-0.19193512 -0.085287124 -0.08696457 0.046232622 0.20629627 0.10810733 0.18214065 0.13844351
0.22633708 -0.03357712 -0.022706538 0.30108204 0.040990658 0.011897838 -0.057284366 -0.02253077
-0.40203577 0.15960597 -1.9491044 -0.20936048 -0.029876042 -0.012292367 0.098050945 -0.20093681

bias f4 [16]
00000000: b2e7 37be cee7 f7bc 1e4b 2f3e 1d10 55be
00000010: 9874 ccbb f3ef b03d b542 6e3e 3320 59be
00000020: 9ba4 033e b832 69be 3aaa ab3e 9ff4 0dbe
00000030: 8582 2c3d 79c4 973d 8bde 53bd b4c2 c23d
-0.17959478 -0.0302619 0.17118499 -0.20806928 -0.006239485 0.08639517 0.23267634 -0.2120369
0.12855761 -0.22773254 0.3352831 -0.13862847 0.04211666 0.07410521 -0.051725905 0.09509793

weight f4 [64, 16, 2, 2]
00000000: 5328 ad3c 805d 9fba e153 94bc d9df b13d
00000010: 5cd4 4cbd 82db 2a3c 97fb c23d c8e9 9d3d
00000020: 105f fe3d b66b 11be ab7f eebd b778 353e
00000030: 9e11 f4bd c900 8a3d daac cabd e953 a2bb
00000040: 5426 b73d 4739 c7bd dc6a 64bd da56 483d
00000050: d09e be3d d597 d03d 68ab a6bd 1c47 e5bd
00000060: 483f c13d bd3c 2cbd d20a 9cbc dd29 8f3e
00000070: 67c0 79bd afe9 013d 53db 583d b0c8 abbd
00000080: 15fd fdbd a58c c1bc 13c9 ac3c 1bfb 023c
00000090: dd78 7dbd de5b eabb e722 bbbd 01f7 90bd
000000a0: e785 0abe 3003 763d 4535 ed3d 007c 6cbc
000000b0: 4d05 38bc 5566 543d 4551 b43c 8a68 30bc
000000c0: 2d6e 463d 7e77 3d3d 6d7e dcbc ca71 6dbd
000000d0: 4120 0e3e ea49 043d 90da babd 15b3 bc3d
000000e0: fe5b 8f3d 8923 cfbd 705c 8d3d 11a2 bbbd
000000f0: 96da c43d 2a3a c1bd 871d f43c 7889 253e
00000100: e6a7 6bbd 2bf5 203e b258 57bd a7be a0bc
00000110: 18e3 79bd 956b 033d 7771 f2bd 5572 843c
00000120: 4136 a6bd 51d2 d43d 5eec 013e a9c3 f03c
00000130: 20b1 9ebd 7bbd cebc ea0a d1bd 1679 033e
00000140: ff1c 2fbd 6e02 493d 6a83 f53c 5ffd d9bc
00000150: 354f 523c f490 443d 5cd5 e43c cbb8 40bd
00000160: 7b3c d5bd 09b2 72be 20c9 24be bdfd 89bd
00000170: cc98 9cbb 571a ad3d 17dc 263d ea88 88bd
00000180: 5e9f 99bd 0188 12bd 1168 8bbd c8ae 053e
00000190: efdf cbbc ea78 4d3e c3ae d4bc ba36 a7bd
000001a0: 994e 1dbe 6fd4 e73b e27e 993d c61e 0bbe
000001b0: a774 ddbd 4682 1b3d 65e0 963d f625 953d
000001c0: 8dee d7bd 8bb0 66bd 78c1 8ebd 52f0 f23c
000001d0: 6c29 44bb 5ff6 9bbd 674f e1bd 9811 b33d
000001e0: 7573 7cbd 33f7 393c 1e09 913d 423d 953d
000001f0: 6e47 5d3d feab 66be 7e1a 373a 0e24 f0bc
00000200: 1ced 8dbd e37e c4bd 041b d4ba 6244 04bd
00000210: 9653 a3bd cc4e afbd 7f23 1fbe 9018 f13d
00000220: 1d57 cfbc 4c71 f0bd 343a 34be 42fa 6abd
00000230: 95d2 a8bd 4804 85bc 302c 823d cd33 8a3d
00000240: 5a0e 49bd 2496 b8bc 7d52 7e3c 3914 d23d
00000250: 2faf 043e 17af ee3c f10f 2f3d 2374 363c
00000260: 3a70 8abd 8afe d4bd cdb9 9a3d 349d c3bd
00000270: a5d2 183e 43c3 cbbd 2636 59be 18cc 09be
00000280: c3a6 e33c 5924 a6bd b8f1 37be 971d 673d
00000290: 66e8 3c3d a29c b73a 89e7 72bb d3f5 273d
000002a0: 2d15 f23c 38af 3c3e d6ce be3c 38e5 a33c
000002b0: 1534 0cbc 660e d0bd dc39 e73d e474 2d3d
000002c0: 433c 30bd ddc3 e43d bf71 c03d 2adb 9e3d
000002d0: cef3 0dbe d742 b4bd 7da9 953c ab27 663d
000002e0: ffbb 513c a933 32bd b3bf ad3d 9f63 533d
000002f0: 6b04 ac3b dae5 d6bd 49d1 153d 60e3 09bc
00000300: 07e8 9cbd a77e e83d 653c 0f3c bc9d e0bd
00000310: 6230 b5bd 372d e8bd d1e4 abbc c520 bcbc
00000320: 67a4 853d 5dae 81bd 9bda 52bd 8cc9 5dbc
00000330: 600e 993d 390f 58bc c039 933d 5b0e 1d3e
00000340: 19cf f1bd 7b41 173e 981b 10bd bb81 a3bd
00000350: 348f cdbd c2bb d53d b891 813c 11a6 0a3d
00000360: 393b 5dbc 5c0e b73d 8ff1 bfbd 4274 09be
00000370: c9bb 553c c21b ecbc bc85 0f3c ea2c 7abd
00000380: a568 c9bc f7f1 9cbc 7f3a 413d fb80 08be
00000390: dbaa 643d 2f6a 1abc 5665 c73d db4c 463e
000003a0: 3400 86bd 9c15 113e fc15 f6bd 782f 2d3e
000003b0: bf75 b73c 47b3 9f3d b1a7 75bd 5c22 d03d
000003c0: 7b86 aebd 1868 3cbd d4f8 503d 60d4 b73d
000003d0: e6e5 ed3d 5257 ac3d a555 023e b7b9 813d
000003e0: 0622 8abd 7ba2 2dbd 607a 1f3e b198 f3bc
000003f0: 2159 aa3d 5b05 04be 56b5 2a3d ee82 cfbd
0.021137392 -0.0012158602 -0.018106403 0.08685274 -0.05000721 0.010428311 0.09520643 0.07710606
0.124204755 -0.14201245 -0.116454445 0.1772183 -0.11917423 0.06738431 -0.0989625 -0.0049538505
0.089428574 -0.09727722 -0.05576597 0.048910953 0.09307635 0.1018521 -0.08138162 -0.11195204
0.09435898 -0.042050112 -0.019048128 0.27961627 -0.060974505 0.031717 0.05294354 -0.083878875
-0.12401787 -0.023626635 0.021091973 0.0079944385 -0.061882842 -0.0071520647 -0.091375165 -0.07078362
-0.13527642 0.060061634 0.11582426 -0.014433861 -0.011231733 0.051855404 0.022011409 -0.010767112
0.048444916 0.046256535 -0.026915753 -0.057969846 0.13879491 0.032297052 -0.09123719 0.09213845
0.06999968 -0.101142 0.06902397 -0.09161771 0.096120045 -0.09434922 0.029799236 0.16165721
-0.057533167 0.15718524 -0.05257482 -0.01962216 -0.06100759 0.03208502 -0.11838048 0.016167799
-0.08115817 0.10391677 0.12687823 0.029390173 -0.07748628 -0.025236836 -0.1020716 0.1283916
-0.042752262 0.049074583 0.02996989 -0.026610075 0.012836267 0.0479898 0.027933769 -0.047051232
-0.10411926 -0.23700728 -0.16092348 -0.0673785 -0.004778957 0.084522896 0.040737238 -0.06666739
-0.075011 -0.035774235 -0.068069585 0.13054955 -0.024887053 0.20065656 -0.02596224 -0.08164735
-0.15362014 0.0070748846 0.07494904 -0.13585958 -0.10813265 0.037966035 0.073670186 0.07282631
-0.10543547 -0.05632071 -0.06970495 0.02965561 -0.0029931916 -0.07615351 -0.11001473 0.0874359
-0.061633546 0.011350441 0.07081817 0.072870746 0.0540232 -0.22526547 0.00069848436 -0.029314067
-0.06929991 -0.09594514 -0.0016182368 -0.032291777 -0.07974927 -0.08559951 -0.15540884 0.11772263
-0.025310094 -0.1174036 -0.17600328 -0.05736757 -0.0824329 -0.016237393 0.06356084 0.067481615
-0.049085952 -0.02253253 0.015522596 0.102577634 0.12957452 0.029136224 0.042739812 0.011136088
-0.06759687 -0.10400112 0.0755497 -0.095514685 0.14924105 -0.099493526 -0.21212062 -0.13456762
0.02778948 -0.081124015 -0.17963302 0.056424703 0.04612007 0.0014008472 -0.0037064275 0.04100592
0.029551113 0.18426216 0.023291986 0.020006761 -0.008557339 -0.10158996 0.11290333 0.042347804
-0.04302622 0.111701705 0.09396695 0.07756646 -0.13862535 -0.08801811 0.018269295 0.056190174
0.012801169 -0.0435063 0.08483829 0.051608678 0.00524955 -0.104930595 0.036576543 -0.008416027
-0.07661443 0.11352282 0.0087424265 -0.109675854 -0.08847119 -0.11336749 -0.020983132 -0.022964844
0.06525498 -0.06332085 -0.05147801 -0.013536822 0.07473445 -0.013187223 0.07188749 0.15337507
-0.11807079 0.14771073 -0.035182565 -0.079837285 -0.100370795 0.104362026 0.015816554 0.03384978
-0.013502889 0.08938286 -0.093722455 -0.13423255 0.01304526 -0.02882183 0.008759912 -0.06107799
-0.024586031 -0.019158347 0.047174927 -0.13330452 0.055827003 -0.00942473 0.09736125 0.19365256
-0.065430075 0.141684 -0.12015912 0.16912639 0.022395013 0.07797866 -0.059974376 0.101628035
-0.08521744 -0.04599771 0.05101855 0.08976054 0.11616115 0.084150925 0.12727983 0.063342504
-0.06744771 -0.04239128 0.15574026 -0.029735895 0.08317781 -0.12892668 0.04167684 -0.10132395

bias f4 [64]
00000000: 4c3d 15be da04 15bd b8a0 93bd 208f 803d
00000010: 08b7 8cbc 5fb6 78bd 9305 de3c 9a9e 39bc
00000020: de7d 613c b462 b63d 952c adbd 1029 4f3d
00000030: 6ea9 333d 8bea a8bd da26 913b ebf1 a0bd
00000040: 11f0 41bc c1a5 89bd eddd 12be e142 b73d
00000050: e8c4 e53d 5fc7 7b3c b930 8abd b637 d53d
00000060: eaac efbc c2bf 7abd c9d1 91bd ea0e c93c
00000070: 194a 9ebd 0b4a 653d 4d1d dabd 7783 03bd
00000080: 88ae 11be 7abb 8bbd 80fb d0bd 8e5c d8bc
00000090: d6cc 2a3e aeaa 00bc b7b2 cabd 7549 233e
000000a0: bae9 373d 2f97 a4bd 28c6 b9bd 4a1a d53c
000000b0: 1e4e 7dbd 1d6d ce3b 2b3e 08be 8892 c7bd
000000c0: 395c 583d 4c1b 38bb 552c db3c 0278 3c3b
000000d0: 46ee cfbd 0ab8 053e 785f a53b 08f8 df3d
000000e0: db9d 02ba 0751 0bbc 4817 76bd 1d12 b5bd
000000f0: 1f57 a93c db6a 893d 8dd4 64bd b281 cfbd
-0.14574164 -0.03638158 -0.07208389 0.06277299 -0.01717712 -0.060720798 0.027102267 -0.011329317
0.013762919 0.08905545 -0.08455769 0.05057627 0.043862753 -0.082478605 0.0044296803 -0.07858642
-0.011837021 -0.06721068 -0.1434247 0.08948303 0.112191975 0.015367358 -0.06747574 0.10411017
-0.029257257 -0.06121803 -0.071200915 0.024543244 -0.07728977 0.055978816 -0.1065012 -0.032107797
-0.14226735 -0.06822868 -0.1020422 -0.026411321 0.16679701 -0.007853193 -0.098973684 0.1594599
0.044900633 -0.080366485 -0.090709984 0.026013512 -0.061842076 0.0062996284 -0.13304965 -0.097447455
0.052822325 -0.0028092442 0.026754538 0.0028758054 -0.10152869 0.13058487 0.005046781 0.1093598
-0.0004982629 -0.008503205 -0.060080796 -0.088413455 0.020671425 0.06709834 -0.055866767 -0.10132159

weight f4 [64, 64]
00000000: 4960 34bd 458a 28bd f3be 153e d825 3a3e
00000010: 1cf2 e3bc 0a34 c53c fe62 d1be 8cc1 10be
00000020: c555 06bd 2e82 ffbb 3eb0 683d 5a44 643d
00000030: a82d 58bd 1b56 42bc 4e7f 4c3d cb48 e5bd
00000040: 36a3 1b3d b288 8cbe 6678 78bd 8a1b 7ebd
00000050: fcdc 2cbc 5629 cdbd 9004 59bd 323c 63be
00000060: 1ee1 193e cade 013e 0d05 cfbe 87b9 a5bd
00000070: c2ed e13d c652 32be 3bdc b7bc 6136 853d
00000080: 70dd c5bd 2ffa 263e fce9 713d cbcb aebe
00000090: 1238 8c3e 71f4 fd3d df9c 863e f70e 573e
000000a0: ff01 02bd 1764 8a3e 60ce 01bc e6c3 74be
000000b0: a8fd 013c 098d 353e 978f 93bd 09fa 9b3c
000000c0: 0b6c 163d 27ea 863d b5e0 24be 89cf 74bd
000000d0: 269f 2f3d e5eb a53d 7c8f 2cbd 56bd 8b3d
000000e0: 7f8f 093e d0a3 053d d3bf 8b3d 6451 333e
000000f0: 0d44 66bd 671a 643e 58f8 753d 6158 913e
00000100: c7ae bcbc db2b 66be 6549 6f3e 49a4 803d
00000110: 98cc 50bd 918f 973c e321 393e 8d0e 513d
00000120: 5641 013e 595a 8bbd 2a37 ab3c a91c a0bd
00000130: 12a2 19be fe92 523e f5ea fabc 9f24 6bbc
00000140: af74 7a3d 9b5a 453e 9043 90be 11a6 8cbd
00000150: 088a 35be 0405 82bd 2364 83bd 3419 3dbe
00000160: 5f1c a5bd 9434 27be b260 233e 722e 85be
00000170: 7e0a 923d 062e 21be cc51 02bc 24aa b1bd
00000180: 8d4e 89be 0109 d43d f315 65be e563 6cbc
00000190: e960 133e 724e 723e db5d b93d 1b2e 6bbd
000001a0: eda1 df3d 6ff9 2f3d 1ff8 503e 9440 5f3d
000001b0: f01f febd 2436 f6bd dd78 8bbd 6d49 3f3d
000001c0: 3ca9 9d3e 79cf fa3d 9b6a 9b3d 108b e2bd
000001d0: 4c49 d33d 61d7 4c3e 1137 423e c783 8b3e
000001e0: 828d 30be 7a9d 4e3c 15ed 09be 3acc 533e
000001f0: 14a3 8bbe ac85 183d 2452 f9bd 31bc 12be
00000200: d012 aabd 559d e23d 56ed b23d 427d 9dbd
00000210: afaa 89be 2180 a3bd b149 84bd 6078 8f3e
00000220: 87b7 56bc adc0 c43e 14d5 9a3d 7c8e b0bc
00000230: db62 e6bc 2eae cebd 8e58 033d 0347 2fbe
00000240: 3d2c 3ebc 8400 fabd 264c 023d 29ee 0c3d
00000250: 72e4 bcbc d654 10be 9910 abbd 353a ef3e
00000260: 230a 59bd e90f 1abd 365e 8f3d b304 b93c
00000270: 3222 ab3d 78e9 aa3d e1c3 b9bd 616c 10be
00000280: 6b28 9b3b 78d7 d83d 08db a9bd 14b1 763e
00000290: fba8 7bbe def7 3b3d 4d8d d2bd 006f 6abd
000002a0: 28e9 43be 20f5 f2bd 6186 0cbe 839d 363b
000002b0: 3c83 17be 037b 843d c6ec 71be 1f36 723c
000002c0: 80e2 46bd 1a8d 73be 0594 d83d 3072 2abe
000002d0: 5cbd a83c 3c33 3c3c b724 043d 20e0 c4bd
000002e0: c7de d53d e4c3 82be dfe4 9c3c 6671 d4bb
000002f0: d1f2 9d3c dc97 fdbd 9da2 883d 841e 4dbe
00000300: c8ae f5bd 2758 0f3e 9382 203e 71c7 083d
00000310: b9e0 d9bd 54ce 26be 059a aebd 4949 32bd
00000320: 25cb f83c 0457 3dbe 4f1d 5f3d e28f 953e
00000330: 1317 b3bd 45b1 95bd b25f 253d a2bf 28be
00000340: 0812 04bd 1e67 58bd b2df 9a3b e94f 8fbd
00000350: 4701 913c b014 463d 547b b0bd cf61 72bc
00000360: c11f 7bbe ff5d 433e a249 593e ffda 293e
00000370: dc5e 12bd 1f70 0dbe 1f57 503e bf4b d0bc
00000380: 9253 ac3c 79c0 ba3d 5eb8 853d 0d2b 81be
00000390: 54e9 adbd 150e 8abe 33d5 d6bd e89a 663d
000003a0: 63fe 333d 4f1c 533d 4bd0 a6bd 9567 783c
000003b0: 6e2a 0c3e 7bdb c73d deb5 803d 2867 413e
000003c0: 41db 823d 7181 643e b115 17bd 5cf7 ea3c
000003d0: e137 893c e51e f23d ac6b 773e 99b8 283e
000003e0: 5da3 e9bc 62fb 98bc 33a4 793b a71a 04be
000003f0: dc16 cf3d 2348 633c 621f a73d cc4a 003e
-0.044037137 -0.04114749 0.14623623 0.18178499 -0.027825408 0.024072666 -0.40895838 -0.14136332
-0.03279664 -0.007797501 0.056808703 0.055729248 -0.052777916 -0.011861349 0.049926095 -0.11195525
0.037997447 -0.2744804 -0.060661696 -0.062037982 -0.010550734 -0.1001765 -0.052982867 -0.22190931
0.15027282 0.12682644 -0.4043354 -0.08092027 0.11031677 -0.17414388 -0.022443881 0.065045126
-0.096613765 0.16306375 0.059061036 -0.34139857 0.27386528 0.12400139 0.26291558 0.21001802
-0.031740185 0.27029487 -0.007922739 -0.23902854 0.0079340115 0.17729582 -0.07205122 0.019040124
0.03672413 0.0658763 -0.16101344 -0.059768233 0.042876385 0.08101634 -0.042129025 0.06823222
0.13433646 0.032626927 0.06823697 0.17511517 -0.056217242 0.22275697 0.060051292 0.2838774
-0.02303256 -0.22477667 0.23367842 0.06281335 -0.050976366 0.018501075 0.18079333 0.051039267
0.1262258 -0.06804342 0.020900328 -0.078179665 -0.15003231 0.20563886 -0.030629614 -0.014351993
0.061146434 0.19272844 -0.28176546 -0.06867612 -0.17728436 -0.06348613 -0.06415584 -0.18466645
-0.08062052 -0.1632865 0.15954855 -0.26011997 0.071309075 -0.15740213 -0.007954072 -0.0867503
-0.26817742 0.1035328 -0.22371654 -0.014428114 0.14392437 0.23662737 0.09051105 -0.057417016
0.10919557 0.042962488 0.2040715 0.054504946 -0.12408435 -0.12022045 -0.06810162 0.046700884
0.30793178 0.122466035 0.07588693 -0.1106168 0.10316715 0.20004036 0.18966319 0.27248976
-0.17241481 0.0126107875 -0.13469346 0.20683375 -0.27272856 0.037236854 -0.1217387 -0.14329602
-0.083043694 0.11065165 0.087366745 -0.07689907 -0.26888034 -0.07983423 -0.06459368 0.28021526
-0.01310528 0.3842825 0.07560173 -0.021552317 -0.02812331 -0.10091816 0.032066874 -0.17116933
-0.011607227 -0.122071296 0.031810902 0.034406815 -0.02305815 -0.14094862 -0.08352775 0.46724096
-0.052988183 -0.03761283 0.07000391 0.022585249 0.083561316 0.08345312 -0.09070564 -0.14103843
0.004735043 0.105879724 -0.0829373 0.24090987 -0.2457618 0.04589068 -0.10280857 -0.057234764
-0.19131911 -0.1186316 -0.13723136 0.002786488 -0.14796156 0.06468775 -0.23625478 0.014783411
-0.04855585 -0.23784295 0.105751075 -0.16645122 0.020598106 0.011486825 0.032261577 -0.09613061
0.10442882 -0.25540078 0.019152103 -0.0064832447 0.019280823 -0.123824805 0.06671641 -0.20031172
-0.119962275 0.13998471 0.1567481 0.033393327 -0.106385656 -0.16289645 -0.08525471 -0.04352692
0.030370304 -0.18490225 0.05447131 0.29211336 -0.087446354 -0.07309202 0.040374465 -0.16479352
-0.03224376 -0.052832715 0.0047263736 -0.069976635 0.017700804 0.048359573 -0.08617273 -0.014793827
-0.24523832 0.19078825 0.21219495 0.16587447 -0.035734996 -0.13812302 0.20345734 -0.025426744
0.021035943 0.091187425 0.06529306 -0.25228158 -0.084917694 -0.2696387 -0.10489883 0.056300074
0.043943774 0.05154067 -0.081451975 0.015161415 0.1368806 0.097586595 0.062846884 0.18887007
0.063894756 0.22315003 -0.03688592 0.028682403 0.016750278 0.11822299 0.24162167 0.16476668
-0.02852028 -0.018674556 0.0038092255 -0.12900792 0.10111782 0.013872179 0.08160283 0.12528533

bias f4 [64]
00000000: 3b7a e23c 4f83 fa3b 9088 5ebc 1014 943d
00000010: 3495 fa3b 2911 d93b b665 3fbb 0f13 63bd
00000020: d137 7dbc 1d0e aaba 2000 613c aa06 753d
00000030: 4e5a 93bd f351 d03c ba0f 89bd c900 31bc
00000040: df98 6bbd 9793 4f3d 68d0 d5bb 8638 56bc
00000050: a87a 98bc c725 81bc 5f12 843c 8045 7a3d
00000060: a4f9 c53d 29b9 273d e9a5 a7bc 2481 b13d
00000070: 8d97 a6bb f914 293d e8e0 143d 0a16 8e3d
00000080: f7ef bdba de6a 0bbd 6345 10bd 69b2 3a3c
00000090: 4804 1d3d a3d4 afbd 0344 74bc 2d9a b8bc
000000a0: e2b6 2cbd 3699 db3d b578 62bb 93ba aebb
000000b0: 6832 463c 384d ecbd 7246 d3bc 1e56 9dbc
000000c0: 67b7 183d efc4 3ebb cb15 c8bc 623f ec3c
000000d0: be62 803d fc9e 423d a1e5 cdbd 180d c7bb
000000e0: 6e85 debc e436 7e3d bc5f a53c f3ed c63c
000000f0: 6ecc 6fbd 962c 6a3d 8ab6 63bd 80e1 d93c
0.027646175 0.0076450477 -0.013582364 0.07230389 0.007647181 0.00662436 -0.0029204912 -0.055438098
-0.015455202 -0.0012974177 0.01373294 0.05982081 -0.071949586 0.025429701 -0.06692453 -0.01080341
-0.057518836 0.050677862 -0.006525088 -0.013075 -0.018613175 -0.015765084 0.016122041 0.061101437
0.09666756 0.040948067 -0.020464854 0.0866721 -0.005083984 0.041279767 0.0363473 0.06937797
-0.0014491071 -0.034037463 -0.035222422 0.011395075 0.03833416 -0.08585479 -0.014908793 -0.022534454
-0.0421666 0.10722582 -0.003455681 -0.0053323 0.012096979 -0.11538166 -0.025790427 -0.019206103
0.03728428 -0.002910908 -0.024424454 0.028838817 0.062688336 0.0475149 -0.10053564 -0.006074559
-0.027163234 0.062064067 0.020187251 0.024283385 -0.05854457 0.057171427 -0.055594005 0.026596785

weight f4 [7, 64]
00000000: 9b41 5bbe 5ae7 e8bc fb03 1ebe 7893 093e
00000010: 5388 c83d c6e3 86bd 2e13 a4be bc2e afbe
00000020: 78ab 893d 525d 86bd 573d 033e 7e89 16bd
00000030: 307b bebd 617b 1e3e 38fb b0bd e62e 2f3e
00000040: fc47 29bd 8d4a d43c 0a5d 0fbe aabb ccbe
00000050: 8438 76bd d383 5a3e 1b0e fc3b dfe9 b7bd
00000060: 165b 8ebd 5edd a4bc b228 8d3e 6b46 103e
00000070: 6da7 093d 5659 8c3e 0896 e0bd 9106 0d3e
00000080: c410 163e cc72 42bd 94ef 26be 3be7 63bd
00000090: 8f14 903c c4c1 003b 50e4 5d3e 7d32 d3bc
000000a0: f56c e6bc 6031 debd e953 353d 22ed 373d
000000b0: b266 3ebe 5f8e 31bd 59a9 e6bd ca7e 3abe
000000c0: 59a3 953e 41c8 533e 3909 09be 95d5 38bd
000000d0: bb4a 2e3e 7403 913d d1fb 8bbe 5a28 b23d
000000e0: bd55 89be 54b0 8e3e 01bb 4ebe 9ba4 00bc
000000f0: 2e41 803d 64d6 bf3d 8984 50be 7222 943d
00000100: 265c 6e3d b311 c23e d663 f03c ff29 c1bd
00000110: 2886 f93d f561 3dbe 3e6d a6be ad10 4ebe
00000120: b050 bb3d eaff 81bd 1764 f5bd f987 883e
00000130: cdf0 45be 8ca7 273e e84f 83be eceb c7bd
00000140: 4278 70bc 3c40 993e 363d 483e 3350 0f3e
00000150: 799f 993d a31d a43b ae60 1a3e b507 25be
00000160: 9f6e ad3d c2ae 22be e850 58be d664 ee3c
00000170: 87a3 6a3d 1fd7 9a3e c9f6 613d 0893 973d
00000180: 7432 51bd e994 d0bd 693a 17bd 60b4 92bd
00000190: d3e1 9e3d 8c14 8cbc 527c 253e 528b 493d
000001a0: a53f 6cbe 51d8 b93d 2697 2d3d c905 66bd
000001b0: 4c21 80be 0e50 f4bd 9103 45be ebd4 e1bd
000001c0: 9810 b13d 4af0 57be d845 543e 1ef3 993d
000001d0: 8f4c 1c3e e7ba 193d 0c42 85bd b166 243d
000001e0: 21b3 bcbd 2eea 49be 0ff5 5f3e acc8 18bd
000001f0: e6c4 cc3d ae5d 2dbd 73f5 5cbe a250 7e3e
00000200: 9ba9 c4be 8a34 69be 1c6c 183e 188f 1abe
00000210: d14e 553b 0613 20bf ad9d ae3e f963 debd
00000220: 6bc3 26be 74e8 773e e586 6fbd 62ad c7be
00000230: 7e92 aa3d 2a54 ebbb c17e 6a3c 9c19 be3a
00000240: 2857 b8bd 3965 debb 58df 4e3c 51ae df3e
00000250: de96 0ebe 345c 6bbe 00df 703d 789b 413d
00000260: 766c 8cbd 62f5 e9bd f95d b0be 41e4 363c
00000270: c89a 3d3d 96fb a7be 6d1e 1fbe e376 93bd
00000280: 5271 16be 7655 5e3e d6c4 d63e 06f2 d3bd
00000290: 47f7 efbd 274f 62be 048e abbe 0d52 0fbe
000002a0: 4630 65bd b734 23be e283 53be 12f7 363e
000002b0: 7157 0a3f e062 053e 1b8e 9fbc 3197 d23e
000002c0: dc16 02bf 8793 173e ac62 4a3d 3099 1d3e
000002d0: 5378 d03d 79ec b7be f3fc 79bd d8db 03be
000002e0: c250 b33d 87e1 523e b76b 5b3e ea97 263e
000002f0: bc3c a23e fb3b 95bd 748d 65bd 75dc be3e
00000300: 2410 64bd be03 773c f027 4dbd e5f6 42be
00000310: bd62 143d 0d3c 4a3d 1caa 65be ba63 03bd
00000320: 68f9 4c3d 0da2 df3c 17fc a63d 8222 2f3d
00000330: 9de7 c7bd feec 20be af07 3bbe b6e6 5d3e
00000340: 9134 163d cef6 c4bd dc9a e5bc 288d 7dbc
00000350: 9672 e53b 5020 863e 520a 59bd 1f93 8cbe
00000360: e118 d0bc ded5 05be 9d5a f2bd 8aad 8d3e
00000370: 74c8 d2bd 696f fcbd df2f f5bc 1b70 26be
00000380: 3db8 c93d 6bb1 f33d 3a6e b63d c3ad 83be
00000390: f300 2c3c 27ed fd3d 2b5c 3f3d c659 6b3d
000003a0: ed90 053e 493e 18bc c0ea 60be b899 203e
000003b0: aa99 a4bd 1f59 86bd ac6e d4b9 3120 90bd
000003c0: 691d dbbd d353 8fbe 4998 42be db3d 8a3e
000003d0: f230 3f3e 8b0a 33bd 2937 06be 843c 913b
000003e0: ace4 613c 10fd 1bbe 803c ef3c 4d1c 5fbd
000003f0: a794 8fbd 5691 3dbd 1f2b 1abd c202 383e
-0.21411745 -0.02843063 -0.15431206 0.13435161 0.09791627 -0.06586413 -0.32045883 -0.34215343
0.06722158 -0.06560768 0.12816368 -0.036752217 -0.0930084 0.15476753 -0.08641666 0.17107734
-0.041328415 0.025914455 -0.14000335 -0.39986926 -0.06011249 0.2133935 0.007692111 -0.08980154
-0.06950967 -0.020125087 0.2757011 0.14089362 0.033606935 0.27411908 -0.10966116 0.13772036
0.14654833 -0.04747276 -0.1630233 -0.05564044 0.017587928 0.0019646743 0.21669126 -0.02578091
-0.028128127 -0.10849261 0.044269476 0.04490388 -0.18593863 -0.043348666 -0.11262769 -0.18212429
0.29226187 0.2068186 -0.13382424 -0.045125563 0.17020695 0.07080737 -0.27340558 0.08699103
-0.26823226 0.27868903 -0.20188524 -0.007851745 0.06262432 0.09367064 -0.20363058 0.072331324
0.05819335 0.37904128 0.02934448 -0.09431838 0.121837914 -0.18494399 -0.3250522 -0.20123549
0.09146249 -0.0634764 -0.11981981 0.2666624 -0.1933014 0.16372508 -0.256469 -0.097617954
-0.014677109 0.2993182 0.195546 0.13995437 0.0750112 0.005008416 0.15075943 -0.16116221
0.08468365 -0.15886977 -0.21124613 0.029100817 0.057284858 0.3024225 0.055166993 0.07401091
-0.051073506 -0.10184652 -0.03692094 -0.0716331 0.07757916 -0.017099641 0.16160706 0.04920513
-0.23071153 0.09074462 0.042380475 -0.05615786 -0.25025403 -0.11929332 -0.19239642 -0.11026939
0.08645743 -0.21087757 0.20729768 0.07517074 0.1526358 0.03753176 -0.06506738 0.040136997
-0.092138536 -0.19718239 0.21870826 -0.03730075 0.09998493 -0.042325668 -0.21578006 0.24835446
-0.3841065 -0.22773948 0.1488499 -0.15093648 0.00325482 -0.6252903 0.34104672 -0.10858912
-0.16285484 0.24209768 -0.058478255 -0.38999468 0.083287224 -0.007181664 0.014312447 0.0014503482
-0.09000999 -0.006786969 0.0126264915 0.4368768 -0.13924739 -0.22984391 0.05880642 0.047267407
-0.06856625 -0.11423756 -0.34446695 0.011162818 0.04629019 -0.32809132 -0.1553895 -0.0720041
-0.14691666 0.21712288 0.4194705 -0.10348897 -0.11717086 -0.22100507 -0.33506787 -0.13996144
-0.05595424 -0.15938078 -0.20655778 0.17867687 0.54039675 0.13025999 -0.01947694 0.41130975
-0.5081613 0.14802371 0.049410507 0.15390468 0.101792 -0.35922602 -0.061032247 -0.12876832
0.08755638 0.20593844 0.21427809 0.16268888 0.31686962 -0.07286831 -0.056043103 0.3727757
-0.055679455 0.015076576 -0.050086915 -0.19039495 0.036226977 0.049373675 -0.22428173 -0.03207753
0.05004254 0.027298952 0.08153551 0.04275752 -0.097609736 -0.15715405 -0.1826465 0.2167004
0.036671225 -0.09617387 -0.028027944 -0.015475549 0.007002185 0.26196527 -0.052988358 -0.27455994
-0.025402488 -0.13069865 -0.11833689 0.27671462 -0.1029214 -0.12325937 -0.029930053 -0.16253702
0.09849594 0.11899074 0.08907743 -0.25718507 0.010498273 0.12398749 0.046718758 0.05745866
0.13043566 -0.009292194 -0.2196455 0.15683639 -0.080371216 -0.06559967 -0.00040518248 -0.0703739
-0.10698969 -0.2799364 -0.19003405 0.27000317 0.18671015 -0.043711226 -0.1310698 0.004432263
0.01378743 -0.15233254 0.029203653 -0.05447035 -0.07010775 -0.04628118 -0.03763878 0.17969802

bias f4 [7]
00000000: 9c3b 7d3d 6617 443d 31fc ddbc 8b9f b63c
00000010: 5193 1f3d 3791 4fbe c8e8 0bbd
0.061824426 0.047873877 -0.027097793 0.022292873 0.03895885 -0.20270239 -0.034157544

weight f4 [64, 64]
00000000: afa7 19bd f117 86be ddc5 f33d 8d1c 1dbe
00000010: 6ae5 40bd 73af e8bc c354 8bbe 0e77 d8bd
00000020: d998 27be 7d36 86be 7e35 6b3e 603b b03d
00000030: ee81 9abe f5a1 79bd 7d55 1dbc b36c 27be
00000040: c355 25be 2e5b 083c 2e0b 123d 7b5a abbd
00000050: 6248 3b3e b292 80be 0e1b b83c 3e97 8dbe
00000060: e011 79bd 0b2b afbe c6c6 1abe 61f6 a5bc
00000070: e240 14be 8144 9e3d 0a81 893c 79f8 61bd
00000080: b32d 19be 31d7 89bc 6a63 d0bd dcb3 9f3b
00000090: 87bf 413c 36a7 6ebe dbcf 093e 1a18 78bd
000000a0: 541c 29be a252 2fbe 1bc7 353d 58c7 f3bc
000000b0: 2adc a13d 4d20 8c3d 3cb4 3eba 3b95 3dbb
000000c0: 92f4 18bd ef5a 1a3e 8d1c b8bc 8ae2 0cbd
000000d0: 0426 cfbc 2747 23be a45d fcbd 294d 8cbe
000000e0: fcf1 8bbe c255 a93d 28d8 8abd 3bda 193e
000000f0: 330c 07be 6968 643c 7d7e e5bc 922f 8cbd
00000100: c6ad a23d 2df1 b23d 756a 0f3e 35ab 46be
00000110: 2ec0 373d aa25 0ebe dc8d 25be 9413 79bc
00000120: 48a4 b33d d78c 95bd cecf b4bd 72cf adbd
00000130: c207 1bbe a98d 0a3e 08fb 90bd e975 d5bd
00000140: fd03 af3d 4a19 a1bc 1fc9 d8bd 1500 2a3d
00000150: dc75 8ebe 80a2 b93d cf08 f7bc 28c5 8abd
00000160: 2db6 4ebd 59cb d23b 9af6 3a3e d69c 3f3e
00000170: cf07 603e cec8 f3bd 21d0 04be 5d8e 0c3d
00000180: 4e17 7ebe dc2d 0d3e 6fd1 923e 4ed9 993d
00000190: b9a5 813d c6f3 023e 68f2 1abe 696b afbd
000001a0: 174d 373c fef0 82bc 297c c63d b3f9 27be
000001b0: b49d e9bd bad3 28be 9aa7 70bd 6fc8 e73d
000001c0: 8026 843d 8c9b d13d df2c f03d aff4 14bd
000001d0: 1b40 35be a1b8 93bd c9df e53d 2f3f 20be
000001e0: bae4 acbd 5d3a dcbe c83d 7fbd dd91 f43d
000001f0: 8f26 e43c 6f15 16be 0bfd 0a3e 368b 073e
00000200: ea7d 163e 5b32 acbd 6dc4 d93d d510 9b3e
00000210: 4023 223e 6a25 133d e7ce 2fbe cff8 2a3d
00000220: dac9 fcbc c08d 14be fd09 613e 6462 173d
00000230: e5fd 443e 502f 4c3e 4cc6 06be 7430 033e
00000240: dbff d2ba 46b9 25be 642f e9ba 1807 e6bd
00000250: 7ef0 39be 09e4 8f3d 7417 b1bc 31a1 d2bd
00000260: 8b57 303d b413 003d 9c5d 993d d3a3 8bbd
00000270: 0890 4cbe 091d d9bd 1925 263d 2bbc 6d3c
00000280: 5637 32be b9d8 4e3d 0619 81be 3466 a6bd
00000290: 6315 d0bc 1f5a 143e 795b d3bb cef0 96be
000002a0: 4074 6dbd eb95 30bd 3731 f1bd 211a febd
000002b0: 3313 d53d 0881 d9bd b886 963e 414f edbd
000002c0: a22b ca3d 06a7 12be f456 d1bd bf52 403e
000002d0: 8664 053e 7e22 f3b8 ccbb 133e c69b 27be
000002e0: 6cfe bcbe 906c 013e a601 46bc 65d5 e3bc
000002f0: eaee 5fbd c85a 233e a4eb c23d 8f38 50bd
00000300: 8b02 8c3d ec0b 893b ee11 eebc 08e2 41bc
00000310: f7a8 eebc ee49 053e 78d7 c8bd 9cea b3bc
00000320: be2f 0bbe 4855 93bd ef20 19be 503a 453d
00000330: 9a75 36be 0fa6 083d 4dab 89be ca3d 0bbe
00000340: 4a22 b33e 65c7 8ebd 587d 47be 1d32 d03b
00000350: 7e72 bcbd 9bbf 253d 2e10 b03d 294f c33d
00000360: fdd3 84bc bf69 8c3e 59ab 82be d1ba 63bd
00000370: 0dc5 8abd 3936 2fbe 19fa 893d 462c d9bd
00000380: 275d 27be 627a 3dbd f674 d3bd f53a 17be
00000390: ff2b c93b 99ef 8fbd 299b f0bc d6ae b93d
000003a0: 7fe2 5ebe e646 dc3d 845c c33e 2982 d5bd
000003b0: bb0a be3d 34ec 843e 41a9 243e 9c0a 333e
000003c0: 96a4 2bbe 47d3 903e 4afd 3fbe 8e52 cc3e
000003d0: 0718 12be 0e1d 84bd d9ea 1c3d 6e0c b33d
000003e0: 6c82 39bd 40bb dcbd 435e 4cbe b608 203d
000003f0: 07ee 05be dbc0 41be 4482 843d b483 fc3d
-0.03751343 -0.2619014 0.11902974 -0.15342923 -0.047093786 -0.028403973 -0.27213106 -0.10569583
-0.163669 -0.26213446 0.22969624 0.08605075 -0.30177253 -0.06094547 -0.0096029015 -0.16350059
-0.16145997 0.00832252 0.035655193 -0.08366867 0.1828933 -0.2511192 0.022473838 -0.2765445
-0.060808063 -0.34212527 -0.15114889 -0.020259084 -0.14477876 0.0772791 0.016785163 -0.055168603
-0.14958839 -0.016826244 -0.10175212 0.004873736 0.011825449 -0.23305973 0.13458197 -0.06056986
-0.16514713 -0.17121366 0.044379335 -0.02975814 0.07903321 0.068420984 -0.0007274782 -0.002892806
-0.037342615 0.15073751 -0.022474552 -0.034395732 -0.025286682 -0.15945111 -0.12322548 -0.2740262
-0.27333057 0.0826831 -0.0677951 0.15024655 -0.13188247 0.013940909 -0.028014416 -0.06845011
0.07943301 0.08737407 0.14005454 -0.19401248 0.04486101 -0.13881555 -0.16167396 -0.015202422
0.087715685 -0.07302254 -0.08828698 -0.08486833 -0.15139678 0.13530602 -0.070791304 -0.1042288
0.085456826 -0.01966538 -0.10585236 0.041503984 -0.27824295 0.090641975 -0.030155567 -0.06775886
-0.050466705 0.0064329323 0.18258134 0.18712172 0.21877979 -0.11903535 -0.1297002 0.034315456
-0.24813578 0.13787025 0.2867541 0.07512151 0.06330437 0.12788305 -0.15131533 -0.08565409
0.011187813 -0.015984055 0.096916504 -0.16403846 -0.114070326 -0.16487017 -0.058753587 0.113175265
0.06452656 0.10234746 0.117273085 -0.03636616 -0.17700236 -0.072129495 0.11224324 -0.15649103
-0.08442064 -0.43013278 -0.06231478 0.11941884 0.027850417 -0.14656614 0.1357309 0.13236699
0.1469647 -0.08408042 0.10633168 0.3028628 0.1583376 0.035924353 -0.1716877 0.04174119
-0.03085797 -0.14507198 0.21976466 0.036959067 0.19237478 0.19939923 -0.13161582 0.12811452
-0.0016097979 -0.16183957 -0.0017790613 -0.11231822 -0.18158147 0.07025916 -0.021617629 -0.10284651
0.043052237 0.03126879 0.07488558 -0.06818356 -0.19976819 -0.10601241 0.040562723 0.014510195
-0.17403921 0.05049965 -0.25214404 -0.081249624 -0.025400823 0.14487503 -0.0064501134 -0.29480594
-0.057972193 -0.043111723 -0.11776965 -0.124073274 0.104040526 -0.10620314 0.29399657 -0.11587382
0.098716035 -0.14321527 -0.10221663 0.18781565 0.13026628 -0.000115935676 0.14427108 -0.16368017
-0.36912858 0.1263907 -0.012085354 -0.027811715 -0.054671206 0.15952599 0.09517601 -0.05083519
0.068364225 0.0041823294 -0.029061284 -0.011833675 -0.029133303 0.13016483 -0.098067224 -0.021962456
-0.13592431 -0.071940005 -0.1495397 0.048151314 -0.17818299 0.03336149 -0.26888505 -0.1359779
0.34987098 -0.06971625 -0.19481409 0.00635363 -0.09201525 0.040465932 0.08596836 0.09536583
-0.016214365 0.27424428 -0.25521353 -0.055598084 -0.06775866 -0.17110528 0.067371555 -0.106041476
-0.16344129 -0.04625929 -0.10325043 -0.14768584 0.006139278 -0.070281215 -0.029370861 0.090665504
-0.21766089 0.1075571 0.3815652 -0.10425217 0.092793904 0.2596146 0.1608019 0.17484516
-0.16762003 0.28286192 -0.18748966 0.39906734 -0.14266978 -0.06450854 0.038309906 0.08742605
-0.045290396 -0.107779026 -0.19957833 0.039070807 -0.13079081 -0.18921225 0.06470159 0.12329808

bias f4 [64]
00000000: 71eb 1b3b cff1 edbc d856 1b3d 957f b7bc
00000010: c85d 19bd 5e84 9b3c f3d2 71bb 4e71 e73c
00000020: d6b5 cb3b 2cf5 a83c a914 bebc 7215 143d
00000030: c51d e6bc 65a6 653b 0a5d 0b3d 0184 1f3d
00000040: 0622 3abd 175e a83d ab0f 333c 73ce 98bb
00000050: a073 2c3c 2bfa 763d 3e81 9dbc 8265 d5bc
00000060: db80 c93b 9ac3 2fbb e5ea 05bd b2f4 da3a
00000070: 5260 183d 26b1 c83b 1617 d73c fe93 d8bc
00000080: 4290 063c 9b74 90bc b5cb 27bc 5985 62bb
00000090: 68f2 2a3d d7c0 893b fcf1 98bd f9b1 c13b
000000a0: 9ff8 8e3c 60c2 d7bc 511e c0bc aa28 84bd
000000b0: 4b78 ec3c 556a 983c c69d a03b d497 5e3c
000000c0: a35e 0abc 69e4 1bbc 4dfe a4bb 3518 a03c
000000d0: 0d9f ecbb c21f 28bd d936 00bd 5751 7d3a
000000e0: 0c1e 6dbd d9dc 4cbc 0ac3 f63c 0691 1d3d
000000f0: e3fc 0c3d 7d48 a63c e032 dabc 26ac 8c3c
0.0023791457 -0.029045967 0.037924618 -0.022399703 -0.037442952 0.018984016 -0.0036899417 0.02825227
0.006216745 0.02062472 -0.02320321 0.036153264 -0.028090367 0.0035041806 0.034024276 0.038944248
-0.045442604 0.08221071 0.0109290285 -0.0046632825 0.010525614 0.060297173 -0.019226667 -0.02604938
0.006149394 -0.0026819468 -0.032694716 0.0016705005 0.037201233 0.0061246334 0.026256125 -0.026437756
0.008213105 -0.017633727 -0.010241439 -0.0034564345 0.041735083 0.0042038965 -0.0746803 0.0059111086
0.017452536 -0.026337802 -0.023451956 -0.064530686 0.028865954 0.01860539 0.0049016206 0.013586003
-0.008445415 -0.009514906 -0.005035198 0.019542793 -0.007221109 -0.04104591 -0.031302307 0.00096633047
-0.057889983 -0.012503826 0.030122299 0.038468383 0.03442086 0.020298237 -0.026635587 0.01717193

weight f4 [1, 64]
00000000: 9fab c53d 01e0 df3d 7f9f 1abd 8254 de3d
00000010: 8a62 7dbd 9293 ab3c 4243 cfbd 3927 93bd
00000020: df18 493e b07e 13bd a546 0b3d 801c bd3d
00000030: 3249 d73d bd96 553d adf2 64bd a0b4 7a3c
00000040: a218 073d 2bbe 113e 0dee 6dbb cd97 2fbe
00000050: c1bd 003c 0903 a3bd 7627 19bd 2e2d abbe
00000060: 2a55 d23d b394 01be 2a17 373d b435 acbd
00000070: 204d 2f3e d1fd 703d 6798 19bd 09a3 b73c
00000080: 44a5 ecbc 5ba5 b4bd 772a 173d 6a25 5f3d
00000090: b963 16be 3e64 7e3d bd16 293d c67a f0bd
000000a0: 0016 acbd e725 3d3d d91c a2bd ce8f 16be
000000b0: 44c3 803d 3506 4c3d bc6c a43d 77b9 b73e
000000c0: 5421 23bd 1500 663d 25ba dbbc a2cd 0e3e
000000d0: 2904 cb3d ef81 7abd 614e 7fbd c76a 15bd
000000e0: 4bb1 dabd 96ad d03d 3c21 023e 3b0c 8bbc
000000f0: 2c8d 643e 37ec 87bd f30e 06be 6ccc b8bc
0.09651875 0.10931397 -0.037749764 0.10855962 -0.061861552 0.02094439 -0.1012025 -0.071852155
0.19638394 -0.03600949 0.03400292 0.092339516 0.10512008 0.05214571 -0.055895496 0.015301853
0.032982476 0.142327 -0.003630522 -0.17147751 0.007857741 -0.07959563 -0.03739115 -0.33432907
0.1027015 -0.1265438 0.044699825 -0.084086806 0.17119265 0.05883581 -0.037498858 0.022416608
-0.028887399 -0.088206016 0.036905732 0.05447904 -0.14686479 0.062107317 0.04128145 -0.11742167
-0.08402634 0.046178725 -0.079156585 -0.14703295 0.06287244 0.049810607 0.08028552 0.35883686
-0.039826706 0.056152422 -0.026822159 0.1394563 0.09912903 -0.06115907 -0.062330607 -0.036478784
-0.10678347 0.10189359 0.1270799 -0.016973605 0.22319478 -0.06636851 -0.1309164 -0.022558413
