scripts/storage/GridCity/model.pt (torch_old, 76649 bytes, 11 tensors)

weight f4 [16, 3, 2, 2]
0	0xbe8134aa	-0.25235492
1	0x3e0d3823	0.13790946
2	0xbe201372	-0.15632418
3	0xbc1b197e	-0.009466527
4	0xbf13814b	-0.5761916
5	0x3ef4ccec	0.47812593
6	0xbe4d8ec2	-0.20073989
7	0x3f224edf	0.634016
8	0x3d0d5b00	0.034510612
9	0xbebd2291	-0.36940435
10	0xbc3f4393	-0.011673826
11	0xbd83d4da	-0.064370826
12	0x3ed2fd83	0.4120904
13	0xbeddba73	-0.43306312
14	0x3bd15d23	0.0063892766
15	0xbe331339	-0.17487802
16	0xbda55bd6	-0.08074157
17	0xbfa17690	-1.2614307
18	0x3f390469	0.72272354
19	0x3e450d52	0.19243363
20	0xbd88ed4a	-0.06685884
21	0xbf464b44	-0.77458596
22	0xbe895dad	-0.2682928
23	0xbe191a40	-0.1495142
24	0xbd171a1d	-0.036890138
25	0x3e0668ca	0.13125911
26	0x3d0e1499	0.034687612
27	0x3d26c26c	0.04071276
28	0xbfb41ee0	-1.4071922
29	0x3e9cdedd	0.3063878
30	0x3c9db9d2	0.019253645
31	0x3e88fdf9	0.26756266
32	0x3eae9f43	0.34105882
33	0xbf04b903	-0.51844805
34	0xbf1f4c8a	-0.62226164
35	0xbee89e64	-0.45433342
36	0x3e8e57c3	0.27801332
37	0xbe9b97ab	-0.3038915
38	0x3ebef02f	0.3729262
39	0xbe90e418	-0.28299022
40	0x3e9d9a2b	0.30781683
41	0xbefbff8a	-0.49218398
42	0xbd817934	-0.06321946
43	0xbf34524a	-0.70438063
44	0xbeb7fcf2	-0.3593517
45	0x3ec7bcab	0.3901113
46	0xbd9381f5	-0.07202522
47	0xbe1d391f	-0.15353821
48	0xbeaddf60	-0.33959484
49	0xbf1cc6f4	-0.6124108
50	0xbef013be	-0.46890062
51	0xbeef226e	-0.46705955
52	0x3e44f8fb	0.19235604
53	0xbffe2070	-1.9853649
54	0x3e3ce8c2	0.18448165
55	0x3d41aee0	0.047285914
56	0x3dd555ea	0.104167774
57	0xbeffa980	-0.49934006
58	0x3e5e179f	0.21688698
59	0xbd4eb511	-0.050465647
60	0xbee3f98d	-0.4452633
61	0x3e88df01	0.26732638
62	0xbe37c5d0	-0.17946553
63	0x3eb53886	0.35394686
64	0x3d7da770	0.06192726
65	0xbde1d97a	-0.110278085
66	0x3e1800f6	0.14844117
67	0xbeca812f	-0.39551684
68	0xbeac10d1	-0.3360658
69	0xbe96db3f	-0.29464146
70	0x3d406bb5	0.046977717
71	0xbe95bc0b	-0.29245028
72	0x3e005fdd	0.12536569
73	0xbeb6e598	-0.3572204
74	0x3eb6c82a	0.35699588
75	0x3d860364	0.065436155
76	0xbd244a12	-0.0401097
77	0xbf108fd9	-0.56469494
78	0xbfff38a7	-1.9939164
79	0xbd8d2633	-0.068920515
80	0x3c91fe24	0.017821379
81	0xbf2b34a9	-0.6687723
82	0x3df3c48f	0.11902725
83	0x3d544df0	0.05183214
84	0x3edb2c87	0.4280741
85	0xbeb47891	-0.35248235
86	0xbedac14a	-0.42725593
87	0x3e8b379b	0.2719086
88	0xbde18509	-0.110117026
89	0x3d7db654	0.06194146
90	0x3ee79f10	0.45238543
91	0xbfb53eb8	-1.4159765
92	0x3e0c8bb9	0.13725175
93	0xbe2562c4	-0.16150957
94	0xbecc946d	-0.3995699
95	0xbe94ea39	-0.29084948
96	0x3da9f718	0.082990825
97	0xbed1d748	-0.4098456
98	0x3db6bda7	0.08922892
99	0xbe057f75	-0.13036902
100	0x3ef794fc	0.48355854
101	0xbe43970f	-0.19100593
102	0xbde2a435	-0.11066476
103	0x3ea6d9d8	0.32588077
104	0xbeb2616a	-0.34839946
105	0xbf235583	-0.63802356
106	0x3ee6e2d0	0.4509492
107	0xbef2e88f	-0.47443053
108	0xbda3b689	-0.079938
109	0xbdcdf7eb	-0.10057052
110	0xbe507170	-0.20355773
111	0x3c2a76a8	0.010404266
112	0xbedfde5b	-0.4372433
113	0xc00b944c	-2.1809263
114	0x3d2f48b9	0.042793963
115	0x3ee24135	0.44190374
116	0x3e853b04	0.26021588
117	0x3de49465	0.111611165
118	0xbee537af	-0.44769046
119	0xbcfba09d	-0.030716235
120	0xbdd34a71	-0.10316933
121	0x3c7e8531	0.015534685
122	0x3d93c7ef	0.07215869
123	0xbe3175d5	-0.17330106
124	0xbc71122b	-0.014713804
125	0xbf899c7d	-1.0750881
126	0xbe386233	-0.1800621
127	0xbe38d74d	-0.1805088
128	0x3eb8a184	0.36060727
129	0x3eb0fc35	0.3456742
130	0x3e7b3be4	0.24534565
131	0x3dda567c	0.10661027
132	0x3eae43fd	0.34036246
133	0x3e76c061	0.24096824
134	0xbdda0f46	-0.106474444
135	0xbe8b769a	-0.27238923
136	0x3edbdf49	0.4294379
137	0xbe7c3c32	-0.24632338
138	0xbe7840c7	-0.2424346
139	0xbf41665f	-0.7554683
140	0xbcfad669	-0.030619817
141	0xbda63328	-0.08115226
142	0xbea21d84	-0.31663144
143	0x3e395717	0.18099628
144	0xbdaceea6	-0.08443956
145	0xbe65a9de	-0.2242808
146	0x3e1dbb5d	0.15403505
147	0x3caac4f5	0.02084587
148	0x3e3d640d	0.18495198
149	0x3f016766	0.505484
150	0xbede0a8c	-0.43367422
151	0x3dac8558	0.08423871
152	0xbb8ac75b	-0.004235191
153	0xbec5ed8e	-0.38657802
154	0xbf1943c6	-0.5986904
155	0xbaa036d5	-0.0012223372
156	0xbef6388c	-0.48090017
157	0xbe579643	-0.21053414
158	0x3ef20c82	0.47275168
159	0xbe07cae7	-0.13260995
160	0xbf1cd87e	-0.6126784
161	0xbf121d87	-0.57076305
162	0x3d985dde	0.07439779
163	0x3eabef94	0.3358122
164	0xbe4b213c	-0.19836897
165	0x3d76aa00	0.06022072
166	0x3c51c453	0.012803155
167	0xbda7e508	-0.08197981
168	0xbea62ed7	-0.3245761
169	0xbd051be9	-0.03249732
170	0xbdca0b9d	-0.09865496
171	0xbc81b32c	-0.015832506
172	0x3ebc3e19	0.36766127
173	0xbf09c3fc	-0.53814673
174	0x3e44df44	0.19225794
175	0xbe0508fe	-0.12991711
176	0x3db96e67	0.09054261
177	0x3e2b6629	0.1673819
178	0xbe2ffbc9	-0.17185892
179	0x3ef21422	0.47280985
180	0xbd82fff0	-0.063964725
181	0x3d135005	0.035964984
182	0xbe6ae230	-0.22937846
183	0x3d8436e8	0.06455785
184	0xbe694ba8	-0.22782767
185	0x3e8ef476	0.27920884
186	0xbfd68679	-1.6759788
187	0xbe942b91	-0.2893949
188	0xbe5b0492	-0.21388462
189	0x3db3a7bb	0.087722264
190	0x3e9c9eda	0.30589944
191	0xbe972017	-0.2951667

bias f4 [16]
0	0xbe870b22	-0.2637568
1	0x3e83cd17	0.2574241
2	0x3dcfe4de	0.10151075
3	0xbe60829b	-0.21924822
4	0xbe13abb9	-0.14420976
5	0xbe07c359	-0.13258113
6	0x3e4066a4	0.18789154
7	0xbdbf6dbd	-0.09347103
8	0x3dea0108	0.11425978
9	0xbefae44b	-0.490023
10	0x3e0c296a	0.13687673
11	0xbe7acec3	-0.24492936
12	0x3a8e708a	0.001086728
13	0x3e4c4830	0.19949412
14	0xbe189e5c	-0.1490416
15	0x3dbfcc33	0.0936512

weight f4 [64, 16, 2, 2]
0	0x3ce0854d	0.027407313
1	0xbe741c6d	-0.23838969
2	0xbe7d57e6	-0.24740562
3	0x3e940e8f	0.28917357
4	0xbe654156	-0.22388205
5	0xbe3283af	-0.17433046
6	0x3e7e9dc0	0.24864864
7	0x3e19442a	0.14967409
8	0x3d255509	0.0403643
9	0xbe98961a	-0.29802018
10	0xbef8b59b	-0.48576054
11	0x3eded6ed	0.4352335
12	0xbe0bc65c	-0.13649887
13	0x3e2978dc	0.1655001
14	0x3e4fe406	0.20301828
15	0xbf13a704	-0.5767672
16	0xbe3cd5c6	-0.18440923
17	0xbd18335d	-0.03715836
18	0xbe9ecfd2	-0.3101793
19	0x3d348e72	0.04408116
20	0x3e1fcf45	0.15606411
21	0x3e3cf0a4	0.18451172
22	0xbe5c3a0a	-0.21506515
23	0xbeade543	-0.33963975
24	0x3d3e08a7	0.04639497
25	0xbd5a5617	-0.053304758
26	0xbeb509a6	-0.35358924
27	0x3e33f23e	0.17572877
28	0x3e006153	0.12537126
29	0x3d03ab6b	0.0321459
30	0xbc8c1fe5	-0.017105052
31	0xbe161aa9	-0.14658608
32	0xbe87ae04	-0.2649995
33	0xbe3dc77c	-0.18533128
34	0xbeaeb672	-0.3412357
35	0x3e1d5c0b	0.15367143
36	0xbd8e5bfe	-0.0695114
37	0x3e0d48d8	0.13797319
38	0xbdead51b	-0.11466428
39	0x3dd62578	0.10456365
40	0xbd39a337	-0.04532167
41	0x3dbfb466	0.0936058
42	0x3e49c0fa	0.19702521
43	0xbd0c3af8	-0.034235924
44	0x3d4cc8e5	0.049996275
45	0x3e1b7393	0.15180807
46	0xbe04540d	-0.12922688
47	0xbee7e702	-0.45293432
48	0xbe33a163	-0.17542033
49	0xbecc2a28	-0.39875913
50	0xbd86952e	-0.065714225
51	0xbd7932e1	-0.060839538
52	0xbdf4ef81	-0.11959744
53	0xbe477d43	-0.19481377
54	0xbe99a74e	-0.30010456
55	0x3e311124	0.17291695
56	0xbeb6ab92	-0.35677773
57	0x3cdda1dd	0.027054721
58	0x3e5341cf	0.20630573
59	0xbe5e6cee	-0.21721241
60	0xbc659132	-0.014011668
61	0xbe2aeb00	-0.16691208
62	0xbeaeecdd	-0.34165087
63	0x3d04f553	0.032460522
64	0xbc8821a5	-0.016617605
65	0x3e2d0d67	0.16899644
66	0x3d3c98b8	0.04604408
67	0x3e0e0706	0.13869867
68	0xbe1dc4c6	-0.15407094
69	0x3e94b460	0.29043865
70	0xbf04a103	-0.51808184
71	0xbdedc31e	-0.11609481
72	0xbc9d563d	-0.01920616
73	0x3e23dbcf	0.16001819
74	0x3e8b08aa	0.27155048
75	0xbcf94cbd	-0.0304321
76	0xbf0588de	-0.5216197
77	0xbd1dfab5	-0.03856917
78	0x3dc0aa7f	0.094075195
79	0xbd81debb	-0.063413106
80	0x3e127a66	0.14304504
81	0x3d0ccfef	0.03437799
82	0x3e2546cd	0.1614029
83	0xbce1ac85	-0.027548084
84	0xbdc18f80	-0.094511986
85	0xbbd3f33a	-0.006468204
86	0xbe89f78c	-0.26946676
87	0xbd02afab	-0.03190581
88	0xbe1c15bb	-0.15242665
89	0xbec636cc	-0.38713682
90	0xbe6618b8	-0.22470367
91	0x3cfa6bb2	0.030568931
92	0xbe6ff88f	-0.23434661
93	0x3e961553	0.29313144
94	0x3e2dc755	0.1697057
95	0x3d5eb04c	0.05436735
96	0x3e643016	0.22283968
97	0xbe4af350	-0.19819379
98	0x3c9df014	0.019279517
99	0x3ee33836	0.44378823
100	0xbe395998	-0.18100584
101	0x3f06c310	0.5264139
102	0xbd89404f	-0.06701719
103	0xba915308	-0.0011087367
104	0xbe872708	-0.26396966
105	0x3dde8f20	0.10867143
106	0x3e3855f3	0.18001537
107	0xbe8fa716	-0.28057164
108	0xbecf3108	-0.40467095
109	0xbe222ff2	-0.15838602
110	0xbc7bcde3	-0.015368911
111	0x3d51b15b	0.05119453
112	0xbe56895e	-0.20950839
113	0xbe6dad10	-0.2321055
114	0xbed38c4f	-0.41317984
115	0x3d8b4c35	0.06801645
116	0x3d5ac53a	0.053410746
117	0xbc8d6d4f	-0.017264036
118	0xbe6614a1	-0.22468807
119	0x3e7ad935	0.2449692
120	0x3d0dfde6	0.034665965
121	0x3dade799	0.08491439
122	0x3e750d8b	0.23930947
123	0xbd95bcda	-0.07311411
124	0x3e06da8a	0.13169304
125	0xbee2c19e	-0.44288343
126	0x3dc5c72c	0.0965713
127	0x3e84673e	0.25860018
128	0xbe9763e3	-0.29568395
129	0xbece9e7c	-0.4035529
130	0xbe3fa7fc	-0.18716425
131	0x38f934eb	0.00011883102
132	0xbd3a5241	-0.0454886
133	0xbf040a73	-0.51578444
134	0xbe0980b2	-0.13428
135	0x3eb55784	0.35418332
136	0x3a211856	0.0006145289
137	0xbeba7fce	-0.36425632
138	0xbe8dbe4a	-0.27684242
139	0x3dcaa366	0.09894447
140	0xbeb8daca	-0.36104423
141	0xbe31f43a	-0.17378321
142	0x3e9b374f	0.30315635
143	0x3db3601d	0.087585665
144	0xbec848f3	-0.39118156
145	0xbe67866f	-0.22609876
146	0x3a3329eb	0.00068345544
147	0x3ea03d9b	0.31297
148	0x3e8266ca	0.25469047
149	0xbe05b275	-0.13056357
150	0x3e923cd2	0.28562027
151	0x3d0ec55c	0.034856185
152	0xbc464ffc	-0.012104031
153	0xbea305f5	-0.31840482
154	0xbc408054	-0.011749346
155	0xbd4063ca	-0.046970166
156	0x3ef978b7	0.4872491
157	0xbeb4a8e6	-0.3528511
158	0xbeca7c23	-0.39547834
159	0xbcc46d73	-0.02397797
160	0xbe08efd9	-0.13372745
161	0xbeef8150	-0.46778345
162	0xbe9ca09e	-0.3059129
163	0x3e7389aa	0.23782983
164	0x3d16dc01	0.036830906
165	0xbe0b03db	-0.1357569
166	0xbdf8ac29	-0.12142212
167	0xbdde0478	-0.10840696
168	0xbe61f1b1	-0.22064854
169	0xbcd705ac	-0.026247822
170	0x3c788de8	0.015170552
171	0xbde645d4	-0.112437874
172	0xbde2ce0e	-0.11074458
173	0xbe354f7a	-0.17706099
174	0x3e8258b0	0.25458288
175	0x3dadcac9	0.08485944
176	0x3d4ad9cb	0.04952411
177	0x3e7bd71d	0.24593778
178	0xbe2fe7b6	-0.17178234
179	0x3e38dc48	0.1805278
180	0x3d0eccf5	0.03486343
181	0xbcd763b1	-0.026292654
182	0xbd9bfa74	-0.076161295
183	0x3e31f188	0.17377293
184	0xbe9cd60c	-0.30632055
185	0xbe812ebf	-0.25230977
186	0x3e5170b6	0.20453152
187	0x3d3675a0	0.04454577
188	0xbda029ed	-0.07820497
189	0xbe5bf0f8	-0.21478641
190	0x3c9fcf5c	0.019508056
191	0x3e3ced8d	0.18449993
192	0xbe1dd7da	-0.15414372
193	0xbc078bc5	-0.00827307
194	0xbe2754f6	-0.16341004
195	0xbdca410a	-0.098756865
196	0x3dc64f32	0.09683074
197	0xbf1b5b12	-0.6068584
198	0x3d8864c3	0.06659844
199	0xbd808dbc	-0.06277034
200	0x3dab5011	0.08364881
201	0x3c57ed69	0.013179162
202	0xbe84fbde	-0.2597341
203	0x3e24980f	0.16073631
204	0x3da65f98	0.08123702
205	0xbd624065	-0.055237193
206	0x3db39b78	0.08769888
207	0x3eb28208	0.3486483
208	0x3bd0b328	0.0063690133
209	0x3e660bd6	0.22465453
210	0xbd9a9d3d	-0.07549522
211	0xbcf70ce0	-0.030157506
212	0xbeb645e5	-0.356002
213	0x3d32f196	0.043687426
214	0x3c1f624b	0.009728025
215	0xbcff9460	-0.03119868
216	0xbd922028	-0.071350396
217	0xbd3a8fe9	-0.0455474
218	0xbd4b9e61	-0.04971159
219	0xbea1c494	-0.3159529
220	0x3eba4d7b	0.36387238
221	0x3d842d67	0.06453972
222	0x3e381575	0.17976935
223	0x3d0c9bbe	0.034328215
224	0x3e5d0c30	0.2158668
225	0x3c741252	0.014896946
226	0x3cc12d37	0.02358113
227	0xbec4a7d8	-0.38409305
228	0xbc69ae54	-0.0142627545
229	0x3e8526e1	0.26006225
230	0xbe6d2829	-0.23159851
231	0x3ee571d7	0.44813415
232	0xbd2946f8	-0.041327447
233	0x3eddeab0	0.43343115
234	0xbeaf0b54	-0.3418833
235	0x3eb021e0	0.34400845
236	0xbd79c049	-0.060974393
237	0x3da0c954	0.078509
238	0x3d022909	0.031777415
239	0x3d6dc8e9	0.05805293
240	0xbe6756f3	-0.22591762
241	0xbeed9e39	-0.46409777
242	0xbd7900ed	-0.0607919
243	0xbd9aa8e3	-0.07551744
244	0x3e4ddbfc	0.20103449
245	0xbe86fb01	-0.26363376
246	0x3dfeecd4	0.12447515
247	0xbd3e066b	-0.04639284
248	0xbcfaefc8	-0.030631915
249	0x3d95ad9b	0.07308503
250	0x3c80a29c	0.015702538
251	0x3d850161	0.06494404
252	0x3df81adc	0.12114498
253	0xbd954368	-0.07288247
254	0xbcd79108	-0.026314273
255	0xbe95eea5	-0.29283634

bias f4 [64]
0	0xbe83b7b2	-0.25726086
1	0xbe19d6f1	-0.150234
2	0xbe1448eb	-0.14480941
3	0xbda8e967	-0.08247643
4	0x3e476abd	0.19474311
5	0xbd833f3f	-0.064085476
6	0x3c150fd5	0.009098013
7	0x3d09da00	0.033655167
8	0x3e29aa32	0.1656883
9	0x3e3f5bba	0.18687335
10	0xbde36cb1	-0.111047156
11	0x3e37ff5a	0.17968503
12	0xbd3950f7	-0.04524323
13	0x3c1e5fea	0.009666422
14	0xbcc11a4e	-0.023572113
15	0x3cd91373	0.026498532
16	0xbe056dca	-0.13030162
17	0xbe9c2fca	-0.3050521
18	0xbe063e9d	-0.13109823
19	0x3df2466f	0.118298404
20	0x3e042dbd	0.12908073
21	0xbd46753b	-0.048451643
22	0x3df1f066	0.118134305
23	0xbacd3bd7	-0.0015658092
24	0xbd729df8	-0.059232682
25	0xbe2d1c5a	-0.16905347
26	0xbe67d271	-0.22638871
27	0x3dd54a19	0.10414524
28	0xbe048a2b	-0.12943332
29	0xbcf6158a	-0.030039568
30	0xbd1b1f18	-0.03787145
31	0xbe69d5d2	-0.22835472
32	0xbe662998	-0.22476804
33	0xbc924130	-0.01785335
34	0xbe27b408	-0.1637727
35	0xbe79a8fc	-0.24380869
36	0x3e70d99d	0.23520513
37	0x3e5e96c9	0.21737207
38	0xbe60d92f	-0.21957849
39	0x3e84451e	0.25833982
40	0x3ea41d66	0.3205368
41	0xbe118cd9	-0.14213885
42	0xbdd6b633	-0.104839705
43	0x3d3b2c39	0.04569647
44	0x3d8b4dfc	0.06801984
45	0x3df0672e	0.1173843
46	0xbe461468	-0.19343722
47	0xbe6a68f8	-0.22891605
48	0xbc862654	-0.016375698
49	0x3df1324b	0.11777171
50	0xbd05ca7b	-0.032663804
51	0xbc3903ae	-0.011292381
52	0xbde0b64b	-0.109722696
53	0x3e75d6b3	0.24007683
54	0xbea6fa6e	-0.32612938
55	0xbc826c9f	-0.015920935
56	0x3dcf5759	0.10124082
57	0xbe55657f	-0.20839499
58	0xbea46cc7	-0.3211424
59	0x3ba0cc4e	0.0049071675
60	0xbe76251a	-0.2403759
61	0xbdd15aa7	-0.10222369
62	0xbe83f053	-0.2576929
63	0xbe1bcbed	-0.1521451

weight f4 [64, 64]
0	0xbd2eec4d	-0.042705823
1	0x3d8981b4	0.06714192
2	0x3c1c5778	0.009542339
3	0xbd16162e	-0.036642246
4	0xbd54699f	-0.05185854
5	0x3cc346bd	0.023837442
6	0xbf23730e	-0.63847435
7	0xbf349280	-0.7053604
8	0xbe5c0b58	-0.21488702
9	0xbc436a30	-0.011927173
10	0xbdcfdd11	-0.10149587
11	0xbeb65983	-0.35615167
12	0x3bba7d95	0.00569124
13	0xbeb2e4f7	-0.3494031
14	0xbd8a7354	-0.06760278
15	0xbed2952e	-0.4112944
16	0xbe8098f2	-0.25116688
17	0xbe27f838	-0.16403282
18	0xbe245904	-0.16049582
19	0xbd36d7d5	-0.044639427
20	0xbe55f32d	-0.20893545
21	0xbe5b7d08	-0.21434414
22	0x3c3a89e1	0.011385412
23	0xbeca5dd8	-0.39524722
24	0xbdf0990f	-0.117479436
25	0x3e66eb44	0.22550684
26	0xbedc8384	-0.43069088
27	0xbe7964c4	-0.24354845
28	0x3e55bd15	0.2087291
29	0xbed092cb	-0.40736994
30	0x3e9ff04a	0.31238014
31	0x3cb80ba1	0.022466483
32	0xbc51a92b	-0.01279668
33	0xb9963972	-0.0002865303
34	0xbe07224f	-0.13196681
35	0xbdfd2488	-0.123604834
36	0x3e8edf28	0.2790463
37	0x3cc92387	0.024553074
38	0x3ec25f98	0.37963557
39	0xbdb1b18c	-0.086764425
40	0xbdf35580	-0.11881542
41	0x3ee817a6	0.45330542
42	0x3e52eb8f	0.20597671
43	0xbf22d68a	-0.6360861
44	0x3e0bb4b7	0.13643156
45	0x3e378c8f	0.17924713
46	0xbea97734	-0.33098757
47	0xbdccca09	-0.09999473
48	0x3e365749	0.17806734
49	0x3dfecb32	0.124411
50	0xbdbc1e15	-0.09185425
51	0xbe192478	-0.14955318
52	0x3d2d6bc8	0.042339116
53	0x3e1daad2	0.15397194
54	0xbece460d	-0.4028782
55	0x3e8f5d2e	0.28000778
56	0x3eb0be68	0.34520268
57	0xbebec3f0	-0.37258863
58	0xbe6831f2	-0.22675303
59	0x3e46b99a	0.19406739
60	0x3d880ba7	0.066428475
61	0x3c452a8a	0.012034068
62	0xbdecff00	-0.11572075
63	0x3e1cd165	0.15314253
64	0x3da10129	0.078615494
65	0xbe620fc8	-0.22076333
66	0x3f0cc091	0.54981333
67	0x3e1c8dd0	0.15288472
68	0x3b59b63c	0.0033220192
69	0x3c97a9c9	0.018513577
70	0x3c3e9b1f	0.011633663
71	0x3de4d629	0.1117366
72	0xba307d0b	-0.00067325
73	0xbd97e7a5	-0.074172296
74	0xbd60ad57	-0.05485281
75	0xbdbd9f93	-0.09258952
76	0xbe4a4d84	-0.19756132
77	0x3f2dac6d	0.67841226
78	0x3e163304	0.14667898
79	0x3b47df20	0.0030497983
80	0x3e4cca3f	0.19999026
81	0x3f09c47b	0.5381543
82	0xbce63776	-0.028102618
83	0xbcd50dba	-0.026007522
84	0x3d60ac19	0.054851625
85	0x3eda3faf	0.42626712
86	0x3def41bf	0.11682462
87	0xbe69f1a0	-0.22846079
88	0xbe83d2f7	-0.2574689
89	0x3c8d5b35	0.017255405
90	0x3e6e0ca5	0.23247011
91	0xbdf91935	-0.12163011
92	0x3d4e7058	0.050400108
93	0xbd967439	-0.073463865
94	0x3d59b1d6	0.053148113
95	0xbe47d11f	-0.19513367
96	0xbe0b359a	-0.13594666
97	0x3d5e32c4	0.054247633
98	0xbed067ae	-0.407041
99	0xbe0256c6	-0.12728414
100	0x3e040edf	0.12896298
101	0x3cca7741	0.024715068
102	0x3f1ee8bd	0.6207388
103	0xbe9b81b0	-0.3037238
104	0x3e556478	0.20839107
105	0x3ece3adb	0.40279278
106	0x3e7b673f	0.24551104
107	0x3e156cc8	0.14592278
108	0xbdbc7732	-0.09202422
109	0x3e24e94e	0.16104624
110	0xbe2bfe4f	-0.1679623
111	0x3e180ee3	0.14849429
112	0x3ecce92b	0.40021643
113	0x3e278811	0.16360499
114	0x3f5add29	0.85493714
115	0x3e7f9c0b	0.2496187
116	0x3e07238a	0.13197151
117	0x3ed026d0	0.40654612
118	0x3db66685	0.08906273
119	0x3e8416a0	0.25798512
120	0xbf00a38c	-0.5024955
121	0x3e34cf35	0.17657168
122	0xbe892f8d	-0.2679409
123	0x3ec18702	0.37798315
124	0xbe886650	-0.26640558
125	0xbe5b1b63	-0.21397166
126	0xbe4a6515	-0.19765122
127	0xbd7fd560	-0.06245935
128	0x3d6b4ec6	0.05744817
129	0xbdf8f863	-0.12156751
130	0x3e623074	0.22088796
131	0xbe8bf676	-0.27336472
132	0xbeaf8a1c	-0.34285057
133	0xbda37e48	-0.079830706
134	0xbe019519	-0.12654532
135	0x3f2130c3	0.6296503
136	0xbe22b863	-0.1589065
137	0x3e8e7dd1	0.27830365
138	0x3da582a8	0.08081561
139	0xbe6f9a80	-0.23398781
140	0xbe18e4db	-0.14931051
141	0xbf02c8aa	-0.5108744
142	0x3d987d26	0.07445745
143	0xbe4dbd2e	-0.20091698
144	0x3edc61c0	0.43043327
145	0xbe0c5267	-0.13703309
146	0xbdb00c59	-0.08596105
147	0xbe6473c4	-0.22309786
148	0xbe182e64	-0.14861447
149	0xbf370252	-0.71487916
150	0xbe6ab228	-0.22919524
151	0x3e889f21	0.26683906
152	0xbe05724f	-0.13031887
153	0xbe0c7c72	-0.13719347
154	0xbdaec69d	-0.08533976
155	0xbeb3197c	-0.3498038
156	0xbe1932e4	-0.1496082
157	0xbe6c5021	-0.23077442
158	0xbe1f5739	-0.15560617
159	0xbe855587	-0.26041815
160	0xbda2ad1b	-0.079431735
161	0x3e281ce6	0.16417274
162	0xbe484c7d	-0.19560428
163	0xbd5fe3d4	-0.054660633
164	0xbecb3f13	-0.3969656
165	0xbe9398d7	-0.28827545
166	0xbae1c182	-0.0017223808
167	0xbe89e001	-0.26928714
168	0xbe87f28b	-0.26552233
169	0xbdc5b14d	-0.09652958
170	0xbd5da9f3	-0.054117154
171	0xbdd65cf2	-0.10466947
172	0xbd06959f	-0.032857534
173	0x3e3af0cf	0.18255924
174	0xbebd1433	-0.36929473
175	0xbe71985c	-0.23593277
176	0xbeebbec0	-0.46043968
177	0xbee99981	-0.45624927
178	0xbdd5c8be	-0.10438679
179	0xbd82a6b3	-0.063794516
180	0x3cb38deb	0.021918258
181	0xbdbe2695	-0.09284703
182	0x3bdb6cda	0.0066963257
183	0xbd99a636	-0.07502405
184	0x3dc8afc8	0.097991526
185	0xbe95a2e4	-0.29225838
186	0xbe3222dd	-0.17396112
187	0x3e770267	0.2412201
188	0x3d1e9922	0.038720258
189	0xbe5897bb	-0.2115163
190	0x3c9d392e	0.019192304
191	0xbecb489c	-0.39703834
192	0xbed2303e	-0.4105243
193	0x3e9c3ab4	0.30513537
194	0x3e419f51	0.1890843
195	0xbde7c910	-0.113176465
196	0xbea2eccd	-0.3182129
197	0xbe26c9d3	-0.16287927
198	0xbf2068c7	-0.6265988
199	0xbc59eaca	-0.013300607
200	0xbe355004	-0.17706305
201	0xbcf51157	-0.029915495
202	0x3c0a29d3	0.008432823
203	0x3e8e8f95	0.2784392
204	0xbe9e922a	-0.3097089
205	0x3cf624aa	0.03004678
206	0x3e662e32	0.2247856
207	0xbe109419	-0.14118995
208	0xbdc2687a	-0.094925836
209	0x3e333eda	0.17504445
210	0xbe85f9b0	-0.2616706
211	0x3e011fbc	0.12609762
212	0xbd5eb4c0	-0.054371595
213	0x3e1bb808	0.15206921
214	0xbf2a57b2	-0.6654006
215	0xbce6c17b	-0.02816843
216	0xbf254ba7	-0.6456856
217	0x3e04006f	0.1289079
218	0x3e909d8d	0.28245202
219	0x3de13726	0.10996847
220	0x3d0fc122	0.035096295
221	0xbe8ee16f	-0.27906367
222	0x3dddec82	0.10836126
223	0x3d334e2f	0.043775734
224	0x3e403892	0.1877158
225	0x3eab4d83	0.33457574
226	0xbcb75d36	-0.022383314
227	0xbed06d3c	-0.4070834
228	0xbddd25ad	-0.10798202
229	0xbf287aa1	-0.65812117
230	0xbdaf80c9	-0.08569486
231	0xbd94fd46	-0.072748706
232	0xbdf659e8	-0.12028867
233	0xbe051a8d	-0.1299841
234	0xbe47a131	-0.19495083
235	0xbd4c48c3	-0.04987408
236	0xbdc4e4bd	-0.09613941
237	0x3e7b96b7	0.24569212
238	0x3d59f974	0.053216413
239	0x3ee576e1	0.4481726
240	0x3dbecfef	0.09317004
241	0x3e4a064a	0.19728962
242	0xbd175a95	-0.03695162
243	0xbeae43c2	-0.3403607
244	0x3cb003f5	0.021486262
245	0x3dd2312b	0.10263284
246	0x3e8fec9e	0.28110212
247	0xbca4c636	-0.020114046
248	0xbe987e88	-0.29784036
249	0xbdca4157	-0.09875744
250	0x3c19411a	0.0093539
251	0xbe83cce2	-0.2574225
252	0x3cb9b375	0.02266858
253	0x3d1ef0fd	0.038804043
254	0xbd38728c	-0.045031115
255	0x3e6fc7c0	0.23416042

bias f4 [64]
0	0xbe7cc74a	-0.24685398
1	0x3e09a6a7	0.13442479
2	0xbe76fa1f	-0.24118851
3	0xbd833698	-0.06406897
4	0xbe5d169d	-0.21590658
5	0x3e38ab21	0.1803403
6	0xbd063f19	-0.03277502
7	0x3e1e157b	0.15437882
8	0x3dbc5580	0.09195995
9	0x3e0b89c0	0.13626766
10	0x3ec83ac3	0.39107332
11	0xbc8e8af8	-0.01740025
12	0x3e502165	0.20325239
13	0x3e3fd8ed	0.18735094
14	0xbdd4864e	-0.10377179
15	0xbd243f10	-0.040099204
16	0xbd32a488	-0.04361394
17	0xbe11e6e9	-0.14248241
18	0xbe5c2114	-0.21496993
19	0xbe1557d5	-0.14584287
20	0xbee22106	-0.4416582
21	0xbbf1f9f5	-0.0073845335
22	0x3cfbb25e	0.0307247
23	0x3ea2d49f	0.31802842
24	0x3eb08156	0.34473675
25	0x3edbc0f1	0.4292064
26	0xbe0da581	-0.13832666
27	0x3dfe843a	0.12427564
28	0xbe409265	-0.18805845
29	0xbd901fa5	-0.07037286
30	0x3d46efbf	0.048568483
31	0x3ca04d1c	0.019568019
32	0xbe03b7b4	-0.12863046
33	0x3e592e8e	0.21209165
34	0xbe0a9bfd	-0.13536067
35	0xbdc20d07	-0.09475141
36	0xbdc00b74	-0.093771845
37	0xbe148a2b	-0.14505832
38	0xbdf7ff5d	-0.121092536
39	0xbd25a709	-0.0404425
40	0x3e264c28	0.16239989
41	0xbd54cfca	-0.051955976
42	0x3e4b68cf	0.198642
43	0xbd8fc80c	-0.07020578
44	0x3dc2e45e	0.09516214
45	0xbdaa1948	-0.08305603
46	0x3cd8df79	0.026473748
47	0x3dbaaa7f	0.09114551
48	0xbdc98131	-0.098390944
49	0x3b7b3f6e	0.0038337368
50	0xbde97ff2	-0.11401357
51	0xbd5d1069	-0.053970728
52	0xbdec48f9	-0.11537356
53	0x3dd5eadb	0.10445186
54	0xbe2df399	-0.16987456
55	0x3d882444	0.06647542
56	0x3edb56da	0.428397
57	0x3ea5955b	0.32340512
58	0x3d5dece6	0.054181002
59	0x3e42b444	0.19014078
60	0xbe94ea75	-0.29085127
61	0x3e9c876c	0.3057207
62	0x3e1296c5	0.14315327
63	0x3e56a1ea	0.20960203

weight f4 [7, 64]
0	0xbd7649d4	-0.060129
1	0xbe0dc82a	-0.13845888
2	0xbe859211	-0.26088002
3	0x3e61714c	0.22015876
4	0x3e9c8339	0.30568865
5	0x3dfec825	0.12440518
6	0xbc8161aa	-0.01579364
7	0xbe9c00f2	-0.3046947
8	0x3e849ef6	0.25902528
9	0xbead6f5d	-0.33874026
10	0x3e75884a	0.23977771
11	0xbdde2adf	-0.10848021
12	0x3e51c64b	0.20485799
13	0x3db043bf	0.086066715
14	0xbd0c7ce1	-0.03429878
15	0x3eb73dda	0.35789376
16	0x3def036b	0.11670574
17	0xbe1d4219	-0.15357246
18	0xbd1b0221	-0.037843827
19	0xbe02aada	-0.12760487
20	0x3de9bcc8	0.1141296
21	0x3e3e71a8	0.18598044
22	0xbde02ad5	-0.109456696
23	0xbdcd43b7	-0.10022681
24	0xbe36ec2c	-0.1786353
25	0x3e5915b0	0.2119968
26	0x3e74f669	0.23922123
27	0x3ef54c58	0.47909808
28	0xbe28d68f	-0.16488098
29	0x3f0036a1	0.5008336
30	0xbe0fa88f	-0.14029144
31	0xbdf9e4d6	-0.1220185
32	0x3e5289d5	0.20560391
33	0xbe9b821d	-0.30372706
34	0xbc51cb12	-0.012804763
35	0xbe188e30	-0.1489799
36	0xbdd7485e	-0.1051185
37	0xbe80ef2a	-0.25182468
38	0x3e945f00	0.2897873
39	0xbee393e5	-0.44448772
40	0xbbc47e94	-0.0059965346
41	0x3d0a9f51	0.033843342
42	0xbd82729c	-0.06369516
43	0xbe5ab6a4	-0.21358734
44	0x3decedbe	0.11568783
45	0xbe1c6192	-0.15271595
46	0xbe4b0593	-0.19826345
47	0x3db7613b	0.08954092
48	0x3b89ee71	0.0042093326
49	0x3e01a27c	0.12659639
50	0xbd34bd9a	-0.04412613
51	0xbe416222	-0.18885091
52	0x3e9340d3	0.28760394
53	0x3b0dda35	0.0021644954
54	0xbddae68f	-0.10688507
55	0xbdd3eb1b	-0.10347577
56	0xbe7a5528	-0.24446547
57	0x3ea32ea8	0.31871533
58	0xbe9ff9c9	-0.31245258
59	0xbeabef4f	-0.33581015
60	0xbd403081	-0.046921257
61	0x3e4aa984	0.19791228
62	0xbe84cfcf	-0.25939795
63	0x3c95fee2	0.018310014
64	0x3def973b	0.11698767
65	0x3ec86b2e	0.39144272
66	0xbd375793	-0.04476125
67	0xbe1d1049	-0.15338244
68	0x3e82bd79	0.2553518
69	0x3c6d4f89	0.014484295
70	0xbe527b80	-0.20554924
71	0xbee3f6b4	-0.44524157
72	0x3e2adae1	0.16685058
73	0x3e0cea04	0.13761145
74	0xbe94f0c1	-0.2908993
75	0x3e90fd05	0.2831804
76	0xbe8894fd	-0.2667617
77	0xbcd2ca41	-0.025731208
78	0xbebebc26	-0.3725292
79	0xbe54774c	-0.20748633
80	0xbdea207f	-0.114319794
81	0x3ec0f40a	0.37686187
82	0x3eb6a493	0.35672435
83	0x3e91ce94	0.2847792
84	0x3eb5c36a	0.35500652
85	0xbe11af39	-0.14226998
86	0x3eae24cf	0.34012458
87	0xbebacba3	-0.36483487
88	0x3e420505	0.18947227
89	0xbee2f1f6	-0.44325227
90	0xbe73b37f	-0.23798941
91	0xbd57ef4c	-0.052718446
92	0x3e1b0f69	0.15142597
93	0x3e38d730	0.18050838
94	0x3d37561f	0.044759866
95	0x3e4b9a04	0.19882971
96	0x3e00a2bd	0.1256208
97	0xbe4f801b	-0.20263712
98	0xbd874242	-0.066044345
99	0xbcb74f62	-0.02237672
100	0x3dbd94b8	0.092568815
101	0x3d8d5652	0.0690123
102	0x3e4f7bc5	0.20262058
103	0xbe47fde9	-0.19530453
104	0x3df7e752	0.12104668
105	0x3e5d76ea	0.21627393
106	0xbe949595	-0.29020372
107	0x3d829f94	0.06378093
108	0xbe82572d	-0.25457135
109	0xbce03eb4	-0.02737365
110	0x3e2179f2	0.15769175
111	0xbe26345e	-0.16230914
112	0xbe1ce7b2	-0.1532276
113	0xbec37b7b	-0.38180146
114	0x3e867fec	0.26269472
115	0xbe87fcc9	-0.26560047
116	0x3e398841	0.18118383
117	0x3c8d20fc	0.017227642
118	0x3ce4e6b7	0.027942045
119	0xbdafc433	-0.08582344
120	0x3d6fa617	0.058508005
121	0xbe15a05a	-0.1461195
122	0x3e54cc55	0.20781071
123	0x3e5db23c	0.21650022
124	0x3e6f2e69	0.23357548
125	0x3db51619	0.088421054
126	0xbd8c9cc4	-0.06865838
127	0x3e68d2b7	0.22736631
128	0xbf577797	-0.84166855
129	0xbdee77a5	-0.11643914
130	0x3eadb9ee	0.33930916
131	0xbeafa588	-0.34305978
132	0xbe6a2032	-0.22863844
133	0xbf5905ba	-0.84774363
134	0xbcab0baa	-0.020879585
135	0xbe0815ca	-0.13289562
136	0xbeabdd3d	-0.3356723
137	0x3eca6236	0.39528054
138	0xbe56eb6b	-0.20988242
139	0xbf245e54	-0.64206433
140	0x3a44368c	0.0007484935
141	0x3e559b65	0.2086006
142	0x3ed49814	0.41522276
143	0xbc6c46b1	-0.014421151
144	0xbebe00ae	-0.37109894
145	0x3e818528	0.25296903
146	0xbdde5a67	-0.10857087
147	0x3dbf5c72	0.093438044
148	0xbe65dc08	-0.22447217
149	0x3e728ad7	0.23685776
150	0xbec88fc2	-0.39172179
151	0xbd0b4f59	-0.03401122
152	0xbe9cc9b7	-0.30622646
153	0xbde5f96a	-0.112292126
154	0xbdc7bfac	-0.097533554
155	0xbc26befd	-0.010177371
156	0x3e9ef167	0.3104355
157	0xbed8d071	-0.42346528
158	0xbecc20cc	-0.39868772
159	0x3d934e82	0.071927086
160	0x3e32b44b	0.17451589
161	0x3eea0c0e	0.45712322
162	0x3ea8e32e	0.32985824
163	0x3ea3124a	0.3184989
164	0xbe3914fe	-0.18074414
165	0x3d8ee4e3	0.069772504
166	0x3e0bc8ad	0.1365077
167	0x3eb1ed50	0.34751368
168	0xbf10d812	-0.565797
169	0xbef7765f	-0.48332497
170	0x3e3b2df8	0.18279254
171	0x3e94c177	0.29053852
172	0x3e37c624	0.17946678
173	0x3ecfbae6	0.4057228
174	0x3d8baf3c	0.06820533
175	0x3eec700d	0.46179238
176	0xbf0224cf	-0.50837415
177	0x3e0fd817	0.14047275
178	0xbe1a6ed0	-0.15081334
179	0x3e38fb8a	0.18064705
180	0xbd517353	-0.051135372
181	0xbe8db010	-0.27673388
182	0xbe9e7f8e	-0.30956692
183	0xbe253915	-0.16135056
184	0xbdb0dfa8	-0.08636409
185	0x3e7b2406	0.2452546
186	0x3f0ee3ba	0.55816233
187	0x3e5e1d0b	0.21690767
188	0x3f63abec	0.88934207
189	0xbf17056f	-0.58992666
190	0x3e181f3b	0.14855663
191	0x3f345c06	0.70452917
192	0xbd8a209e	-0.067445025
193	0x3e292d6f	0.16521238
194	0xbe29e506	-0.16591272
195	0xbec5d624	-0.3863994
196	0xbe4de014	-0.2010501
197	0xbe802c53	-0.25033817
198	0xbe975801	-0.2955933
199	0xbe775cb2	-0.24156454
200	0xbdeddae4	-0.11614016
201	0xbe42b210	-0.19013238
202	0x3cb863e2	0.022508565
203	0x3d089777	0.033347573
204	0xbe327dac	-0.17430753
205	0xbe3d4698	-0.1848396
206	0xbdeb5394	-0.11490551
207	0x3ca722d8	0.020402357
208	0x3d3739a0	0.04473269
209	0xbd0e5e5c	-0.034757957
210	0xbd47e974	-0.048806623
211	0x3e2298f0	0.15878654
212	0xbe851e28	-0.2599957
213	0x3e2a6379	0.16639508
214	0x3d1d566a	0.03841249
215	0xbe631d1c	-0.22179073
216	0xbc718953	-0.014742213
217	0x3b1073de	0.0022041718
218	0x3d94a492	0.07257952
219	0x3d2857d3	0.04109938
220	0xbe3bfb56	-0.18357596
221	0xbe5d333a	-0.21601573
222	0xbd62def9	-0.055388425
223	0xbdde6061	-0.108582266
224	0x3e3c331e	0.18378875
225	0xbc457892	-0.012052672
226	0x3d7d39b3	0.061822604
227	0xbea0f979	-0.31440333
228	0x3dbf25a6	0.09333353
229	0x3e4bd01f	0.1990361
230	0xbc823c2d	-0.015897835
231	0x3e66ae06	0.22527322
232	0x3e411b6c	0.18858117
233	0x3d8eb4d7	0.06968086
234	0xbe97a7f3	-0.29620323
235	0x3e3d1b21	0.1846738
236	0xbcbdb556	-0.023157757
237	0xbda0ec4d	-0.07857571
238	0x3d1962b8	0.03744766
239	0xbe167374	-0.1469248
240	0xbe1e7bc6	-0.15476903
241	0xbea7983d	-0.32733336
242	0xbdf36af2	-0.118856326
243	0x3e022259	0.12708415
244	0x3eec63ea	0.46169978
245	0xbe3fbcb2	-0.18724325
246	0xbdc48acd	-0.09596787
247	0x3d52a8e2	0.05143059
248	0x3d75f1a2	0.060044892
249	0x3be3f249	0.006956373
250	0xbd2a4aed	-0.04157536
251	0xbe6dbf83	-0.23217587
252	0x3e9378f9	0.28803232
253	0x3dbdbd8d	0.092646696
254	0xbad26333	-0.0016051292
255	0x3c9791a4	0.018502064

bias f4 [7]
0	0xbdf84781	-0.12123013
1	0x3bdf0628	0.006806154
2	0x3e22f042	0.15911964
3	0xba5533bd	-0.0008133015
4	0x3dea5a95	0.114430584
5	0xbf2f8433	-0.68561095
6	0x3d60bf92	0.054870196

weight f4 [64, 64]
0	0xbe8ce077	-0.27515003
1	0xbe969be5	-0.29415813
2	0x3eb2daec	0.3493265
3	0xbe3efdee	-0.18651554
4	0xbe06d8a1	-0.13168575
5	0xbce8afc4	-0.028404124
6	0xbeac8aa3	-0.3369952
7	0xbc699725	-0.014257227
8	0xbf408984	-0.7520983
9	0xbd99d238	-0.07510799
10	0x3d8a8fd9	0.06765718
11	0x3e393afe	0.1808891
12	0xbe9dfb53	-0.30855808
13	0xbdca46f3	-0.09876814
14	0xbe819055	-0.2530543
15	0x3ec16c92	0.37778145
16	0x3d635966	0.05550518
17	0xbf025f0f	-0.509263
18	0xbee20a1b	-0.44148335
19	0xbec4455d	-0.3833417
20	0x3e036f33	0.12835388
21	0xbf3dd307	-0.7415013
22	0xbe8192e9	-0.25307396
23	0xbf14ec67	-0.5817322
24	0x3d345ca8	0.044033676
25	0xbf38ff74	-0.7226479
26	0xbe9ce0f7	-0.30640385
27	0xbe58cf44	-0.21172816
28	0x3dbc6722	0.091993585
29	0x3e826d1c	0.2547387
30	0x3e71c875	0.23611625
31	0x3e076893	0.13223486
32	0xbf50af4c	-0.8151748
33	0x3ead0773	0.33794746
34	0xbe218d71	-0.15776612
35	0x3e0a38ed	0.13498278
36	0x3ec98e77	0.39366505
37	0xbea476c8	-0.32121873
38	0x3ea3a455	0.31961313
39	0x3f01ae0a	0.5065619
40	0xbe56de07	-0.20983134
41	0xbec54620	-0.38530064
42	0xbe6dec71	-0.23234726
43	0xbdbd920d	-0.092563726
44	0xbe14431a	-0.14478722
45	0x3e2e7d2d	0.17039938
46	0xbe23e996	-0.16007075
47	0x3e5b13e7	0.21394311
48	0x3cb833e8	0.022485688
49	0x3d8337e5	0.064071454
50	0xbf6619ab	-0.89882916
51	0xbdf2cf31	-0.11855925
52	0xbccf267b	-0.025286904
53	0xbf3bf73b	-0.7342412
54	0x3e3596da	0.17733327
55	0xbf0ab61d	-0.5418413
56	0xbe240da3	-0.16020827
57	0x3e192a9e	0.14957663
58	0xbc268d7f	-0.010165571
59	0x3de90b3e	0.113790974
60	0xbeae6dee	-0.34068245
61	0x3ed0625c	0.40700042
62	0x3e7fa34c	0.24964637
63	0xbeb20576	-0.3476979
64	0x3d0d9c0d	0.03457265
65	0x3d2883db	0.041141372
66	0xbe8d5e11	-0.2761083
67	0xbe2cb274	-0.1686495
68	0x3d185137	0.037186828
69	0xbe0e251f	-0.13881348
70	0xbf1d2089	-0.6137777
71	0xbeb80a98	-0.35945582
72	0xbee6229c	-0.4494828
73	0x3ed43408	0.41445947
74	0xbec858c5	-0.39130226
75	0xbf155cd9	-0.583448
76	0xbf1222d4	-0.57084394
77	0xbe9cf384	-0.30654538
78	0xbeb364aa	-0.35037738
79	0xbea2393b	-0.31684288
80	0xbd493f21	-0.04913247
81	0xbdd40466	-0.103524014
82	0x3e572bfe	0.21012875
83	0xbe93cacf	-0.28865668
84	0x3a5ccd4f	0.00084229273
85	0xbe0f6716	-0.14004168
86	0xbdc89735	-0.097944655
87	0xbe4c5a20	-0.19956255
88	0xbdc95a0d	-0.09831629
89	0x3e32908a	0.1743795
90	0x3dae34c4	0.08506158
91	0x3db5364c	0.08848247
92	0x3e3fb69f	0.18722008
93	0xbe82d33d	-0.25551787
94	0xbd662bdf	-0.056194182
95	0xbeb14ac8	-0.34627366
96	0xbee16bd4	-0.4402758
97	0x3dfea29f	0.12433361
98	0x3e76c5c1	0.24098875
99	0xbb857c8c	-0.004073685
100	0x3e90519c	0.28187263
101	0xbe7d6ecc	-0.24749297
102	0xbe5f5697	-0.21810375
103	0xbf1e8199	-0.619165
104	0xbe8c730b	-0.2743152
105	0xbd6c29cb	-0.057657044
106	0x3e3cfdb2	0.18456152
107	0xbdb6a370	-0.08917892
108	0xbc7d80d2	-0.015472608
109	0xbf394ee3	-0.72385997
110	0xbe572a29	-0.21012177
111	0x3f36a99b	0.7135255
112	0xbd91416d	-0.07092557
113	0x3e7b0c79	0.24516477
114	0x3d1e8169	0.038697634
115	0xbdf38a97	-0.11891668
116	0xbe35a0e0	-0.1773715
117	0xbf00f58e	-0.50374687
118	0xbecd1a7c	-0.40059268
119	0x3cdbe72a	0.026843626
120	0xbf44e6ba	-0.7691456
121	0xbf205bec	-0.6264026
122	0xbe22fae5	-0.15916021
123	0x3deb82c3	0.1149955
124	0x3eedff05	0.46483627
125	0xbef3c2d9	-0.47609594
126	0x3e86dd67	0.26340792
127	0xbc446308	-0.0119865015
128	0xbda364d9	-0.079782195
129	0x3e47e446	0.19520673
130	0xbdc4050e	-0.095712766
131	0x3e817069	0.25281075
132	0xbe36a9bc	-0.17838186
133	0x3d13253c	0.03592418
134	0xbee4c77f	-0.44683453
135	0xbe80b509	-0.2513812
136	0x3e0e9f0f	0.13927864
137	0x3e872d53	0.26401767
138	0x3efee59a	0.49784547
139	0xbe22c691	-0.1589606
140	0x3eac5163	0.33655843
141	0xbe204304	-0.15650564
142	0xbe680358	-0.22657526
143	0xbd25fb49	-0.040522847
144	0xbf453263	-0.7703001
145	0xbddd8b7f	-0.108176224
146	0xbd6b25fc	-0.05740927
147	0xbdb6607c	-0.08905122
148	0xbf1322ee	-0.57475173
149	0xbdd91933	-0.106005095
150	0xbd8ce42f	-0.0687946
151	0xbe8d3cbf	-0.27585408
152	0x3e18bb83	0.1491528
153	0xbeb7448f	-0.35794494
154	0x3d27e384	0.04098846
155	0x3d9df44a	0.0771261
156	0xbe1f0e8d	-0.15532894
157	0xbf109dc4	-0.5649073
158	0xbe094926	-0.1340681
159	0x3c8fd819	0.017559098
160	0xbe0ef684	-0.13961226
161	0xbf09f3bf	-0.5388755
162	0xbe375106	-0.17902002
163	0x3a5123d5	0.00079780567
164	0xbea6bae3	-0.32564458
165	0xbd74da9b	-0.05977879
166	0xbdccffca	-0.100097254
167	0xbee9ac05	-0.45639053
168	0x3e0a0966	0.13480148
169	0xbd99d739	-0.075117536
170	0xbe42e2cc	-0.19031829
171	0x3e3554c7	0.17708121
172	0xbea11494	-0.31461012
173	0xbe46e108	-0.1942178
174	0x3e391c81	0.1807728
175	0xbe9292ae	-0.28627533
176	0x3e51c7d5	0.20486386
177	0xbdd017af	-0.10160767
178	0xbf125c9d	-0.57172567
179	0x3de7e381	0.1132269
180	0x3e057c19	0.13035621
181	0xbe0bcdc6	-0.13652715
182	0x3c56fd9b	0.013121988
183	0xbe68b3ce	-0.2272484
184	0xbee9dbe3	-0.45675573
185	0x3e5c7666	0.2152954
186	0xbda239e2	-0.079211965
187	0xbd9a1af3	-0.075246714
188	0xbe0041ec	-0.12525147
189	0xbf0e9d2b	-0.5570857
190	0x3e55dd26	0.20885143
191	0xbe930725	-0.28716388
192	0x3e7b2e77	0.24529444
193	0xbee267eb	-0.44219908
194	0xbde0c767	-0.10975533
195	0x3df930b0	0.121674895
196	0xbea1585a	-0.3151272
197	0x3e0549ee	0.13016483
198	0xbe743f1b	-0.23852198
199	0xbd953dbd	-0.07287166
200	0xbeb852a7	-0.3600056
201	0xbe981512	-0.29703575
202	0xbea5885a	-0.3233059
203	0x3e84533e	0.2584476
204	0xbef7c80e	-0.48394817
205	0xbe38b2af	-0.18036912
206	0xbee1f33a	-0.4413088
207	0xbea2fa07	-0.3183138
208	0x3f128a7a	0.5724255
209	0xbe69dc04	-0.22837836
210	0x3e0fa5f0	0.14028144
211	0x3c8a3b8d	0.0168741
212	0xbd17d6f0	-0.037070215
213	0x3d812db9	0.06307549
214	0xbe810eb4	-0.2520653
215	0x3de3e09c	0.11126825
216	0xbd90198e	-0.07036124
217	0x3ed0f63f	0.4081287
218	0x3e0f1f1d	0.13976713
219	0x3d485b7b	0.048915368
220	0xbe08f574	-0.13374883
221	0xbe5558b4	-0.20834619
222	0xbdf20543	-0.1181741
223	0xbf2ffe14	-0.6874707
224	0x3cdd9e49	0.027053015
225	0xbd98bdf3	-0.07458105
226	0xbe98446e	-0.29739708
227	0xbee0f6e7	-0.43938372
228	0xbe8e1e0e	-0.27757305
229	0xbec1048a	-0.37698776
230	0xbf284b0f	-0.6573953
231	0xbeb3863e	-0.35063356
232	0xbe911c24	-0.28341782
233	0xbeada814	-0.33917296
234	0x3ea133b8	0.3148477
235	0xbdc9d257	-0.09854572
236	0xbf149e08	-0.58053637
237	0xbe176b3e	-0.14787003
238	0xbe2e9c1e	-0.17051741
239	0x3dad9cce	0.08477174
240	0x3e8fa8a3	0.28058347
241	0x3f24d27f	0.6438369
242	0xbe3325d2	-0.17494896
243	0x3ee40171	0.4453235
244	0xbe11be0c	-0.14232653
245	0xbe7b4d0b	-0.24541108
246	0xbf0b507b	-0.5441968
247	0xbd282074	-0.041046575
248	0x3de51e08	0.11187369
249	0xbf0caa37	-0.5494723
250	0xbe96bc08	-0.2944033
251	0x3dd22c08	0.102623045
252	0x3e08a62e	0.13344643
253	0xbf153f5d	-0.5829981
254	0x3de6a773	0.11262407
255	0x3c82011e	0.015869673

bias f4 [64]
0	0xbe63f89a	-0.22262803
1	0xbf2416a0	-0.64097023
2	0xbe250672	-0.1611574
3	0xbe4f23aa	-0.20228449
4	0x3dcfe67f	0.101513855
5	0x3e30431a	0.17213097
6	0xbe429a92	-0.19004276
7	0x3e803b9c	0.25045478
8	0x3ebde96d	0.37092152
9	0x3e0069b3	0.12540321
10	0x3df0751b	0.11741086
11	0x3dc30f21	0.0952437
12	0xbee47e5a	-0.4462765
13	0xbe1054f9	-0.14094914
14	0x3c4c303e	0.012462674
15	0x3e23f37d	0.16010852
16	0x3e3567cf	0.17715381
17	0x3e359dfd	0.17736049
18	0xbf21618f	-0.6303949
19	0x3e9057fd	0.2819213
20	0x3e1cc80a	0.15310684
21	0xbe282c65	-0.16423185
22	0x3c1a1fdc	0.00940701
23	0xbd7760bf	-0.060395
24	0x3b814518	0.003945004
25	0x3d8b07df	0.06788611
26	0xbd3c1bf0	-0.04592508
27	0x3e96fb43	0.29488572
28	0x3d273095	0.040817816
29	0x3ea548ba	0.32282048
30	0xbe63baf2	-0.22239283
31	0x3dd717a6	0.105025575
32	0x3d47bb8b	0.04876284
33	0x3ea12cd0	0.31479502
34	0xbeb1cd01	-0.34726718
35	0xbeacc11a	-0.33741075
36	0x3eb75351	0.35805753
37	0xbe20e4bc	-0.15712255
38	0xbedd9c24	-0.43283188
39	0x3ec41b0d	0.38301888
40	0x3f003e6e	0.5009526
41	0x3d76878a	0.060187854
42	0xbd0bac1d	-0.034099687
43	0xbd3756c8	-0.044760495
44	0x3e4faa61	0.20279838
45	0xbf1211e8	-0.5705857
46	0xbee0a32c	-0.4387449
47	0xbe4aa350	-0.19788861
48	0x3eadf046	0.33972377
49	0x3e976c47	0.29574797
50	0xbebdf2c6	-0.37099284
51	0xbe77682a	-0.24160829
52	0xbdf047ac	-0.1173242
53	0xbd93b601	-0.07212449
54	0x3e1ece45	0.15508373
55	0xbe345c61	-0.17613365
56	0xbe03cf61	-0.12872078
57	0xbd5c340e	-0.05376058
58	0x3d26bcd1	0.040707413
59	0xbedcd529	-0.43131378
60	0x3dc853ca	0.097816065
61	0xbe414f80	-0.18877983
62	0x3e2ea42b	0.17054813
63	0x3e4b433e	0.1984987

weight f4 [1, 64]
0	0x3ba4e043	0.005031617
1	0xbc87ee4a	-0.016593117
2	0x3cdef3a8	0.027215794
3	0xbd15c97f	-0.036569115
4	0xbccbf9b3	-0.02489934
5	0x3d050204	0.032472625
6	0x3caf54d7	0.02140276
7	0x3cbbc93f	0.02292311
8	0xbc6c91d0	-0.014439061
9	0xbc3e9b27	-0.011633671
10	0xbd3e51c6	-0.046464704
11	0xbccbc893	-0.024875915
12	0xbcebc03c	-0.028778188
13	0xbd13caa8	-0.03608194
14	0x3c927c31	0.017881485
15	0x3cf685f1	0.030093165
16	0xbcea18a1	-0.028576197
17	0x3d8681f0	0.06567752
18	0x3d039482	0.03212405
19	0xbd02c037	-0.03192159
20	0xbcfefb6b	-0.031125745
21	0x3c89127b	0.016732445
22	0x3d1abb7e	0.037776463
23	0xbe9c03ca	-0.3047164
24	0xbd0df403	-0.034656536
25	0xbd508b1e	-0.050913922
26	0xbc3116ca	-0.010808656
27	0xbb1f2cef	-0.0024288257
28	0xbbaaef0b	-0.0052164844
29	0xbcaffd2c	-0.021483026
30	0xbce98e8c	-0.028510354
31	0xbd276f78	-0.04087779
32	0x3d42fc3e	0.04760384
33	0xbd102514	-0.03519161
34	0xbcf66906	-0.030079376
35	0xbc22ecf9	-0.009944194
36	0xbd1b962e	-0.03798502
37	0x3c8df168	0.017327026
38	0x3c94da8b	0.018170616
39	0x3c23a157	0.009987197
40	0x3cd8f274	0.026482798
41	0xbd2c63ae	-0.04208725
42	0xbd55e01f	-0.05221569
43	0xbb36012a	-0.002777169
44	0x3c41cd7b	0.0118287755
45	0xbce3b9b3	-0.02779851
46	0x3c87cd4c	0.016577385
47	0xbc34ce8a	-0.011035571
48	0xbceb717e	-0.02874064
49	0x3cbf80ad	0.023376787
50	0xbc20361b	-0.009778525
51	0x3c30ea65	0.0107980715
52	0x3d07d32b	0.03316037
53	0x3c8b5cfa	0.017012108
54	0xbb8c2da9	-0.004277904
55	0xbc9034d8	-0.017603323
56	0xbb0208c6	-0.0019841655
57	0x3cd0ba1a	0.025479365
58	0xbd0045e3	-0.03131665
59	0x3ce0c797	0.027438922
60	0x3e5d1458	0.21589792
61	0x3cdc0332	0.026856992
62	0xbd18f710	-0.037344992
63	0xbc2522a5	-0.010079061
