scripts/storage/GridCity/model.pt (torch_old, 76649 bytes, 11 tensors)

weight f4 [16, 3, 2, 2]
0	0x3d1dcae1	0.03852356
1	0xbda883e3	-0.082282804
2	0xbdac98f2	-0.084276095
3	0x3d9e3ca1	0.07726408
4	0xbea6f0cf	-0.32605597
5	0x3e344e41	0.17607976
6	0xbe09a576	-0.13442025
7	0x3ed63fe0	0.41845608
8	0x3db28dd9	0.087184615
9	0xbd8e877f	-0.069594376
10	0xbd0a3a84	-0.03374721
11	0xbb046462	-0.0020201434
12	0x3e8a1e95	0.26976457
13	0xbe649e27	-0.22325955
14	0xbe0f86aa	-0.14016214
15	0xbd019b64	-0.031642333
16	0xbd45d30b	-0.04829697
17	0xbec5a66a	-0.38603526
18	0x3ebad19c	0.36488044
19	0x3db2d72c	0.08732447
20	0xbd6bfff4	-0.057617143
21	0xbeeba284	-0.46022427
22	0xbd245b55	-0.040126164
23	0xbe8ee96f	-0.2791247
24	0xbd347372	-0.04405541
25	0x3e0bd979	0.13657178
26	0x3d4954ad	0.04915302
27	0x3d2df0de	0.042466037
28	0xbfb95e79	-1.4481956
29	0x3eadda55	0.33955637
30	0xbd4f7aa5	-0.050654072
31	0x3e1e69e8	0.15470088
32	0x3ea07b5f	0.31344125
33	0xbeadc5aa	-0.33939868
34	0xbe6d1f3f	-0.2315645
35	0xbddbbd4e	-0.107294664
36	0x3e8b99f6	0.272659
37	0xbe39efea	-0.18157926
38	0x3e7445b7	0.23854719
39	0xbe6c9f7e	-0.23107716
40	0x3e65b4f1	0.22432305
41	0xbf05ffd6	-0.523435
42	0x3dc016bb	0.093793355
43	0xbec2ebab	-0.38070425
44	0xbe72f0e6	-0.23724708
45	0x3e7e6450	0.24842954
46	0xbe4e682b	-0.20156924
47	0x3d8a3b3e	0.06749581
48	0xbe8b3637	-0.271898
49	0xbedddbf4	-0.43331873
50	0xbea2db0a	-0.3180774
51	0xbe568d8c	-0.20952433
52	0x3e82b3e7	0.2552788
53	0xbf8a018c	-1.0781722
54	0x3e89865c	0.2686032
55	0x3e183fe2	0.1486812
56	0x3d6b2c1b	0.05741511
57	0xbe9390c9	-0.288214
58	0x3e0e75e0	0.13912153
59	0x3d487766	0.048941992
60	0xbe751693	-0.23934393
61	0x3e97d952	0.2965799
62	0xbdb7affe	-0.08969115
63	0x3e9666d0	0.29375315
64	0x3c18e9aa	0.009333054
65	0x3bcb9779	0.0062131253
66	0x3d243137	0.040085997
67	0xbe9c384f	-0.3051171
68	0xbebc1612	-0.36735588
69	0xbe9309c2	-0.28718382
70	0x3cfe7e3a	0.031066049
71	0xbd9c5785	-0.076338805
72	0x3e3aa973	0.18228702
73	0xbd838571	-0.06421936
74	0x3e881ce6	0.26584548
75	0x3d634d23	0.055493485
76	0x3e29d834	0.16586381
77	0xbdd97f9b	-0.10620042
78	0xc00664ed	-2.09991
79	0xbca0901c	-0.019599967
80	0xbddf7ff8	-0.1091308
81	0xbeedf54f	-0.46476218
82	0x3da98f42	0.082792774
83	0xbdfa7136	-0.122286245
84	0x3ea3a867	0.31964418
85	0xbe9d81f3	-0.30763206
86	0xbe9a44c1	-0.3013058
87	0x3e66d0a1	0.22540523
88	0xbe48f560	-0.19624853
89	0x3dfccc87	0.12343698
90	0x3e81747c	0.25284183
91	0xbf0c483e	-0.5479773
92	0x3d572a77	0.052530732
93	0xbe14de4e	-0.14537928
94	0xbdae2973	-0.085039996
95	0xbe7a168c	-0.24422663
96	0x3d333a07	0.04375651
97	0xbe68451f	-0.22682618
98	0xbc1110ae	-0.008854074
99	0xbd8d27c5	-0.06892351
100	0x3e9f4e5d	0.31114474
101	0xbd7c86bc	-0.06165193
102	0xbe2e5131	-0.1702316
103	0x3e847be2	0.25875765
104	0xbe618792	-0.22024372
105	0xbf28f6e3	-0.6600172
106	0x3e9ea3f9	0.30984476
107	0xbe9592ee	-0.2921366
108	0xbdec3ae6	-0.115346715
109	0x3dcafade	0.0991113
110	0xbde9416b	-0.113894306
111	0x3e39fd37	0.18163
112	0xbce0cfa0	-0.027442753
113	0xbfd389a0	-1.6526375
114	0x3c84297e	0.016133066
115	0x3ed8f5c8	0.42375016
116	0x3e98c248	0.29835725
117	0x3dd31421	0.10306574
118	0xbe6bc74b	-0.23025243
119	0xbdc5c54a	-0.096567705
120	0xbe1ae07d	-0.15124698
121	0x3e1eafb2	0.1549671
122	0x3df11512	0.11771597
123	0xbd6d4949	-0.05793122
124	0x3e02232d	0.12708731
125	0xbf66fea0	-0.90232277
126	0xbeb681a3	-0.3564578
127	0x3ddc8819	0.10768146
128	0x3dd4a64a	0.103832796
129	0x3ec6b656	0.38810986
130	0xbd81c9b9	-0.06337304
131	0x3ddc9455	0.107704796
132	0x3e70cd5b	0.23515837
133	0x3df7096c	0.12062344
134	0xbe09857f	-0.13429831
135	0xbdc3664f	-0.09540998
136	0x3e8573f7	0.26065037
137	0xbd0db778	-0.034598798
138	0xbe739b0c	-0.23789614
139	0xbf022526	-0.50837934
140	0xbeb8fb06	-0.36129016
141	0xbb6c7123	-0.0036078177
142	0xbe291d67	-0.16515122
143	0x3dff9740	0.124800205
144	0xbbc1f74f	-0.005919374
145	0xbe15979a	-0.14608613
146	0x3dfa3478	0.12217039
147	0x3dbb6a15	0.09151093
148	0x3d75452a	0.059880413
149	0x3e801147	0.25013182
150	0xbe9a80bd	-0.30176345
151	0xbb9698e6	-0.0045958636
152	0xbd8f113f	-0.06985711
153	0xbe19a710	-0.15005136
154	0xbf08424d	-0.53226167
155	0xbd7439f4	-0.05962558
156	0xbeb764d3	-0.3581911
157	0xbe537042	-0.20648292
158	0x3eb83c92	0.3598371
159	0xbe1dd8bf	-0.15414713
160	0xbeee8f99	-0.4659393
161	0xbd5fb180	-0.054612637
162	0x3ce8ca44	0.02841676
163	0x3e1fd10d	0.1560709
164	0xbe2d460a	-0.16921249
165	0xbe4fe660	-0.20302725
166	0xbc7e5602	-0.015523436
167	0x3c623d4d	0.013808561
168	0xbe811418	-0.25210643
169	0xbdbcc278	-0.092167795
170	0xbdf9b593	-0.12192836
171	0x3d262fe5	0.04057302
172	0x3ddf1468	0.10892564
173	0xbe530197	-0.20606075
174	0x3deb3ec2	0.114865795
175	0xbdaf4441	-0.0855794
176	0x3e5ab681	0.21358682
177	0x3dc63bce	0.096793756
178	0xbd288680	-0.041143894
179	0x3ec64cc1	0.38730434
180	0x3c4d590a	0.012533436
181	0x3cbbb92f	0.02291545
182	0xbe112ef6	-0.1417807
183	0x3d2482ec	0.04016392
184	0xbe8c8418	-0.2744453
185	0x3e897916	0.26850194
186	0xbfed19ab	-1.8523458
187	0xbebfbd2d	-0.37449017
188	0xbe0bb2b8	-0.13642395
189	0xbce9ccdb	-0.028540066
190	0x3e1666f1	0.14687707
191	0xbdcc9d8d	-0.09990988

bias f4 [16]
0	0xbe8dfe94	-0.2773329
1	0x3db3ae19	0.08773441
2	0x3de50b09	0.111837454
3	0xbe5db3b8	-0.21650589
4	0xbb80cdca	-0.003930782
5	0x3afa0921	0.0019076207
6	0x3e55f70d	0.20895024
7	0xbe6670d4	-0.22503978
8	0x3dd37ebb	0.10326906
9	0xbe78817a	-0.24268141
10	0x3eb9679b	0.36211857
11	0xbe7f6e34	-0.24944383
12	0xbbb0fdb1	-0.005401336
13	0x3dbd19a6	0.09233408
14	0xbd886276	-0.06659405
15	0x3db2670e	0.08711062

weight f4 [64, 16, 2, 2]
0	0x3cf6d4c7	0.030130757
1	0xbd854a12	-0.065082684
2	0xbde9aab4	-0.11409512
3	0x3e17db86	0.14829835
4	0xbdef679e	-0.11689685
5	0x3b99278b	0.0046739033
6	0x3e3f92b5	0.18708308
7	0x3d259e82	0.040434368
8	0x3d9c3031	0.07626379
9	0xbe29578d	-0.16537304
10	0xbe9d201a	-0.30688554
11	0x3e40efd4	0.18841487
12	0xbd93fd27	-0.07226019
13	0x3e1025eb	0.14076965
14	0xbbacd1a1	-0.005274013
15	0xbe302fb2	-0.17205694
16	0x3c91d0c7	0.017799748
17	0xbe13aa56	-0.14420447
18	0xbe245090	-0.16046357
19	0x3d04d214	0.03242691
20	0x3dfbc3ba	0.12293191
21	0x3e1b78c5	0.15182789
22	0xbe41cc3f	-0.1892557
23	0xbe70c176	-0.235113
24	0x3de1ffe7	0.110351376
25	0xbd2700aa	-0.040772118
26	0xbe66b94f	-0.22531627
27	0x3e0885f6	0.13332352
28	0x3d67b57d	0.056569565
29	0x3e0b2a1d	0.13590284
30	0x3dbb52f5	0.09146682
31	0xbdf2d3a6	-0.11856775
32	0xbe29bdbb	-0.16576283
33	0xbd1910e2	-0.037369616
34	0xbdd8e49e	-0.1059048
35	0xbcc64ca3	-0.024206465
36	0xbd4a8e83	-0.049452316
37	0x3d9959d2	0.07487835
38	0xbe1cc4dc	-0.15309471
39	0xbd9fb056	-0.07797305
40	0xbe0252dc	-0.12726921
41	0x3c99ae20	0.018759787
42	0x3d5033ee	0.050830774
43	0xbda7bd91	-0.08190454
44	0x3a99f86d	0.001174701
45	0x3d884d26	0.0665534
46	0xbcf40d9a	-0.029791642
47	0xbe930434	-0.28714144
48	0x3c9bf324	0.019036837
49	0xbd634e0d	-0.055494357
50	0xbd2b60ac	-0.04184024
51	0xbe087316	-0.13325152
52	0x3d242e45	0.04008319
53	0xbdf6799d	-0.12034915
54	0xbe25956a	-0.16170278
55	0x3d6bd8c8	0.057579786
56	0xbd8bbd20	-0.06823182
57	0xbe021163	-0.12701945
58	0x3ce3518b	0.027748844
59	0xbe0aece8	-0.13566935
60	0x3e0d43bc	0.1379537
61	0xbd760908	-0.060067207
62	0xbdab71e4	-0.08371332
63	0x3db4834a	0.08814104
64	0xbce32428	-0.027727202
65	0x3e67960e	0.22615835
66	0xbbd319b3	-0.0064422726
67	0x3c9db683	0.019252067
68	0xbd80b7f8	-0.06285089
69	0x3dfc7ce4	0.123285085
70	0xbe9a62f1	-0.3015361
71	0xbe171cef	-0.14757131
72	0x3c75626e	0.014977081
73	0x3d93372e	0.07188259
74	0x3df0906c	0.11746296
75	0xbc68dafd	-0.014212367
76	0xbead4dc1	-0.33848384
77	0xbd874b3d	-0.066061474
78	0xbdf3b7c2	-0.119002834
79	0x3d88dbdb	0.06682559
80	0x3c453f11	0.012038962
81	0x3d0bd579	0.03413913
82	0xbc46e0f8	-0.012138598
83	0xbc55e78f	-0.013055696
84	0xbc232682	-0.009957911
85	0xbc6e3abe	-0.014540372
86	0xbd113060	-0.035446525
87	0xbcedf811	-0.029048951
88	0xbd6d5e7d	-0.05795144
89	0xbeac5272	-0.3365665
90	0xbe4b4925	-0.19852121
91	0xbd2abcff	-0.041684147
92	0xbca332fc	-0.019921772
93	0x3e3d552f	0.18489526
94	0x3d562eb0	0.05229062
95	0xbdc9ca2a	-0.09853013
96	0x3d53ab9f	0.051677343
97	0xbe15264a	-0.14565387
98	0xbdcd419f	-0.10022282
99	0x3e851c3f	0.25998113
100	0xbdabbf17	-0.08386057
101	0x3eaf8568	0.34281468
102	0xbd8182fb	-0.06323811
103	0xbe3947a1	-0.1809373
104	0xbea2e9f3	-0.31819114
105	0x3cbdb1fb	0.023156157
106	0x3dc77bf3	0.09740438
107	0xbe59b383	-0.21259885
108	0xbe436eca	-0.19085231
109	0x3cd75d88	0.026289716
110	0x3c0aad30	0.008464143
111	0x3e2e687e	0.17032048
112	0xbd670687	-0.05640271
113	0xbd998e2a	-0.07497819
114	0xbde75746	-0.11295943
115	0x3d8f16cd	0.06986771
116	0x3d9fb0b7	0.077973776
117	0x3dbe887f	0.09303378
118	0xbe5ddc23	-0.21666007
119	0x3e841c4b	0.25802836
120	0x3c74466e	0.01490937
121	0x3ad7800f	0.0016441363
122	0x3d467144	0.048447862
123	0x3d2229af	0.039590534
124	0x3d6f6f8c	0.05845599
125	0xbeaa8c2c	-0.33310068
126	0x3d4d61aa	0.050141968
127	0x3e20ba28	0.15696013
128	0xbc9c30dc	-0.019066267
129	0xbe653169	-0.2238213
130	0xbd86b74e	-0.06577931
131	0xbd1b739f	-0.03795206
132	0xba96f709	-0.0011517714
133	0xbe91d6ea	-0.2848428
134	0xbdab3b1a	-0.08360882
135	0x3e80f160	0.25184155
136	0x3d9027bd	0.070388295
137	0xbe85c5c4	-0.26127446
138	0xbe022e61	-0.12713005
139	0xbd91d745	-0.071211375
140	0xbdf16dd3	-0.117885254
141	0xbd8a5869	-0.06755144
142	0x3e7d3831	0.24728467
143	0x3def949c	0.11698267
144	0xbe027d3f	-0.1274309
145	0xbe038216	-0.12842593
146	0x3e2481b0	0.16065097
147	0x3dc02898	0.09382743
148	0x3e3fea98	0.18741834
149	0x3d523818	0.051323026
150	0x3da52cc4	0.08065179
151	0xba26b246	-0.0006358962
152	0xbb74140f	-0.0037243401
153	0xbe20be69	-0.15697636
154	0x3e14ec76	0.14543328
155	0xbdf39742	-0.118940845
156	0x3e4a8c79	0.19780149
157	0xbea3179e	-0.31853956
158	0xbe558f93	-0.2085555
159	0xbd3c26b0	-0.045935333
160	0x3d954294	0.072880894
161	0xbe2e996f	-0.17050718
162	0xbd9b111e	-0.07571624
163	0x3da29116	0.07937829
164	0x3d4c82a4	0.049929276
165	0xbd65c9b6	-0.05610057
166	0x3db4ac32	0.08821906
167	0x3b3a44e9	0.0028422421
168	0xbc45c330	-0.012070462
169	0x3e02c078	0.12768734
170	0x3e019aa1	0.12656642
171	0x3d1d4b4a	0.03840188
172	0x3a020816	0.00049603113
173	0xbdcc7f06	-0.09985165
174	0x3e625bc9	0.22105326
175	0x3d80adb3	0.062831305
176	0x3d887e86	0.066647574
177	0x3e037606	0.12837991
178	0xbd0b1a21	-0.033960465
179	0x3e0e3879	0.1388873
180	0xbdb4736e	-0.08811079
181	0xbdcc8d92	-0.0998794
182	0x3cf09679	0.029368626
183	0x3d4a1407	0.049335506
184	0xbd57967d	-0.05263375
185	0xbe01ff03	-0.12694936
186	0x3e8e2ea7	0.27769968
187	0x3dabf7c1	0.08396865
188	0x3d3ef351	0.046618763
189	0xbe4910bd	-0.19635291
190	0x3e5372f5	0.20649321
191	0xbdd50146	-0.104006335
192	0xbe35d158	-0.1775564
193	0x3de0884b	0.10963496
194	0xbe193cc3	-0.14964585
195	0xbdb04d45	-0.08608488
196	0xbd9aac94	-0.07552448
197	0xbee4d04e	-0.44690174
198	0xbd284695	-0.041082937
199	0xbd7b0efd	-0.06129359
200	0x3cd09911	0.025463613
201	0xbd0839a0	-0.03325808
202	0xbe22ec1f	-0.15910386
203	0xbd22da29	-0.039758835
204	0x3e266330	0.16248775
205	0xbdacbe38	-0.08434719
206	0x3e3676cb	0.17818753
207	0x3e08e8aa	0.13370004
208	0xbdac6dc5	-0.084193744
209	0x3e145197	0.14484249
210	0xbde496fe	-0.11161612
211	0xbddf0dbe	-0.10891293
212	0xbe3732cf	-0.17890476
213	0x3ca562f2	0.020188782
214	0x3d23381a	0.039848424
215	0xbb4a8c52	-0.0030906391
216	0xbdacd03e	-0.084381565
217	0xbdb985bc	-0.09058711
218	0xbdc27317	-0.09494608
219	0xbe6cd3af	-0.23127626
220	0x3defcf50	0.117094636
221	0xbbe28596	-0.0069128973
222	0xbe05b7f1	-0.1305845
223	0xbd80ee26	-0.06295423
224	0x3c683262	0.014172168
225	0xbb0d6fb0	-0.0021581464
226	0xbd468fa6	-0.048476838
227	0xbe807f21	-0.25096992
228	0x3d4cc549	0.049992833
229	0xbbdaf622	-0.0066821733
230	0x3cd9a514	0.026567973
231	0x3e819c71	0.25314668
232	0x3ae2b773	0.0017297104
233	0x3e702e50	0.23455167
234	0xbe164a07	-0.14676677
235	0x3e583406	0.21113595
236	0x3d5e23ba	0.05423329
237	0x3d37aa74	0.04484029
238	0xbd0ed19d	-0.03486787
239	0x3d043ce4	0.032284632
240	0xbe68dce1	-0.22740509
241	0xbe719a51	-0.23594023
242	0x3db1d55c	0.08683273
243	0x3d5a8a03	0.053354274
244	0x3e3768a9	0.17911018
245	0xbd1ae82c	-0.037819073
246	0x3dee747c	0.116433114
247	0x3bc156ec	0.0059002545
248	0x3b99ab64	0.004689621
249	0xbd49e111	-0.049286906
250	0x3d5278bd	0.051384676
251	0xbc8018b4	-0.01563678
252	0xbd1d7d77	-0.03844973
253	0xbe3653b6	-0.1780537
254	0xbd031cd6	-0.032009922
255	0xbe7d9cd5	-0.24766858

bias f4 [64]
0	0xbe5cf844	-0.21579081
1	0xbd7c6d34	-0.06162758
2	0xbc744ce1	-0.0149109075
3	0x3d1ea526	0.038731717
4	0x3cc20d5d	0.023688013
5	0xbd828bf5	-0.06374351
6	0xbb19bb4d	-0.0023457587
7	0x3ca1b72e	0.019740667
8	0x3da0bfc8	0.07849079
9	0x3d8aadc3	0.06771424
10	0xbddcc878	-0.10780424
11	0x3d2acdc3	0.041700136
12	0x3b8a16d3	0.0042141466
13	0xbcc5d412	-0.024148975
14	0x3c916975	0.017750481
15	0xbd339545	-0.043843526
16	0x3c15ed97	0.009150884
17	0xbe287469	-0.16450657
18	0xbe289df0	-0.16466498
19	0x3d599267	0.053118136
20	0x3d54d7a1	0.051963452
21	0xbd6238c4	-0.055229917
22	0xbd234885	-0.039864082
23	0x3d932650	0.07185042
24	0x3d1ab002	0.03776551
25	0xbd1d348f	-0.038380202
26	0xbdedfbcc	-0.11620292
27	0x3d9053b4	0.07047215
28	0xbbce6ec8	-0.0062998272
29	0xbd063d25	-0.032773156
30	0xbda0f695	-0.07859532
31	0xbe045670	-0.12923598
32	0xbe1f1575	-0.15535529
33	0xbcaf7165	-0.021416375
34	0xbe10f4ba	-0.14155856
35	0xbd31e132	-0.043427654
36	0x3e172e35	0.1476372
37	0xbd64e888	-0.05588582
38	0xbe20f8e4	-0.15719944
39	0x3e77fd86	0.24217805
40	0x3e07c68a	0.1325933
41	0xbe11b353	-0.14228563
42	0xbc73a936	-0.014871886
43	0xbcb46872	-0.02202246
44	0xbc90fa90	-0.017697603
45	0x3c323717	0.010877392
46	0xbe14ff27	-0.14550458
47	0xbddcd265	-0.10782317
48	0x3c21ee3f	0.009883462
49	0x3da7be70	0.0819062
50	0xbd450b6b	-0.048106592
51	0x3d19930b	0.037493747
52	0xbdcfe3ec	-0.101508945
53	0x3e0db2e3	0.13837771
54	0xbdb4702a	-0.08810456
55	0x3d09e1f9	0.03366277
56	0x3da367bc	0.0797877
57	0xbc9d819f	-0.019226847
58	0xbe4553b5	-0.19270213
59	0xbdde61a6	-0.10858469
60	0xbdd902c4	-0.105962306
61	0x3c2c276a	0.010507444
62	0xbe21c7ad	-0.15798827
63	0xbdec02b1	-0.11523951

weight f4 [64, 64]
0	0xbcf5bcfc	-0.029997341
1	0xbd4cb5dd	-0.049978126
2	0x3e6e8200	0.23291779
3	0x3dc41d37	0.09575885
4	0xbd3d2d00	-0.046185493
5	0x3cc52f09	0.02407028
6	0xbecdfc97	-0.40231773
7	0xbe049f7e	-0.12951466
8	0xbe15a29b	-0.1461281
9	0xbdc791dc	-0.09744617
10	0x3999fc2d	0.0002937032
11	0xbcfaffed	-0.030639613
12	0xbce3d929	-0.027813511
13	0xbd15797c	-0.03649281
14	0x3c856bdb	0.016286781
15	0xbdfad33c	-0.12247321
16	0x3d8825bc	0.06647822
17	0xbe827eb2	-0.25487286
18	0xbe3e25b0	-0.18569064
19	0xbd965ae9	-0.073415585
20	0xbd4e75be	-0.050405256
21	0xbe0d7c78	-0.13817012
22	0xbde5d92c	-0.11223063
23	0xbe8506f1	-0.25981858
24	0x3d9bd601	0.076091774
25	0x3e218121	0.15771915
26	0xbf292103	-0.66065997
27	0xbdf5fd7c	-0.12011239
28	0x3e18dbd3	0.14927606
29	0xbe63e90b	-0.22256868
30	0x3e8d5ed4	0.2761141
31	0x3dfd5dcb	0.12371405
32	0xbdcf782b	-0.10130342
33	0x3e661728	0.22469771
34	0xbb3af6a6	-0.0028528362
35	0xbea5113b	-0.32239708
36	0x3eaa4cf3	0.33261833
37	0x3e1bbc99	0.15208663
38	0x3eb98f35	0.3624207
39	0x3e3905af	0.18068574
40	0x3bf1f554	0.0073839817
41	0x3f122679	0.57089955
42	0x3dd1ea2c	0.10249743
43	0xbedb3fae	-0.4282202
44	0x3d966978	0.07344335
45	0x3e625aa2	0.22104886
46	0xbea619fb	-0.32441697
47	0x3ce0a41b	0.027422002
48	0xbd218aca	-0.039439
49	0x3dc5b7a4	0.09654167
50	0xbe7b912a	-0.24567094
51	0xbe096265	-0.13416441
52	0x3d2e8863	0.042610537
53	0x3e2bfd8b	0.16795938
54	0xbd8e3160	-0.06943011
55	0x3da5093c	0.08058402
56	0x3e3c5897	0.1839317
57	0xbdb0cf93	-0.08633342
58	0xbbb55cc3	-0.0055347397
59	0x3e7371e3	0.23773913
60	0xbe78cdfd	-0.24297328
61	0x3e782f58	0.2423681
62	0xbc0350dd	-0.008014885
63	0x3e8f5c8f	0.28000304
64	0x3d7e4cc3	0.062084924
65	0xbe616275	-0.22010215
66	0x3e970bad	0.29501095
67	0x3d696211	0.05697829
68	0xbdd6e55b	-0.10492965
69	0x3c97a9c9	0.018513577
70	0x3de6dc35	0.1127247
71	0x3e11e131	0.1424606
72	0xbd707735	-0.058707435
73	0xbdbaad0a	-0.09115036
74	0xbde31ea1	-0.110898264
75	0xbe8dc224	-0.2768718
76	0xbe790e02	-0.2432175
77	0x3e960f3d	0.293085
78	0x3d102e70	0.035200536
79	0xbdbad710	-0.09123051
80	0x3d988c49	0.07448632
81	0x3e968268	0.29396367
82	0xbe9d2978	-0.306957
83	0xbe92aa8e	-0.28645748
84	0xbe32d00d	-0.17462178
85	0x3da8bc5c	0.08239052
86	0xbd17f041	-0.03709436
87	0xbe672133	-0.22571258
88	0xbe52bf7d	-0.2058086
89	0xbe722a6d	-0.23648997
90	0x3d82221e	0.063541636
91	0xbe8f7d33	-0.28025207
92	0xbd7c9a90	-0.06167084
93	0xbe78f5f8	-0.2431258
94	0xbbbf2378	-0.0058330856
95	0xbe0ec8be	-0.13943765
96	0xbe4eb76b	-0.20187156
97	0x3e04224a	0.12903705
98	0xbec4ca3e	-0.3843555
99	0xbe1e581e	-0.15463302
100	0x3de6596f	0.11247527
101	0x3ddf99c1	0.10917998
102	0x3e67c090	0.2263205
103	0xbe22b88d	-0.15890713
104	0x3cd2e72a	0.025744993
105	0x3dba7896	0.09105031
106	0x3e3f8be0	0.18705702
107	0x3e0e1ff0	0.1387937
108	0xbe72950e	-0.23689672
109	0xbd23623a	-0.039888598
110	0xbe132965	-0.1437126
111	0xbe2e673e	-0.17031571
112	0x3e6d5d8a	0.23180214
113	0xbcb6b7e7	-0.022304488
114	0x3e453fd1	0.19262625
115	0xbdc9aa3c	-0.09846923
116	0x3e0730e6	0.13202247
117	0x3e9ccb3f	0.30623814
118	0x3d89e531	0.06733168
119	0x3e3c2268	0.183725
120	0xbed38c32	-0.41317898
121	0x3d23aa5e	0.039957397
122	0xbea9d378	-0.3316915
123	0x3e549c85	0.20762832
124	0xbea1647e	-0.31521982
125	0xbe003438	-0.1251992
126	0xbebc7aa0	-0.36812305
127	0xbe1aafc3	-0.1510611
128	0x3c50880e	0.01272775
129	0x3c949e2c	0.018141828
130	0x3e412ab1	0.18863942
131	0xbe0942b7	-0.13404356
132	0xbe67a739	-0.22622384
133	0xbda37e48	-0.079830706
134	0xbe28a700	-0.16469955
135	0x3eecc801	0.4624634
136	0xbd63858e	-0.05554729
137	0x3e9ae0a0	0.302495
138	0x3d94c9c8	0.07265049
139	0xbdf07c5f	-0.11742472
140	0xbc921731	-0.017833324
141	0xbe773eca	-0.24145046
142	0x3da7a620	0.08185983
143	0xbe83839c	-0.25686347
144	0x3e020ee3	0.12700991
145	0xbe15bc3f	-0.14622591
146	0xbcfc5901	-0.03080416
147	0xbd1ea46d	-0.038731027
148	0xbe0a654d	-0.13515206
149	0xbe8f538e	-0.27993435
150	0xbe478646	-0.19484815
151	0x3ebaaff4	0.36462367
152	0xbd7c032b	-0.06152646
153	0xbe195869	-0.14975132
154	0x3db99341	0.090612896
155	0xbe421b2d	-0.18955679
156	0x3db67d72	0.089106455
157	0x3cbab3f8	0.022790894
158	0xbe5643f6	-0.20924363
159	0xbe085d13	-0.13316755
160	0xbc968257	-0.018372698
161	0x3e012d64	0.12614971
162	0xbde3360c	-0.11094293
163	0x3e9da611	0.3079076
164	0xbe8ab79f	-0.27093217
165	0x3dba2070	0.09088218
166	0x3dbba52f	0.09162366
167	0xbe322542	-0.17397025
168	0xbe53d627	-0.20687161
169	0xbe4d6f70	-0.20062041
170	0xbe051b83	-0.12998776
171	0x3c33b1b7	0.0109676635
172	0xbcb835cd	-0.022486592
173	0x3e27d9c5	0.16391666
174	0xbe4c63e3	-0.19959979
175	0xbd8a245f	-0.067452185
176	0xbe2ccc69	-0.16874851
177	0xbed0664e	-0.40703052
178	0x3debcf8f	0.11514198
179	0xbe628dfd	-0.22124477
180	0x3cb3bc94	0.021940507
181	0xbcf06018	-0.029342696
182	0x3cf516d1	0.029918106
183	0xbe210aa7	-0.1572672
184	0x3dd52458	0.10407323
185	0xbeb12c4f	-0.34604117
186	0xbcb570a1	-0.022148432
187	0x3e36068b	0.17775933
188	0x3ceee09e	0.02915984
189	0xbdd94b97	-0.10610121
190	0xbd69adab	-0.05705039
191	0xbe7521bc	-0.2393865
192	0xbe98df23	-0.2985774
193	0x3e3ed1b4	0.18634683
194	0x3e09ae6b	0.13445441
195	0xbca87e7c	-0.020568125
196	0xbe1c90ee	-0.15289661
197	0xbe26c9d3	-0.16287927
198	0xbec12dcf	-0.37730262
199	0xbcdc4e6e	-0.026892867
200	0xbe19f41d	-0.15034528
201	0xbcd2cb24	-0.02573163
202	0xbd21f886	-0.03954365
203	0x3ec2363d	0.37932006
204	0xbe82703e	-0.2547626
205	0xbddc36e4	-0.10752657
206	0x3d812d5d	0.063074805
207	0xbe77a7f8	-0.24185169
208	0x3ce27cc0	0.027647376
209	0x3d98f19b	0.074679576
210	0x3d05fa8d	0.032709647
211	0xbd437374	-0.047717527
212	0xbc999326	-0.018746924
213	0x3e2fd373	0.17170505
214	0xbe4390b6	-0.19098172
215	0xbdcd5599	-0.10026092
216	0xbef2cfc3	-0.47424135
217	0x3e4fd864	0.2029739
218	0x3ea2fca8	0.31833386
219	0x3e6e4899	0.23269881
220	0xbdd8224a	-0.10553415
221	0xbe060bc7	-0.1309043
222	0x3dceaa52	0.1009108
223	0xbe1e7efe	-0.15478131
224	0x3bceb185	0.006307783
225	0x3db37402	0.08762361
226	0x3d9b3244	0.07577947
227	0xbe982cfb	-0.29721817
228	0xbd2d4424	-0.042301312
229	0xbe9d9949	-0.3078101
230	0xbe1a690d	-0.15079136
231	0xbd415c68	-0.047207266
232	0x3d7add86	0.061246417
233	0x3dfd6c59	0.12374181
234	0xbd986b04	-0.074422866
235	0x3d916618	0.07099551
236	0x3ddaa764	0.106764585
237	0x3e44334b	0.19160192
238	0xbd0e19a0	-0.034692407
239	0x3e1dde01	0.15416719
240	0x3e29515d	0.16534944
241	0x3e5e83a8	0.2172991
242	0xbdc82316	-0.09772317
243	0xbd48a571	-0.048985902
244	0x3cb10037	0.021606548
245	0x3dcd4e55	0.10024706
246	0x3e679b97	0.22617947
247	0x3e515158	0.20441186
248	0x3cf54ead	0.029944742
249	0xbdb87668	-0.09006959
250	0x3dc87b75	0.097891726
251	0x3c4cb40c	0.012494098
252	0x3d4ca689	0.049963508
253	0xbdd85f1a	-0.10565014
254	0x3d6162c3	0.055025827
255	0x3e01d71a	0.12679711

bias f4 [64]
0	0xbc148dd8	-0.009067021
1	0xbd1e11cc	-0.03859119
2	0xbe085b46	-0.13316068
3	0x3d072f1a	0.033003904
4	0xbe1c1be4	-0.15245014
5	0xbc7c1ffc	-0.015388485
6	0x3d8c2eff	0.06844901
7	0x3d7af1ff	0.06126594
8	0xbcdaa8ec	-0.026691876
9	0x3d85ee85	0.065396346
10	0x3caebce4	0.021330304
11	0x3cf2aa68	0.029622272
12	0x3c597d44	0.013274495
13	0x3da7b6a4	0.08189133
14	0xbd75d052	-0.060013123
15	0xbd5947d4	-0.053047016
16	0x3d9d831a	0.07691021
17	0x3d2d5df2	0.04232592
18	0xbdc5ee86	-0.09664635
19	0xba04fbbf	-0.00050729135
20	0xbdd93df1	-0.106075175
21	0xbcdeeca1	-0.027212443
22	0xbd8e79f0	-0.069568515
23	0x3e4e0c7a	0.20121947
24	0x3de96a3e	0.11397217
25	0x3e51cc0a	0.20487991
26	0xbdd2e29d	-0.10297129
27	0xbdc02e64	-0.09383848
28	0x3d4362bb	0.04770158
29	0x3d7e2912	0.062050886
30	0x3dcf0875	0.10109035
31	0x3e2332a9	0.15937294
32	0xbded593e	-0.11589287
33	0x3e18c0b9	0.14917268
34	0xbd9eb465	-0.07749251
35	0x3c4bee9b	0.012447025
36	0xbd3aec22	-0.04563535
37	0xbd9e0430	-0.077156425
38	0xbb22be96	-0.0024832836
39	0xbd8a90e4	-0.06765917
40	0xbd27df2b	-0.040984314
41	0x3e0996d7	0.13436447
42	0x3d83a9a5	0.064288415
43	0xbdb54723	-0.08851459
44	0x3d62e9b5	0.05539866
45	0xbdb42464	-0.087960035
46	0x3de05bca	0.109550074
47	0x3b42a6f9	0.0029701574
48	0x3d7f9421	0.062397126
49	0xbd0f4b7d	-0.0349841
50	0xbd8f9215	-0.07010285
51	0x3c8d6906	0.017261993
52	0x3d0728fd	0.032998074
53	0x3da3c35b	0.079962455
54	0xbe01f5ef	-0.12691472
55	0x3d721114	0.05909832
56	0x3dbda661	0.0926025
57	0x3e0a542e	0.13508675
58	0x3d19a266	0.03750839
59	0x3dddb2ad	0.10825095
60	0xbda8bbae	-0.08238922
61	0x3df9ca7c	0.12196824
62	0xbc40c483	-0.011765602
63	0x3d4aedd5	0.04954322

weight f4 [7, 64]
0	0xbe8c77e8	-0.2743523
1	0xbdc89252	-0.097935334
2	0xbe2c6290	-0.16834474
3	0x3d450615	0.048101503
4	0x3e5d86e7	0.21633492
5	0xbb8e9b84	-0.004352035
6	0xbe96e47a	-0.2947119
7	0xbe9e83a8	-0.3095982
8	0x3e4f77c2	0.20260528
9	0xbe2444cf	-0.16041873
10	0x3e5884de	0.21144435
11	0xbe18fafb	-0.14939491
12	0xbdb012f2	-0.085973635
13	0x3e8995d3	0.2687212
14	0x3db7f102	0.089815155
15	0x3e75a5e8	0.2398907
16	0xbd0c6cb9	-0.034283374
17	0xbe061989	-0.13095678
18	0xbe5b6564	-0.21425396
19	0xbeee3119	-0.46521834
20	0xbd54dc18	-0.05196771
21	0x3e50925d	0.20368333
22	0x3bdcfbae	0.0067438697
23	0xbdd7c0df	-0.10534834
24	0xbdfbad4d	-0.12288914
25	0x3de24270	0.11047828
26	0x3e8dea58	0.27717853
27	0x3e879348	0.26479554
28	0x3d19f3ff	0.03758621
29	0x3e963102	0.29334265
30	0xbe9a875e	-0.30181402
31	0x3db3731c	0.0876219
32	0x3e3047c1	0.17214872
33	0xbde91d26	-0.11382513
34	0xbe878648	-0.26469636
35	0x3d0ed5bb	0.034871798
36	0x3d80dd9b	0.06292268
37	0xbd06032b	-0.032717865
38	0x3e84130a	0.25795776
39	0xbe323e64	-0.17406613
40	0x3dc5ede0	0.09664512
41	0xbe5553a4	-0.20832688
42	0x3c96ee98	0.018424317
43	0x3ceac750	0.028659493
44	0xbccdc8ea	-0.025120217
45	0xbdb1d8d9	-0.086839385
46	0xbe51adc7	-0.20476447
47	0xbe67af05	-0.22625358
48	0x3ec1b7fc	0.3783568
49	0x3e4dab22	0.20084813
50	0xbe4060e6	-0.18786964
51	0xbe4ee51c	-0.20204586
52	0x3e0c16e1	0.13680603
53	0x3dcb7a33	0.09935417
54	0xbe7e19cc	-0.24814528
55	0x3d7328ef	0.05936521
56	0xbe736307	-0.23768245
57	0x3eba129a	0.36342317
58	0xbe0a059e	-0.13478705
59	0xbe0bdbac	-0.13658017
60	0x3e48d47e	0.1961231
61	0x3d9da0f4	0.07696715
62	0xbe8297b8	-0.25506377
63	0xbc3deb0d	-0.011591685
64	0x3e3818dd	0.17978235
65	0x3ed2534b	0.41079172
66	0x3d03a7e7	0.032142546
67	0x3a9e3193	0.0012069218
68	0x3e54c24c	0.20777243
69	0xbdf72627	-0.12067824
70	0xbee044f8	-0.4380262
71	0xbe9409cf	-0.28913733
72	0x3c946e08	0.018118873
73	0x3d94f018	0.07272357
74	0xbe3e81fd	-0.18604274
75	0x3e8ca79b	0.27471623
76	0xbe771310	-0.24128366
77	0x3d59004f	0.05297881
78	0xbef87cce	-0.48532718
79	0xbe8ae8f3	-0.2713085
80	0x3cb30007	0.021850599
81	0x3eb18b5f	0.34676644
82	0x3e6edca3	0.23326354
83	0x3e609827	0.21933042
84	0x3e3ce63f	0.18447207
85	0x3d60d976	0.054894887
86	0x3de1e2cf	0.110295884
87	0xbe82f8cd	-0.25580445
88	0x3e33b07c	0.17547792
89	0xbe4943c0	-0.19654751
90	0xbd244ed7	-0.04011425
91	0x3cda9550	0.026682526
92	0x3d52ecf1	0.051495496
93	0x3e8d0037	0.27539226
94	0x3dde41a3	0.10852363
95	0x3dfe37d0	0.12412989
96	0xbd0b5a20	-0.034021497
97	0xbd4357a3	-0.047691
98	0xbdda28ac	-0.10652289
99	0xbd2273fc	-0.039661393
100	0x3cc1eb62	0.02367181
101	0xbce04857	-0.027378244
102	0x3e96223e	0.29323
103	0x3db712be	0.08939122
104	0xbe307773	-0.17233066
105	0x3c2834af	0.010266467
106	0xbe231b0b	-0.15928285
107	0x3d03f832	0.03221912
108	0xbe9ceb7d	-0.30648413
109	0xbe424c8a	-0.1897451
110	0xbdb4e9de	-0.08833669
111	0xbe03d323	-0.12873511
112	0x3d5f446a	0.054508604
113	0xbe5f703f	-0.21820162
114	0x3e347c02	0.1762543
115	0x3bebd42b	0.0071969233
116	0x3e338603	0.1753159
117	0x3d691c14	0.056911543
118	0xbdd78b15	-0.10524575
119	0xbdb0346d	-0.086037494
120	0xbe062ef9	-0.13103856
121	0xbe9946e6	-0.29936904
122	0x3e3ac812	0.18240383
123	0x3e45e989	0.19327368
124	0x3e4b5642	0.19857123
125	0x3ce4042e	0.027834024
126	0xbe5ed3cc	-0.21760482
127	0x3e70bff2	0.23510721
128	0xbf0d52b2	-0.5520431
129	0xbe91f55b	-0.28507504
130	0x3df455dd	0.119304396
131	0xbe7974bc	-0.24360937
132	0xbcc67249	-0.024224417
133	0xbf2f36eb	-0.68443173
134	0x3eb1b4d1	0.34708264
135	0xbe25d9c8	-0.16196358
136	0xbe8adeb1	-0.27123025
137	0x3ea07596	0.3133971
138	0xbdcab0df	-0.09897017
139	0xbece54af	-0.40298983
140	0x3dd390cf	0.103303544
141	0x3d285246	0.041094087
142	0x3d216042	0.03939844
143	0x3ca61df4	0.020277955
144	0xbde42f99	-0.11141891
145	0x3d5643f2	0.05231089
146	0x3ceeef7b	0.029166928
147	0x3ed2d0b2	0.41174847
148	0xbe2184b7	-0.15773283
149	0xbe1a4821	-0.15066577
150	0x3cdbbdbd	0.026823873
151	0x3cc340a4	0.023834534
152	0xbde448e1	-0.11146713
153	0xbc4080cd	-0.0117494585
154	0xbebd441f	-0.36966035
155	0x3dabd5bd	0.08390377
156	0x3d317286	0.04332211
157	0xbeca8a92	-0.39558846
158	0xbe55acb7	-0.20866667
159	0xbd5e62fb	-0.054293614
160	0xbdf361de	-0.11883901
161	0x3ea3a134	0.31958926
162	0x3f013381	0.50469214
163	0xbe2b9d2c	-0.16759175
164	0xbe4edbae	-0.20200989
165	0xbe6ed85e	-0.23324725
166	0xbedc0805	-0.42974868
167	0xbe376b82	-0.17912105
168	0xbe19f531	-0.1503494
169	0xbe776603	-0.24160008
170	0xbdc7cb4a	-0.09755571
171	0x3e3ce217	0.18445621
172	0x3eea074b	0.4570869
173	0x3e32b1a3	0.17450576
174	0x3dc0a198	0.094058216
175	0x3ee4960b	0.44645724
176	0xbefb4731	-0.49077752
177	0x3d952454	0.0728232
178	0xbd20c1f2	-0.03924746
179	0x3e49d96a	0.19711843
180	0x3e06f9b1	0.13181187
181	0xbeafe08a	-0.34350997
182	0xbe116b77	-0.14201151
183	0xbe4e958d	-0.20174237
184	0x3e033874	0.12814504
185	0x3e3c6c59	0.18400706
186	0x3e4b85b7	0.19875227
187	0x3e272c7e	0.16325566
188	0x3ed0c6e1	0.40776733
189	0xbe16ca10	-0.14725518
190	0xbd001652	-0.031271286
191	0x3ef6cd71	0.48203614
192	0xbd892666	-0.06696777
193	0xbd097341	-0.03355718
194	0xbda5c759	-0.08094663
195	0xbe2570bc	-0.16156286
196	0xbbe6a64e	-0.007038868
197	0xbcdd0d47	-0.02698387
198	0xbe8d0f1c	-0.2755059
199	0xbdbfb44b	-0.0936056
200	0x3cb65f23	0.022262162
201	0xbbc69e67	-0.0060613635
202	0x3dfcfa54	0.12352434
203	0x3e334dd4	0.17510158
204	0xbe1a1796	-0.1504806
205	0xbe462cc3	-0.19353013
206	0xbdf33e3b	-0.11877104
207	0x3e60e52d	0.21962424
208	0x3dbee434	0.0932087
209	0xbd71b4ea	-0.059010424
210	0xbd4bddb9	-0.049771998
211	0x3d12a7d0	0.03580457
212	0xbc5493b3	-0.012974667
213	0x3e7cc8d0	0.24685979
214	0xbd82974e	-0.06376515
215	0xbe25af0f	-0.16180061
216	0xbd6bd02e	-0.057571582
217	0xbdd0d18d	-0.10196219
218	0xbdf5156f	-0.11966979
219	0x3e69836f	0.22804044
220	0xbd6357ad	-0.055503536
221	0xbe02c270	-0.12769485
222	0xbcdb9dd0	-0.02680865
223	0xbe263dbe	-0.1623449
224	0x3e092689	0.13393606
225	0x3db657f6	0.08903496
226	0x3ddf269a	0.108960345
227	0xbe90b936	-0.28266305
228	0x3cf87f4c	0.030334137
229	0x3e62c619	0.22145881
230	0xbbfaa2ce	-0.0076488024
231	0x3e801109	0.25012997
232	0x3e14c456	0.14528021
233	0x3d94e4ba	0.07270189
234	0xbe877ce5	-0.26462474
235	0x3e0b3055	0.13592656
236	0xbe2e07a9	-0.1699511
237	0xbd5f9520	-0.054585576
238	0xbd80bbd0	-0.062858224
239	0xbdb3e337	-0.08783572
240	0xbe295235	-0.16535266
241	0xbe82b75e	-0.25530523
242	0xbe0bc85a	-0.13650647
243	0x3e9782f4	0.29592097
244	0x3e55a17f	0.20862387
245	0xbc32d2ab	-0.010914485
246	0xbd9d996c	-0.076952785
247	0x3df57ac2	0.11986305
248	0x3d7fc5f7	0.062444653
249	0xbdf120fd	-0.1177387
250	0x3e02d2fc	0.12775797
251	0xbe3ba26f	-0.18323682
252	0xbdeec247	-0.11658149
253	0xbc5e2e3c	-0.013560828
254	0xbd368f6e	-0.04457038
255	0x3e65a00a	0.22424331

bias f4 [7]
0	0x3d300b9e	0.04297983
1	0x3db93310	0.090429425
2	0x3c237aa4	0.00997797
3	0x3ccda9f4	0.025105454
4	0x3d34a963	0.044106852
5	0xbee3b4c5	-0.44473854
6	0xbd972d1c	-0.07381651

weight f4 [64, 64]
0	0xbd15596f	-0.036462244
1	0xbe92790f	-0.28607985
2	0x3dbf91a0	0.09353948
3	0xbd542732	-0.051795192
4	0xbe08cc54	-0.13359195
5	0xbce8af73	-0.028403973
6	0xbea08c6b	-0.3135713
7	0xbe79335c	-0.24335998
8	0xbf339e45	-0.70163375
9	0xbdd8da49	-0.105885096
10	0xbc38c6ee	-0.011277897
11	0x3e9ad11c	0.30237663
12	0xbf0d3277	-0.5515513
13	0x3c4148bd	0.011797127
14	0xbd832842	-0.06404163
15	0xbd0831bc	-0.033250555
16	0xbd21333b	-0.039355498
17	0xbe7c34f6	-0.24629578
18	0x3d35e700	0.044409752
19	0xbd66bc12	-0.0563317
20	0x3e8e5aa8	0.2780354
21	0xbcb33265	-0.021874616
22	0xbe8960a2	-0.26831537
23	0xbed8899d	-0.4229249
24	0xbc22e8a1	-0.009943158
25	0xbe7d42be	-0.24732491
26	0xbe986452	-0.29764038
27	0x3e7c6f9d	0.24651952
28	0x3e44ab74	0.19206029
29	0x3e216cd2	0.15764168
30	0x3dd56304	0.10419276
31	0xbdba27c9	-0.0908962
32	0xbe8c57ff	-0.27410886
33	0x3e1f2ac7	0.15543662
34	0x3b9a80d3	0.004715064
35	0xbc78a04a	-0.015174935
36	0x3e7c8a0e	0.24662039
37	0xbecc0a30	-0.39851522
38	0x3e8616ad	0.26189175
39	0x3db5c064	0.08874586
40	0x3e66e4dc	0.2254824
41	0xbe867c8e	-0.26266903
42	0x3e0d6902	0.13809589
43	0xbdd20711	-0.10255254
44	0x3e3f4601	0.18679048
45	0x3e16ca2d	0.14725561
46	0xbe9cccfd	-0.30625144
47	0x3e047a4e	0.1293728
48	0xbe7bc02a	-0.24585024
49	0x3ede370f	0.4340138
50	0xbdcf5e0a	-0.101253584
51	0x3e0d3f0f	0.13793586
52	0xbccf267b	-0.025286904
53	0xbe3a0672	-0.18166521
54	0xbe11ce72	-0.14238909
55	0xbe632c79	-0.22184934
56	0xbe86b820	-0.2631235
57	0x3e2cdd57	0.1688131
58	0x3d20f728	0.039298207
59	0x3eaa5257	0.33265945
60	0xbe8ba9b8	-0.27277923
61	0x3db45613	0.0880548
62	0x3d5da757	0.054114666
63	0xbcdbb465	-0.026819417
64	0xbd0de29b	-0.034639936
65	0x3e2cb4a8	0.1686579
66	0x3d72f5af	0.059316333
67	0xbe964a44	-0.29353535
68	0xbd949a21	-0.0725596
69	0xbe0e251f	-0.13881348
70	0xbea36dfa	-0.31919843
71	0xbdb83528	-0.08994514
72	0x3e6140e6	0.21997413
73	0xbd0518a4	-0.032494202
74	0xbd44be72	-0.048033185
75	0xbe1038e0	-0.14084196
76	0xbdbf7cf8	-0.09350008
77	0x3d374230	0.044740856
78	0x3c876a31	0.016530128
79	0xbd6f195c	-0.058373794
80	0xbb3d7639	-0.0028909578
81	0xbd7eee94	-0.062239245
82	0xbe49153f	-0.19637011
83	0xbcf84008	-0.03030397
84	0xbe908aef	-0.28230998
85	0x3c1b946c	0.009495836
86	0xbe232647	-0.1593257
87	0xbe67cee4	-0.22637516
88	0xbdd0c234	-0.10193291
89	0xbdf415c1	-0.11918212
90	0x3ef1df97	0.47240898
91	0x3dbdff38	0.09277195
92	0x3eae716e	0.34070915
93	0xbd87ba4f	-0.066273324
94	0xbefefda6	-0.49802893
95	0xbda57070	-0.080780864
96	0xbf004df9	-0.50118977
97	0x3d032366	0.03201618
98	0x3efbf640	0.4921131
99	0x3dce693f	0.10078668
100	0x3e3afabd	0.18259712
101	0x3d12229e	0.035677545
102	0xbc2f3373	-0.010693419
103	0xbed390e7	-0.4132149
104	0xbe618a05	-0.22025307
105	0xbe66befa	-0.2253379
106	0xbdfd9bf6	-0.12383263
107	0xbe516374	-0.20448095
108	0xbe59b3c9	-0.21259989
109	0xbdecda32	-0.11565055
110	0xbd86de74	-0.06585398
111	0x3e2c4b96	0.16825709
112	0x3e064ff9	0.13116445
113	0x3da8f3c6	0.08249621
114	0x3e147f67	0.14501725
115	0xbd5b449d	-0.05353223
116	0xbe35a10a	-0.17737213
117	0xbe7ec918	-0.24881399
118	0x3d43add6	0.047773205
119	0xbe055036	-0.1301888
120	0xbe4b232e	-0.19837639
121	0xbf00f6c9	-0.50376564
122	0xbe4cfc6a	-0.20018163
123	0xbdc8d118	-0.098055065
124	0x3f00795b	0.50185174
125	0xbec50b0a	-0.38484985
126	0x3e700965	0.23441084
127	0x3e078add	0.13236566
128	0x3d6953c5	0.056964654
129	0xbe696d56	-0.22795615
130	0xbe0e0fd9	-0.13873233
131	0x3e315989	0.17319311
132	0x3da9de54	0.08294359
133	0x3d13253c	0.03592418
134	0xbea30f4b	-0.31847605
135	0xbdcd3bb1	-0.10021151
136	0xbdbf3498	-0.09336203
137	0xbe50854b	-0.20363347
138	0x3e30a5bd	0.17250724
139	0xbe385867	-0.18002473
140	0x3b4df507	0.0031426565
141	0x3d7df5a2	0.06200183
142	0xbde0870c	-0.10963258
143	0xbdd18be1	-0.10231758
144	0xbe52533e	-0.20539567
145	0xbe6548b0	-0.2239101
146	0x3c044bf1	0.0080747465
147	0xbe197842	-0.14987281
148	0xbe9c5f45	-0.30541435
149	0xbdfb42dd	-0.122686125
150	0xbce503b1	-0.027955862
151	0xbe1ba7ad	-0.15200682
152	0x3d355236	0.044267856
153	0xbd12273a	-0.03568194
154	0x3db92897	0.09040945
155	0xbdd45d8e	-0.10369407
156	0xbeb94839	-0.36187914
157	0xbe6ab2eb	-0.22919814
158	0xbdc5c463	-0.096565984
159	0xbe1600fe	-0.14648816
160	0xbe63269e	-0.221827
161	0xbde3f1ea	-0.11130126
162	0xbe9fdf30	-0.31224966
163	0xbdf30e0d	-0.11867914
164	0xbe38c5bf	-0.18044184
165	0xbccfa2d6	-0.0253462
166	0xbd890379	-0.066901155
167	0xbebd54a9	-0.36978653
168	0xbd98f1c4	-0.07467988
169	0xbdad0e3d	-0.08449981
170	0xbe3eb401	-0.18623354
171	0xbe016866	-0.12637481
172	0x3da248a6	0.07924013
173	0xbe3c79f4	-0.18405896
174	0x3e6a3be1	0.22874404
175	0xbe9f3249	-0.31093052
176	0x3c831ad4	0.016004004
177	0xbdf0989c	-0.11747858
178	0xbe77f780	-0.24215508
179	0x3e487141	0.19574453
180	0x3e057c48	0.13035691
181	0xbd9b778d	-0.07591162
182	0xbd725f8f	-0.059173163
183	0xbe526b6a	-0.20548788
184	0xbec3fb14	-0.38277495
185	0xbdb51d22	-0.08843447
186	0xbe7394cd	-0.23787232
187	0xbd4605cd	-0.048345376
188	0xbda3767e	-0.07981585
189	0xbd9295c2	-0.0715747
190	0xbcbcfcd6	-0.02306978
191	0xbd50316c	-0.050828382
192	0x3db9153c	0.09037253
193	0x3d14574b	0.03621606
194	0x3bc0c156	0.0058824224
195	0xbdc752a0	-0.09732556
196	0xbd4f3b6c	-0.05059378
197	0x3e0549ee	0.13016483
198	0xbdfdaccb	-0.12386473
199	0xbdf3a8ee	-0.11897455
200	0x3df7f42d	0.1210712
201	0xbe978e29	-0.29600647
202	0xbe5fcb2b	-0.21854846
203	0xbbd22984	-0.0064136405
204	0xbc2b5047	-0.010456151
205	0xbe76f59c	-0.2411713
206	0xbd3dc062	-0.04632605
207	0xbd4ab54a	-0.049489297
208	0x3ef081e3	0.46974096
209	0xbd227189	-0.039659057
210	0xbeb6326a	-0.35585338
211	0x3e2f4221	0.1711507
212	0x3da28b49	0.07936723
213	0xbd9365b5	-0.071971335
214	0x3b7c4a40	0.0038496405
215	0xbcee42b6	-0.029084545
216	0x3d87179d	0.06596301
217	0x3eaea154	0.3410746
218	0xbe43cb56	-0.19120535
219	0xbe57c5cf	-0.21071552
220	0xbdd9f90c	-0.10643205
221	0xbd9df98d	-0.07713614
222	0x3e54d078	0.2078265
223	0xbe93998c	-0.28828084
224	0xbde4e2f8	-0.11176103
225	0xbe529a3a	-0.20566645
226	0x3cbb3912	0.022854362
227	0xbec2c0da	-0.3803776
228	0xbd9f6b09	-0.07784087
229	0x3da4861f	0.08033394
230	0xbe8deb6c	-0.27718675
231	0x3da21bbc	0.07915446
232	0xbe775442	-0.24153236
233	0xbe9f0bb1	-0.31063607
234	0x3f2e59dd	0.6810587
235	0xbea3b735	-0.31975713
236	0xbd497ab2	-0.049189277
237	0x3d00a850	0.031410515
238	0x3dbf85c4	0.09351686
239	0x3ebaf881	0.36517718
240	0xbe783d0d	-0.24242039
241	0x3f3e3541	0.7430001
242	0xbe8105a9	-0.2519963
243	0x3ee77d2a	0.4521268
244	0xbe11bfea	-0.14233366
245	0x3e2164b5	0.15761073
246	0xbe0319f6	-0.12802872
247	0x3dd416d5	0.10355917
248	0x3dca87c8	0.098891795
249	0xbec0f71c	-0.3768853
250	0xbe741b3b	-0.23838513
251	0xbe64fc64	-0.22361904
252	0x3913db9e	0.00014100826
253	0xbe30aebf	-0.1725416
254	0x3e86e71e	0.26348203
255	0x3d9f3177	0.077731065

bias f4 [64]
0	0x3e2515c0	0.16121578
1	0xbe169a31	-0.14707257
2	0xbdc3e091	-0.09564317
3	0xbd22f8d0	-0.039788067
4	0xbe83b3a3	-0.2572299
5	0x3e155d01	0.1458626
6	0x3d745aae	0.05965679
7	0x3e0de424	0.1385656
8	0x3e1e6284	0.15467268
9	0x3c783556	0.015149435
10	0xbd8661e5	-0.06561641
11	0x3db37844	0.08763173
12	0xbe20a8c1	-0.15689375
13	0xbd006dd8	-0.031354755
14	0xbc6e9801	-0.014562608
15	0xbc92a904	-0.017902859
16	0x3d480e34	0.04884167
17	0x3e370cd9	0.17875995
18	0x3d025a65	0.03182449
19	0x3e0e5ffc	0.13903803
20	0x3d012787	0.031531837
21	0x3e03cf3a	0.1287202
22	0x3dbe6c1c	0.09297964
23	0xbe1b8546	-0.15187559
24	0xbd721f9c	-0.059112176
25	0xbde69cae	-0.11260353
26	0xbccea672	-0.025225852
27	0x3dbda312	0.09259619
28	0x3d0ed44f	0.034870442
29	0x3dac759f	0.08420872
30	0x3e8ed198	0.27894282
31	0xbccc5360	-0.0249421
32	0xbd7c8f13	-0.061659884
33	0x3d7cb7d9	0.06169877
34	0xbddc1b1f	-0.107473604
35	0x3dae1e39	0.08501858
36	0x3e222d6f	0.15837644
37	0xbe0a366c	-0.13497323
38	0xbe831a72	-0.25606114
39	0x3e480661	0.19533683
40	0x3da09945	0.07841734
41	0xbda1f6d5	-0.079084076
42	0xbd01f68f	-0.031729277
43	0xbe01d694	-0.12679511
44	0x3deba1b0	0.11505449
45	0xbdfc13ea	-0.12308486
46	0xbe536f57	-0.20647942
47	0x3d308bc0	0.043102026
48	0x3de10ed5	0.10989157
49	0xbce9ae9e	-0.028525647
50	0xbe4193d8	-0.18904054
51	0xbda7f9d6	-0.08201949
52	0xbe1a4e28	-0.15068877
53	0xbd290073	-0.041260194
54	0x3e2789a0	0.16361094
55	0xbd738db4	-0.05946131
56	0xbdb85a14	-0.09001556
57	0xbca3878f	-0.0199621
58	0xbd279756	-0.04091581
59	0xbdbea54c	-0.093088716
60	0x3df6cb8a	0.12050541
61	0x3c979cef	0.018507449
62	0xbcead939	-0.028668033
63	0x3e03f722	0.12887242

weight f4 [1, 64]
0	0x3cd8f2a8	0.026482895
1	0x3c9e6a78	0.019337878
2	0xbccc9699	-0.024974154
3	0x3d10fc1b	0.035396677
4	0x3c127601	0.008939267
5	0xbcfc09e4	-0.030766435
6	0xbcea9ee3	-0.028640216
7	0xbd4621ef	-0.048372205
8	0x3e0a090e	0.13480017
9	0x3ca800b7	0.020508153
10	0x3d358e46	0.044325136
11	0x3d21c95b	0.03949867
12	0xbc2052bb	-0.0097853495
13	0x3d19a068	0.03750649
14	0xbd07165e	-0.032980315
15	0x3ca55e11	0.020186456
16	0xbc87fc36	-0.016599756
17	0x3cb5ab57	0.022176428
18	0xbaed0797	-0.0018083927
19	0xbe07dc06	-0.13267526
20	0xbce9c7ae	-0.028537598
21	0xbca7272b	-0.020404419
22	0xbcc089e7	-0.023503257
23	0xbea24724	-0.316949
24	0x3d023ecf	0.03179818
25	0xbcf45e04	-0.029829986
26	0x3d1ce35c	0.038302764
27	0xbc7f0eef	-0.015567525
28	0x3dce0304	0.10059169
29	0xbc629421	-0.013829262
30	0x3c8940d6	0.016754549
31	0xbbe7498a	-0.007058327
32	0xbd29b4ed	-0.04143231
33	0xbc309c73	-0.010779488
34	0x3ca7a0fc	0.020462506
35	0x3cf92ea1	0.030417742
36	0xbd4ba9d8	-0.049722522
37	0xbc8efbb8	-0.017454013
38	0x3c4d782c	0.012540858
39	0xbcab621d	-0.020920807
40	0xbd153f01	-0.03643704
41	0xbbf33619	-0.0074222204
42	0xbcc561fc	-0.024094574
43	0xbe01199e	-0.12607428
44	0x3d483457	0.04887804
45	0x3cee31fc	0.029076569
46	0x3cd9802e	0.026550379
47	0x3d45dbc4	0.048305288
48	0xbcbc2326	-0.022965979
49	0xbcc90e9c	-0.0245431
50	0x3d0ab9ef	0.033868726
51	0x3de380d4	0.111085564
52	0x3cf1c11c	0.029511027
53	0xbd89def3	-0.06731977
54	0xbcd8a024	-0.026443549
55	0xbbd0081f	-0.0063486244
56	0xbcea9230	-0.02863416
57	0x3d809154	0.06277719
58	0xbcc4afde	-0.024009641
59	0x3b87ee9c	0.0041483175
60	0x3e4cf073	0.20013599
61	0x3cf6e371	0.03013775
62	0xbdf90bf9	-0.12160487
63	0x3cc50150	0.024048477
